mobilenet_weights/composition_vii.pth (torch, 985894 bytes, 85 tensors)

conv1.weight f4 [32, 3, 9, 9]
0	0x3d14232b	0.03616635
1	0x3cf078ca	0.029354472
2	0x3a33390d	0.00068368093
3	0x3dc7b0b5	0.09750501
4	0x3c5218e1	0.012823314
5	0x3d293c48	0.041317254
6	0xbb9a611d	-0.004711284
7	0x3d93b267	0.07211762
8	0xbcaa7483	-0.02080751
9	0x3c5bab37	0.01340752
10	0x3d67677e	0.056495182
11	0x3dc73df3	0.09728613
12	0x3d62be1e	0.05535709
13	0x3bee8cd9	0.007279974
14	0x3ca28537	0.019838912
15	0x3d23f971	0.040032808
16	0x3d0eab80	0.034831524
17	0x3d4d7960	0.05016458
18	0x3d118000	0.03552246
19	0x3da0b34c	0.07846698
20	0x3cc02a85	0.023457775
21	0xbc8b1356	-0.016976994
22	0x3db88c6e	0.0901116
23	0xbb84d222	-0.00405337
24	0x3da0e941	0.0785699
25	0x3b4fdae1	0.0031716155
26	0xbb709f95	-0.0036716212
27	0xbcce6528	-0.02519472
28	0x3d897afe	0.06712912
29	0xbc99d622	-0.018778864
30	0x3d198882	0.0374837
31	0x3d6752c7	0.056475427
32	0x3c3271d2	0.010891395
33	0x3db95469	0.09049303
34	0x3c8de214	0.017319717
35	0x3d17b040	0.03703332
36	0x3ca46d64	0.020071693
37	0xbcdfb831	-0.027309509
38	0x3c2bec35	0.010493328
39	0x3d20b4c1	0.03923488
40	0xbd06748c	-0.03282599
41	0x3d7b0f8f	0.061294135
42	0x3da34d28	0.07973701
43	0x3d834f5c	0.06411621
44	0x3ad8d9e1	0.0016544425
45	0x3d8cfffe	0.06884764
46	0x3da03dba	0.078242734
47	0x3c47fca7	0.012206233
48	0x3d6fff8e	0.058593325
49	0x3c5eba86	0.013594275
50	0x3cbfc120	0.023407519
51	0x3d72b39a	0.059253313
52	0x3af9a5bf	0.0019046589
53	0x3d02504f	0.03181487
54	0xbcaa3e83	-0.020781761
55	0x3d57a85f	0.052650806
56	0xbbe2d52f	-0.006922386
57	0x3da48b98	0.08034438
58	0x3d986246	0.07440619
59	0x3d003b0d	0.031306315
60	0x3d6057aa	0.054771103
61	0x3bfd26f9	0.007725593
62	0x3d4fd89d	0.050743688
63	0xbbd45fe3	-0.006481157
64	0xbd404e36	-0.046949588
65	0xbd719b69	-0.0589861
66	0xbdc40911	-0.09572042
67	0xbd93c87c	-0.07215974
68	0xbd775527	-0.060383942
69	0x3cde2273	0.027116036
70	0xbd1dc3e9	-0.038516913
71	0x3cfe85c0	0.031069636
72	0xbbe38131	-0.006942891
73	0xbdad9942	-0.08476497
74	0xbdb3a553	-0.087717675
75	0x39769abb	0.0002351803
76	0xbd940b7d	-0.07228754
77	0x3c3f232c	0.0116661005
78	0x3cb98f1f	0.022651253
79	0xbda1435e	-0.078741774
80	0x3cc2337f	0.023706196
81	0x3cbc7bff	0.023008345
82	0xbc918efb	-0.017768374
83	0xbbbfd035	-0.0058536776
84	0x3cc25a51	0.023724707
85	0x3d5b71f5	0.053575475
86	0x3dc8a71c	0.097974986
87	0xbc0bbc15	-0.008528729
88	0x3ba5fb96	0.005065392
89	0x3d52b7d0	0.05144483
90	0x3dd0dae4	0.10198
91	0x3a681176	0.00088526995
92	0xbc8abc20	-0.016935408
93	0x3d6d18df	0.057885047
94	0x3d1a7d8a	0.03771738
95	0x3c2b2ab0	0.010447189
96	0x3cca62a8	0.024705246
97	0xbcb3d35c	-0.02195137
98	0x3c7cd218	0.01543095
99	0x3cca367e	0.024684187
100	0x3d924ed4	0.071439415
101	0x3cb503f6	0.022096615
102	0x3d779a30	0.06044978
103	0x3d61245b	0.054966312
104	0x3d519d20	0.051175237
105	0xbb7ff299	-0.0039054512
106	0x3c212c86	0.009837275
107	0x3dd06a0b	0.10176476
108	0x3dc60c08	0.096702635
109	0x3d880c19	0.066429324
110	0x3d5f3819	0.05449686
111	0xbcbe5570	-0.0232341
112	0x3c18f6ac	0.009336155
113	0x3ca49dd4	0.02009479
114	0x3c78eea0	0.015193611
115	0x3d5402ff	0.05176067
116	0xbc96558f	-0.018351344
117	0x3d40c26b	0.04706041
118	0xb920c5a3	-0.00015332414
119	0x3d5d9f61	0.054107074
120	0x3ce670ba	0.028129924
121	0x3d9e988b	0.07743939
122	0x3d6ec398	0.058292
123	0xbc0c451a	-0.008561397
124	0x3d6ae38c	0.05734591
125	0xbcd550cf	-0.02603951
126	0x3d8a2422	0.06745173
127	0x3d875ea2	0.06609847
128	0x3d9f5413	0.07779708
129	0xbc302fc6	-0.010753578
130	0x3d26888e	0.040657572
131	0xbcc4964a	-0.023997445
132	0xbccfa5ed	-0.025347674
133	0x3d734e46	0.05940082
134	0xbcc22003	-0.023696905
135	0xbbb46084	-0.0055046696
136	0x3ce2ca62	0.027684394
137	0xbbe406da	-0.0069588246
138	0x3d11cc3d	0.035595167
139	0x3db0ec6e	0.086388454
140	0x3bc5ca58	0.006036084
141	0xbc6b8655	-0.014375289
142	0x3d8f1795	0.0698692
143	0x3ce5b73e	0.028041478
144	0xbc2ce28e	-0.010552062
145	0x3d476546	0.048680566
146	0x3db13c1a	0.086540416
147	0x3d5895b1	0.05287713
148	0x3db83fa4	0.089965135
149	0x3cb44a40	0.022008061
150	0x3cf3356a	0.029688556
151	0xbd02794a	-0.03185395
152	0xbc1cfbc8	-0.009581514
153	0xbc01abfe	-0.007914541
154	0x3c95f992	0.018307481
155	0xbcef89cb	-0.02924051
156	0x3d984fbd	0.07437084
157	0xbc6ca02f	-0.014442488
158	0x3d9f663f	0.07783174
159	0xb940afb1	-0.00018375997
160	0x3da1ceea	0.07900794
161	0x3d27604e	0.040863328
162	0xbcb368e8	-0.02190061
163	0xbc238362	-0.009980055
164	0xbd729795	-0.05922659
165	0xbd8276dd	-0.063703276
166	0x3c81e309	0.01585533
167	0xbd0f3b90	-0.034968913
168	0xbd5676e1	-0.052359466
169	0x39931fa2	0.00028061593
170	0xbced5446	-0.028970849
171	0xbd3bf958	-0.04589209
172	0xbcdfcb5b	-0.027318647
173	0x3bfb011a	0.0076600434
174	0xbd7d8484	-0.061893955
175	0xbcc428e6	-0.023945283
176	0x3c7f2afd	0.015574214
177	0xbcffef9f	-0.03124219
178	0x3c01b26c	0.007916074
179	0xbc0d689c	-0.008630898
180	0xbc673987	-0.014112837
181	0xbd464864	-0.04840888
182	0x3c93a05b	0.0180208
183	0x3ca28cdd	0.01984256
184	0x3ba65e33	0.0050771474
185	0x3b90bcd5	0.004417042
186	0x3c4b089d	0.01239219
187	0x3d086024	0.03329481
188	0x3cfd0b64	0.03088922
189	0x3b851959	0.0040618596
190	0xbd89b95b	-0.06724807
191	0xbd80ca38	-0.0628857
192	0xbc9a2e40	-0.018820882
193	0x3d6f478b	0.058417838
194	0x3d1e47b0	0.038642585
195	0xbca786ff	-0.020450113
196	0xbbd1f001	-0.0064067845
197	0xbd391708	-0.04518798
198	0xbd1304f5	-0.0358934
199	0x3d2e5228	0.04255882
200	0xbc27c576	-0.010239949
201	0x3d05410e	0.032532744
202	0x3c6fe87c	0.014642831
203	0x3cd5d09d	0.026100451
204	0xbc34615f	-0.011009543
205	0xbdbf6252	-0.09344925
206	0xbdaf0f57	-0.08547848
207	0x3d3314c7	0.043720987
208	0x3baae8fe	0.005215763
209	0xbd363954	-0.044488266
210	0xbcc47658	-0.023982212
211	0x3c30e975	0.010797848
212	0x3d0777f5	0.033073384
213	0xbda5a1cd	-0.08087502
214	0x3ce57876	0.028011542
215	0xbd4fdf5b	-0.050750118
216	0x3d43fdd6	0.0478495
217	0xbc791493	-0.015202659
218	0x3c68a455	0.014199336
219	0xbccc24fd	-0.024919981
220	0xbd47de65	-0.048796076
221	0xbcc6c8a3	-0.024265593
222	0x3ce73be4	0.0282268
223	0xbd01cf2d	-0.03169172
224	0x3cbbd565	0.022928903
225	0x3c7d22f3	0.015450227
226	0x3d2ddcd3	0.042446923
227	0xbd8cc9d3	-0.068744324
228	0xbd8bc662	-0.06824948
229	0x3c62b711	0.013837592
230	0xbcb7a3b8	-0.022416934
231	0xbd02ef17	-0.031966295
232	0xbd796b49	-0.06089333
233	0xbce1750e	-0.027521636
234	0x3c905b50	0.017621666
235	0xbbc22919	-0.0059253094
236	0xbd16c71c	-0.03681098
237	0xbd970043	-0.07373097
238	0xbd760495	-0.060062964
239	0xbccd1c05	-0.025037775
240	0x3d0d18aa	0.03444735
241	0xbd3096e5	-0.043112654
242	0xbb9d9a77	-0.0048096734
243	0x3bb97ea9	0.005660851
244	0xbd488124	-0.048951283
245	0xbce3c3ce	-0.027803328
246	0xbd23c9e2	-0.039987452
247	0xbd95e18d	-0.07318411
248	0x3c994e48	0.018714085
249	0xbc3da3c1	-0.0115746865
250	0x3c90f342	0.01769412
251	0x3c03d8d0	0.008047298
252	0x3c23e153	0.010002452
253	0xbd4c8fbb	-0.04994176
254	0xbd1195d8	-0.035543293
255	0xbd24b043	-0.04020716

in1.weight f4 [32]
0	0x3f350c39	0.70721775
1	0x3edd35b6	0.4320504
2	0x3f5b8abf	0.85758585
3	0x3f2dee2a	0.67941535
4	0x3f1ac17c	0.60451484
5	0x3f279177	0.65456337
6	0x3f30b692	0.6902858
7	0x3efbebee	0.49203438
8	0x3f09956c	0.53743625
9	0x3f56be01	0.8388367
10	0x3f4c56b7	0.79819816
11	0x3f5ebb3a	0.87004435
12	0x3f2e2869	0.6803041
13	0x3f278cc3	0.6544916
14	0x3f628654	0.8848622
15	0x3f2096ec	0.6273029
16	0x3f547138	0.8298526
17	0x3f113696	0.56723917
18	0x3f43ad89	0.7643667
19	0x3f1e315c	0.61794066
20	0x3f528d88	0.8224721
21	0x3f35cb50	0.71013355
22	0x3f034ef2	0.51292336
23	0x3f13ad33	0.57686156
24	0x3f323f81	0.6962815
25	0x3f482492	0.781808
26	0x3f439a27	0.7640709
27	0x3f10857c	0.5645368
28	0x3f490868	0.7852845
29	0x3f0dc5d5	0.5537999
30	0x3f23dd46	0.6400951
31	0x3f4c72b6	0.79862535

in1.bias f4 [32]
0	0xbe766804	-0.24063116
1	0x3f4b6f13	0.7946636
2	0xbdc287c1	-0.09498549
3	0x3b428538	0.0029681455
4	0x3d898437	0.06714671
5	0xbb843c47	-0.004035506
6	0x3c1f3d02	0.009719135
7	0x4024e6fe	2.5765986
8	0x400114b6	2.016889
9	0x3f9354e9	1.1510288
10	0x3fdb26b9	1.7121192
11	0xbe0e981c	-0.13925213
12	0x3fe23d90	1.7675037
13	0xbe22ffb4	-0.15917856
14	0xbda4d54b	-0.08048495
15	0xbe66e15a	-0.22546902
16	0x3e301c08	0.17198193
17	0x404adb0e	3.16962
18	0xbda662e8	-0.081243336
19	0xbcc6cc1c	-0.024267249
20	0xbdd8e45d	-0.10590432
21	0xbd18186a	-0.037132658
22	0x3f9b6de6	1.2142913
23	0xbcb8c5b3	-0.022555208
24	0x40258e9e	2.5868297
25	0xbe5c3b3c	-0.21506971
26	0x3d1a05c9	0.037603173
27	0xbdaf88d8	-0.08571023
28	0xbc4d1b67	-0.01251874
29	0xbe19bf5a	-0.15014401
30	0x3c19b0a7	0.009380496
31	0x3e9667d2	0.29376084

conv2.conv1.weight f4 [32, 32, 1, 1]
0	0xbda37270	-0.079808116
1	0xbd9146ef	-0.07093608
2	0xbc764d1c	-0.015033033
3	0x3d9143cd	0.0709301
4	0xbe6cc44a	-0.23121753
5	0xbddf0536	-0.10889666
6	0x3dc8b2e2	0.09799744
7	0x3e0f18e7	0.13974343
8	0x3d662c91	0.056194846
9	0xbd7c2cc3	-0.061566126
10	0xbd7af9c5	-0.061273355
11	0xbdadf93b	-0.084948026
12	0x3e5545b2	0.20827368
13	0x3d338bb6	0.04383441
14	0xbc6be114	-0.0143969245
15	0x3df09c7b	0.11748596
16	0xbd87b9f3	-0.06627264
17	0xbe89bd96	-0.26902455
18	0xbd851bda	-0.06499453
19	0xbdd0dd84	-0.10198501
20	0x3e8ddb95	0.2770659
21	0xbc247810	-0.010038391
22	0xbe252127	-0.16125928
23	0x3e68d3a1	0.2273698
24	0x3e36e79f	0.17861794
25	0xbd057ee8	-0.03259173
26	0x3a7b982e	0.00095975667
27	0xbe0fd575	-0.14046271
28	0x3c431112	0.011905925
29	0x3df44ec6	0.11929087
30	0x3d008c58	0.031383842
31	0xbdfc60b4	-0.12323132
32	0xbc2c2224	-0.010506187
33	0x3c5f1bf6	0.013617506
34	0x3daa1548	0.0830484
35	0x3bef90fc	0.0073109847
36	0x3d997e38	0.074947774
37	0x3e068370	0.13136077
38	0xbe03dcc7	-0.12877189
39	0xbeca9b79	-0.3957174
40	0xbe9699bd	-0.29414168
41	0x3ac8df48	0.0015325332
42	0x3de3fffb	0.11132809
43	0xbdc4d643	-0.0961118
44	0xbe123653	-0.14278536
45	0xbd8d8e30	-0.06911886
46	0x3d1d6d7e	0.038434498
47	0x3d2d6b1b	0.04233847
48	0x3b501935	0.0031753306
49	0x3eb5a994	0.3548094
50	0xbda6c2da	-0.08142634
51	0xbd229f8d	-0.03970294
52	0xbc1d681c	-0.009607341
53	0x3d7e97b6	0.0621564
54	0x3e6fa029	0.2340094
55	0x3dd03292	0.101658955
56	0x3cbf2b39	0.02333604
57	0x3de9605b	0.113953315
58	0x3df4cb39	0.11952824
59	0xbdc3a294	-0.09552494
60	0x3d56d6ee	0.052451067
61	0x3d6f71ee	0.05845826
62	0x3d9d5152	0.07681526
63	0xbd50257e	-0.050817005
64	0x3df47ea7	0.119382195
65	0x3d6cb62a	0.057790913
66	0x3e3d7873	0.18502979
67	0x3e31b913	0.17355756
68	0xbdc0fe2f	-0.09423482
69	0xbdee367c	-0.11631486
70	0x399e92d9	0.00030245518
71	0x3d5ff086	0.05467274
72	0x3dc40f66	0.095732495
73	0xbeafe9d0	-0.34358072
74	0x3ed38403	0.41311654
75	0x3daa3515	0.08310906
76	0x3e06025e	0.1308684
77	0x3e328314	0.17432815
78	0x3e40e71b	0.1883816
79	0x3bf4b34a	0.007467662
80	0x3dc2a910	0.09504902
81	0x3e8c68f6	0.2742383
82	0xbe302340	-0.17200947
83	0xbdc49fe8	-0.09600812
84	0x3cd5fc2f	0.026121227
85	0x3d5ee44c	0.05441694
86	0xbe3534a3	-0.1769586
87	0x3c7ebd26	0.015548026
88	0xbded9841	-0.11601306
89	0xbe12a5fc	-0.1432113
90	0x3cf23334	0.029565431
91	0x3ce8e8f0	0.028431386
92	0xbd925966	-0.07145958
93	0xbe15151a	-0.14558831
94	0x3dc72ac8	0.09724957
95	0x3c03e946	0.008051222
96	0xbdad852a	-0.08472665
97	0xbd8174dd	-0.06321118
98	0x3dc10e7e	0.09426592
99	0x3d5539ba	0.052057005
100	0x3dceab7a	0.100913
101	0x3de46cdf	0.11153578
102	0x3de054b7	0.10953658
103	0x3e3ac058	0.18237436
104	0xbe8c7a8f	-0.27437255
105	0xbeaadac1	-0.3337002
106	0x3d7ee7fe	0.062232964
107	0x3cd37ecd	0.0258173
108	0xbe9c5e82	-0.30540854
109	0x3d6384f3	0.055546712
110	0xbd55c4bf	-0.052189585
111	0x3c08ebc4	0.008356992
112	0xbe282755	-0.16421254
113	0x3de7c669	0.113171406
114	0xbd9d932f	-0.07694089
115	0xbe2485dd	-0.1606669
116	0xbd8f908e	-0.070099935
117	0x3da06e53	0.07833543
118	0xbefd4a81	-0.49470904
119	0x3dccf267	0.10007172
120	0x3ddab33a	0.10678716
121	0xbe286145	-0.16443355
122	0x3d1ea189	0.03872827
123	0x3d734bdb	0.059398513
124	0xbdd2082b	-0.10255464
125	0x3def75a3	0.11692359
126	0xbd70bbbe	-0.058772795
127	0x3d35e7ee	0.04441064
128	0x3e620a58	0.22074258
129	0xbcc9671d	-0.024585301
130	0x3e539de8	0.20665705
131	0x3d27ca98	0.040964693
132	0x3dccd107	0.10000806
133	0x3c84b7ed	0.016200984
134	0xbe2fb4d7	-0.17158829
135	0x3e34a1a0	0.1763978
136	0x3d1a1579	0.037618134
137	0xbe3eec8c	-0.18644923
138	0x3e6d96a8	0.23202002
139	0x3e8d0670	0.27543974
140	0x3defe8f6	0.11714356
141	0xbd443da7	-0.04791036
142	0xbdfa3b0d	-0.12218294
143	0xbdca974b	-0.09892138
144	0xbcaceb6c	-0.021108352
145	0xbe376aaf	-0.1791179
146	0xbc848c05	-0.016180048
147	0xbd7abbfd	-0.061214436
148	0xbdff4279	-0.124638505
149	0xbdb0d46a	-0.08634265
150	0xbdcbb4fd	-0.0994663
151	0xbbb12bf2	-0.00540685
152	0xbe9e60fa	-0.30933362
153	0x3e9d6b99	0.30746153
154	0xbe2a2626	-0.16616115
155	0xbe061541	-0.13094045
156	0x3d33ddae	0.043912582
157	0xbdefa100	-0.1170063
158	0x3c80bff1	0.015716525
159	0xbd82ffb3	-0.06396427
160	0x3d6be3e9	0.0575904
161	0xbc21376d	-0.009839875
162	0x3ceca29a	0.028886128
163	0xbd1129d0	-0.035440266
164	0x3d990390	0.074713826
165	0x3dbf4c65	0.09340743
166	0xbd9cc7b3	-0.07655277
167	0xbe378e43	-0.17925362
168	0xbde8409e	-0.1134045
169	0xbdda39b1	-0.10655535
170	0x3ee0b994	0.43891585
171	0x3e2ea745	0.17055996
172	0x3f05d5d9	0.5227943
173	0x3c3e3032	0.01160817
174	0xbd7cfcc7	-0.061764505
175	0x3d269f16	0.04067906
176	0x3d227bd3	0.03966887
177	0xbddabc40	-0.10680437
178	0x3dde57a4	0.1085656
179	0x3d36a218	0.04458818
180	0x3dec4a8e	0.11537658
181	0xbe36b20d	-0.17841358
182	0x3e463943	0.19357781
183	0x3d4c8fd8	0.049941868
184	0xbe5bae48	-0.21453202
185	0xbdcaff33	-0.09911957
186	0x3cd7061e	0.026248034
187	0xbdf6487c	-0.12025544
188	0xbdbd0a8b	-0.092305265
189	0x3ce0e1ff	0.027451513
190	0xbb066f26	-0.0020513027
191	0x3ca56f13	0.020194566
192	0xbdcc0dbf	-0.09963559
193	0xbe4c1d9f	-0.19933175
194	0x3dd7045c	0.10498878
195	0xbe2940e1	-0.16528656
196	0x3dc873f0	0.09787738
197	0xbd549c29	-0.05190674
198	0x3c134639	0.00898891
199	0x3db20ddb	0.08694049
200	0x3e148513	0.14503889
201	0x3db05ae9	0.0861109
202	0xbd3a40c6	-0.04547193
203	0x3dd2421a	0.10266514
204	0x3e79aa47	0.24381362
205	0xbd95d5cc	-0.07316169
206	0xbe157dc6	-0.1459876
207	0xbdd9b0fe	-0.10629462
208	0xbe4956fd	-0.1966209
209	0x3d7cc0f8	0.061707467
210	0x3e00a1ec	0.12561768
211	0xbe1ed73e	-0.15511796
212	0xbd9575a5	-0.072978295
213	0xbd85774e	-0.06516896
214	0xbdddedf5	-0.10836402
215	0x3ea976d0	0.3309846
216	0x3e151e68	0.1456238
217	0x3d159d5b	0.03652702
218	0x3e0c9b8c	0.13731211
219	0xbc86cfea	-0.016456563
220	0xbdf63ac4	-0.120229274
221	0xbe47cfff	-0.19512938
222	0x3ee2312c	0.4417814
223	0x3d9b2f00	0.07577324
224	0x3b80bc09	0.0039286655
225	0x3ea2dcd7	0.31809112
226	0xbdf354dd	-0.11881421
227	0x3c40b814	0.011762638
228	0xbdd4f3f6	-0.10398094
229	0xbdd4f653	-0.10398545
230	0x3c64bb36	0.01396065
231	0x3ceaba4f	0.028653292
232	0xbe974a96	-0.29549092
233	0x3d416887	0.047218826
234	0x3c3c918f	0.011509313
235	0x3c818dd7	0.015814705
236	0xbe002996	-0.12515864
237	0xbda6b4c9	-0.08139951
238	0x3c23cf27	0.009998119
239	0x3dc74ccf	0.09731447
240	0xbd9bf1e6	-0.07614498
241	0xbe0b4ac0	-0.13602734
242	0x3e068259	0.13135661
243	0xbcffad7a	-0.03121065
244	0xbcf68385	-0.03009201
245	0xbd814da4	-0.06313637
246	0xbcedfaf2	-0.029050324
247	0xbd4499a5	-0.04799809
248	0xbef52db0	-0.4788642
249	0x3e3c0ce5	0.18364294
250	0xbd9e40d8	-0.07727212
251	0xbe0792fe	-0.13239667
252	0xbe32ee2e	-0.17473671
253	0x3df12206	0.117740676
254	0x3e203e6c	0.15648812
255	0xbe912e11	-0.28355458

conv2.in1.weight f4 [32]
0	0x3d54743f	0.051868673
1	0x3e8da3bf	0.2766399
2	0x3ecfb0b6	0.40564507
3	0x3edad0e9	0.4273751
4	0x3f3c8ffd	0.7365721
5	0x3d41b816	0.0472947
6	0x3f720bc7	0.9454922
7	0x3f62c86c	0.8858707
8	0x3f33b165	0.7019256
9	0x3d2d6144	0.042329088
10	0x3f02578c	0.50914836
11	0x3f47e6fb	0.78086823
12	0x3d8259e6	0.06364803
13	0x3f0aef83	0.54271716
14	0x3f413969	0.75478226
15	0x3f0cbe6f	0.5497808
16	0x3f2161f0	0.63040066
17	0x3e4661df	0.19373272
18	0x3eb45b82	0.35226065
19	0x3f1e4435	0.61822826
20	0x3f0a1ea5	0.5395301
21	0x3d189582	0.037251957
22	0x3f67d757	0.9056296
23	0x3f5199e9	0.81875473
24	0x3dc5ef7d	0.096648194
25	0x3d484057	0.048889484
26	0x3f28b0d2	0.65894806
27	0x3f82c0fc	1.0215144
28	0x3f826878	1.0188131
29	0x3f327c1b	0.6972062
30	0x3f439c07	0.76409954
31	0x3e31599a	0.17319337

conv2.in1.bias f4 [32]
0	0x3f3429b6	0.70376146
1	0x3ed81a51	0.42207578
2	0x3eca6ecb	0.39537653
3	0x3efafe13	0.49021968
4	0xbe403602	-0.18770602
5	0x3f1936fd	0.5984953
6	0x3e0a163f	0.13485049
7	0x3de5a370	0.11212814
8	0x3ea73dcb	0.32664332
9	0x3f043903	0.5164949
10	0x3ee1802f	0.4404311
11	0x3e0389e0	0.12845564
12	0x3f1b9d35	0.60786754
13	0x3ea904e9	0.3301156
14	0xbdf75739	-0.12077183
15	0x3f0ef954	0.55849195
16	0x3e0629ce	0.13101885
17	0x3eb67bee	0.35641426
18	0x3f2501cf	0.64455885
19	0x3ec88e46	0.39171046
20	0x3eece7d6	0.46270627
21	0x3ebf44ad	0.37357083
22	0x3e1ec5f6	0.15505204
23	0xbe798a57	-0.24369179
24	0x3f547cbc	0.8300283
25	0x3f197758	0.5994773
26	0x3e8aa293	0.2707716
27	0x3db60f8d	0.08889685
28	0x3d8a14a8	0.06742221
29	0x3ed909fd	0.42390433
30	0x3ea3f923	0.32026014
31	0x3f199a0f	0.600007

conv2.conv2.weight f4 [32, 1, 3, 3]
0	0x3eb6fee3	0.35741338
1	0x3dadd28b	0.084874235
2	0xbeb3c118	-0.35108256
3	0x3eb39de2	0.35081393
4	0x3db32631	0.08747519
5	0xbed2e4eb	-0.41190276
6	0x3d4a25f8	0.049352616
7	0xbdf3e4be	-0.119088635
8	0xbc9d0d9c	-0.019171529
9	0x3e2b159c	0.16707462
10	0x3e80d65a	0.25163537
11	0x3d9c3858	0.07627934
12	0x3e2ff0c9	0.17181696
13	0x3e4a97b1	0.19784428
14	0xbe816758	-0.25274158
15	0xbe36b351	-0.17841841
16	0xbd41dcd6	-0.047329746
17	0xbeac23f3	-0.33621177
18	0x3cbbd093	0.022926604
19	0x3f22c446	0.6358074
20	0x3d1b484f	0.037910756
21	0xbe81f81a	-0.253846
22	0x3eb21b10	0.34786272
23	0x3e881711	0.26580098
24	0xbe2b3c94	-0.16722327
25	0xbcb21dbf	-0.0217427
26	0xbdac7ecf	-0.08422624
27	0xbe2ee4a8	-0.17079413
28	0xbe8191d6	-0.25306576
29	0x3d53bda4	0.051694527
30	0xbd6e626b	-0.058199327
31	0xbf067de6	-0.52535856
32	0xbebe0998	-0.37116694
33	0x3ec573ee	0.3856501
34	0x3d8de8c9	0.06929166
35	0xbbbd0f9f	-0.0057696844
36	0x3e656754	0.22402698
37	0x3ee2e632	0.4431625
38	0x3e249643	0.16072945
39	0x3e299105	0.16559227
40	0x3e74bbc0	0.23899746
41	0xbe42d04f	-0.19024776
42	0xbe3857bf	-0.18002222
43	0xbe091081	-0.13385202
44	0x3d563572	0.052297063
45	0xbd664cc3	-0.05622555
46	0xbdcc6333	-0.09979858
47	0x3c2442ee	0.010025723
48	0xbe09526b	-0.13410346
49	0x3ec1571b	0.3776177
50	0x3e280188	0.16406834
51	0xbd95c83c	-0.07313582
52	0x3eee9c66	0.46603698
53	0xbe2f84e1	-0.17140533
54	0xbda9e493	-0.0829555
55	0x3e4299e5	0.19004019
56	0xbe5dc1ad	-0.21655913
57	0xbe8dddd2	-0.27708298
58	0xbdf3d4b6	-0.11905806
59	0xbeaecab4	-0.34139025
60	0xbe9e49d5	-0.30915704
61	0x3e3a6c0f	0.18205284
62	0xbccdb511	-0.025110753
63	0x3dbff5a0	0.09373021
64	0xbecb1cb7	-0.39670345
65	0xbdb37f8a	-0.087645605
66	0xbe80b8ae	-0.251409
67	0xbdb5d7c7	-0.08879047
68	0xbf00bb38	-0.50285673
69	0xbe4b4e65	-0.19854124
70	0xbda4d7c8	-0.080489695
71	0xbe5b6ae2	-0.21427491
72	0xbdd956d7	-0.106122665
73	0xbe58dc8c	-0.21177882
74	0x3cc56e56	0.024100464
75	0x3ea33b07	0.31880972
76	0x3e92fced	0.28708592
77	0xbe2fcfaf	-0.17169069
78	0x3e19e52a	0.15028825
79	0x3e9983c1	0.29983333
80	0x3e0ed9b9	0.13950242
81	0xbe4f043b	-0.20216458
82	0x3e970497	0.2949569
83	0x3e892d41	0.26792338
84	0xbd88cc81	-0.06679631
85	0x3eca6811	0.3953252
86	0x3ee17a03	0.440384
87	0xbdcf3b82	-0.10118772
88	0xbe1a18e7	-0.15048562
89	0xbe246a9a	-0.1605629
90	0xbe42c503	-0.19020467
91	0xbe398028	-0.18115294
92	0x391f26b2	0.00015177837
93	0x3ea5fe24	0.32420456
94	0x3f095ad6	0.5365423
95	0xbaab49ed	-0.0013068296
96	0xbe4434c2	-0.1916075
97	0xbe0b4e3b	-0.13604061
98	0x3d1b60e5	0.037934203
99	0xbe836ac3	-0.2566739
100	0xbb84938f	-0.0040459107
101	0xbe7777f3	-0.24166851
102	0xbe6d47aa	-0.23171869
103	0xbebac915	-0.36481538
104	0xbcba4560	-0.022738159
105	0xbe2c2988	-0.16812718
106	0xbe87a1de	-0.26490682
107	0xbd061201	-0.032732014
108	0x3d2a80e7	0.041626837
109	0x3ef5062e	0.47856277
110	0x3e87ce2b	0.2652448
111	0x3dd53a67	0.1041153
112	0x3cd42dad	0.025900686
113	0x3cc3300d	0.023826623
114	0xbd96c698	-0.073620975
115	0xbe93099c	-0.2871827
116	0xbe3610a8	-0.17779791
117	0xbe2863c9	-0.16444315
118	0x3e95f46d	0.29288045
119	0x3e84d358	0.25942492
120	0xbdf48f10	-0.119413495
121	0x3e795237	0.24347769
122	0x3ec8a219	0.3918617
123	0xbd6f66e3	-0.05844773
124	0xbe164040	-0.14672947
125	0xbe15e347	-0.1463748
126	0x3ddfa557	0.10920208
127	0x3f31a2f2	0.6938926
128	0x3df60966	0.12013511
129	0x3c6c4b3a	0.014422232
130	0x3ebe32bd	0.37148085
131	0x3e070b7e	0.13187978
132	0xbe666210	-0.22498345
133	0xbe890b10	-0.26766253
134	0xbdd79a31	-0.105274566
135	0x3eadfaad	0.33980313
136	0x3f25130b	0.6448218
137	0xbe0cbe17	-0.13744389
138	0xbe39e6b5	-0.18154414
139	0x3ea87353	0.32900485
140	0x3dc20010	0.09472668
141	0xbd8859eb	-0.066577755
142	0xbe7791d0	-0.24176717
143	0x3d99661a	0.074901775
144	0xbde7ac0c	-0.11312112
145	0xbeb37c28	-0.3505566
146	0x3e694bf1	0.22782876
147	0x3e264e8f	0.16240905
148	0xbe730962	-0.23734048
149	0xbe5dcda0	-0.21660471
150	0x3e90f4ea	0.28311855
151	0x3ce3bf2a	0.027801115
152	0x3e1029bc	0.1407842
153	0xbd9b451a	-0.075815395
154	0xbe417b9e	-0.18894812
155	0xbe584393	-0.21119528
156	0x3e2c7d47	0.16844665
157	0x3ed8985f	0.4230375
158	0x3eae11be	0.3399791
159	0xbd8ffdeb	-0.07030853
160	0x3ea44c39	0.32089403
161	0x3e1fd630	0.1560905
162	0xbe5e0956	-0.21683249
163	0xbeafd3e1	-0.34341338
164	0xbe15ef73	-0.14642124
165	0xbd7ac1ae	-0.061219864
166	0xbed1e6d3	-0.40996417
167	0xbe03a264	-0.12854916
168	0xbc05c635	-0.008164932
169	0xbde9f5a8	-0.11423808
170	0x3ca0c43b	0.01962482
171	0x3ea7e6e0	0.3279333
172	0x3d1d6be8	0.038432986
173	0xbea0572f	-0.31316516
174	0x3ec65a82	0.38740927
175	0x3d42b6a4	0.04753746
176	0xbe76db40	-0.24107075
177	0x3d064a4c	0.0327857
178	0x3d36abcf	0.044597443
179	0xbea3f5a7	-0.32023355
180	0xbde2bc26	-0.11071043
181	0x3d9617a7	0.0732873
182	0x3e76826e	0.24073192
183	0xbde31949	-0.11088807
184	0x3e6b4e02	0.22978976
185	0x3ed269eb	0.41096434
186	0xbdc0594a	-0.093920305
187	0xbe2bf544	-0.1679278
188	0x3ec47ec7	0.38377973
189	0x3c880b92	0.01660708
190	0x3e17aca0	0.14811945
191	0xbe3646e3	-0.17800479
192	0x3e85d135	0.26136175
193	0x3e3a691e	0.18204162
194	0xbe86a82b	-0.26300177
195	0xbda11a39	-0.0786633
196	0x3e4b7055	0.1986707
197	0xbe55c979	-0.20877637
198	0xbea0c37d	-0.31399146
199	0xbed8a3b5	-0.423124
200	0xbe6ba2d9	-0.2301134
201	0xbca7114f	-0.020393996
202	0xbe05e010	-0.13073754
203	0xbe63e5ce	-0.22255632
204	0x3e00c1c7	0.1257392
205	0xbcf40750	-0.029788643
206	0xbe8b86d2	-0.27251297
207	0x3e2145d4	0.15749294
208	0xbdfd7ae6	-0.12376957
209	0xbc441276	-0.011967292
210	0x3f06b2cb	0.52616566
211	0x3ead1040	0.3380146
212	0xbd595d93	-0.053067755
213	0xbdacfb86	-0.08446412
214	0xbc6bcc43	-0.0143919615
215	0xbe7cf8be	-0.24704263
216	0xbd11272e	-0.035437755
217	0x3e69f95b	0.22849028
218	0xbe5aa92d	-0.21353598
219	0x3e4b573e	0.19857499
220	0x3f21ed83	0.6325304
221	0xbd036572	-0.032079168
222	0xbe0771d2	-0.13227013
223	0xbe5738c3	-0.21017747
224	0x3dae8305	0.08521084
225	0x3ce00768	0.027347282
226	0x3ed7a6b5	0.42119375
227	0x3e332d42	0.17497733
228	0xbde26dc4	-0.110560924
229	0x3e91d4c0	0.28482628
230	0x3e114e49	0.1419002
231	0xbe8b3ad4	-0.2719332
232	0xbd2aeaa0	-0.041727662
233	0xbd8cba8d	-0.06871519
234	0xbd66951c	-0.056294546
235	0xbb0ab658	-0.0021165814
236	0xbd5507de	-0.052009456
237	0x3e8c2551	0.2737222
238	0xbd81f9da	-0.063464835
239	0xbe6845af	-0.22682832
240	0x3edef8d1	0.43549207
241	0x3f1e171c	0.6175401
242	0xbd0be3e8	-0.034152895
243	0xbe26aee2	-0.1627765
244	0xbecf3267	-0.4046814
245	0x3bdfd0cf	0.006830312
246	0xbe6f5df3	-0.23375683
247	0xbce00dba	-0.027350295
248	0xbe32c278	-0.17456996
249	0xbe5f8af5	-0.21830352
250	0xbea131fe	-0.31483454
251	0xbe22d2cb	-0.15900724
252	0x3d0d6f3f	0.03452992
253	0xbd5611f7	-0.052263226
254	0xbe8d376f	-0.27581355
255	0x3e19739c	0.14985508

conv2.in2.weight f4 [32]
0	0x3f05f97d	0.52333814
1	0x3f07d241	0.53055197
2	0x3f18ba73	0.596595
3	0x3f1dafb5	0.6159623
4	0x3f32db21	0.69865614
5	0x3f251b82	0.644951
6	0x3f49bc69	0.78803116
7	0x3f0606fe	0.5235442
8	0x3f1d328d	0.6140526
9	0x3f4d9c87	0.80316967
10	0x3f0f03c1	0.55865103
11	0x3f50c083	0.8154375
12	0x3f1e9924	0.61952424
13	0x3f44bfe0	0.7685528
14	0x3f181bc5	0.5941737
15	0x3f289354	0.65849805
16	0x3f237b5d	0.6386011
17	0x3f134749	0.5753065
18	0x3f194326	0.59868085
19	0x3f869a09	1.0515758
20	0x3f108a44	0.56460977
21	0x3f47b0f9	0.78004414
22	0x3f541ab2	0.82853234
23	0x3f777c12	0.9667369
24	0x3f100f1e	0.56273067
25	0x3f10f05e	0.5661677
26	0x3f154ec3	0.58323306
27	0x3f04c1c5	0.5185817
28	0x3f1a7493	0.6033413
29	0x3f0f3a35	0.5594819
30	0x3f1eef32	0.62083733
31	0x3f232e7c	0.63742805

conv2.in2.bias f4 [32]
0	0x3fac72d8	1.3472548
1	0x3e8fbded	0.2807459
2	0x3f3fc1d1	0.74905115
3	0x3f11245a	0.56696093
4	0x3e35f432	0.17768934
5	0x3e9f04c4	0.31058323
6	0xbd014df8	-0.031568497
7	0x3e724e7f	0.23662756
8	0x3ef2fc8b	0.474583
9	0x3e36fc97	0.17869793
10	0x3eb12d70	0.3460498
11	0xbd4f4a85	-0.050608177
12	0x3f2a93fd	0.6663206
13	0x3e1bcaac	0.15214032
14	0x3ea03809	0.3129275
15	0x3f32e073	0.6987373
16	0xbd45f646	-0.048330568
17	0x3f98bd61	1.1932794
18	0x3f1025c0	0.563076
19	0x3e028f7c	0.12750047
20	0x3f2aefb9	0.6677204
21	0x3f1b6048	0.6069379
22	0x3d297a98	0.04137668
23	0xbe219dae	-0.15782806
24	0x3fe02ee5	1.7514311
25	0x3f6e402a	0.93066657
26	0x3ee73c47	0.45163175
27	0xbd0d5754	-0.03450711
28	0x3ec8dc9f	0.3923082
29	0x3e995fad	0.29955807
30	0x3f06335b	0.5242211
31	0x3f83a5e1	1.0284997

conv2.conv3.weight f4 [64, 32, 1, 1]
0	0x3d5494f5	0.05189987
1	0x3d33edac	0.043927833
2	0x3e09ce0d	0.13457508
3	0x3dfacf1f	0.122465365
4	0x3d140de9	0.03614608
5	0x3cde64f6	0.027147751
6	0x3e3036a5	0.17208345
7	0xbdd6f343	-0.10495617
8	0x3e04b373	0.1295908
9	0xbc8e58ee	-0.01737639
10	0x3dd1e278	0.102482736
11	0xbe41cd46	-0.18925962
12	0xbe5c77c1	-0.21530057
13	0x3d30c0c8	0.0431526
14	0xbde24bb7	-0.11049598
15	0x3d3a09fb	0.045419674
16	0xbdfc12b6	-0.12308256
17	0x3e95f7ae	0.29290527
18	0xbe182ee1	-0.14861633
19	0xbe68c0ff	-0.22729872
20	0xbea9292d	-0.33039227
21	0x3e815fdf	0.25268456
22	0x3d3af75a	0.04564605
23	0xbe0bfd28	-0.1367079
24	0xbe0b8915	-0.13626511
25	0x3e038d40	0.12846851
26	0xbe1d776b	-0.15377586
27	0xbd82ae0e	-0.063808545
28	0x3c94d726	0.018168997
29	0x3d2b1aa4	0.041773453
30	0xbe17770b	-0.14791505
31	0xbe0cd8fc	-0.13754648
32	0x3e72f752	0.23727158
33	0xbb095cc0	-0.0020959824
34	0xbdafc417	-0.08582323
35	0xbd938d89	-0.0720473
36	0xbdc01cd2	-0.09380497
37	0x3e2ebcf4	0.17064267
38	0xbd70420a	-0.05865673
39	0xbd121963	-0.035668742
40	0x3e1a5488	0.15071309
41	0xbe8b5c53	-0.27218875
42	0x3c9bb626	0.019007754
43	0xbd192a9c	-0.03739415
44	0xbda0df26	-0.07855062
45	0x3d8308c0	0.06398153
46	0x3e7728fe	0.24136731
47	0xbd67792c	-0.056512043
48	0x3e86f7cf	0.26360938
49	0xbe1fcb84	-0.15604979
50	0x3db14e38	0.08657497
51	0x3e582d19	0.21110953
52	0x3e2ce3ec	0.1688382
53	0x3e5d2f5d	0.21600099
54	0xbd83d98f	-0.064379804
55	0x3d8fd46c	0.07022938
56	0x3dd98f0a	0.10622986
57	0x3e11f7f2	0.1425474
58	0xbdfb924e	-0.12283765
59	0x3d561485	0.052265663
60	0x3ea3c717	0.3198783
61	0xbac1c9e0	-0.0014784895
62	0x3dc9bd59	0.09850568
63	0x3ea11188	0.31458688
64	0x3e115754	0.1419347
65	0x3db411fb	0.08792492
66	0xbe4b369e	-0.19845054
67	0xbe4daa49	-0.2008449
68	0xbe0cb29d	-0.1374001
69	0xbe1d95ef	-0.15389226
70	0xbe2f7c45	-0.17137249
71	0x3dabc8da	0.08387919
72	0x3d2a859a	0.04163132
73	0xbdd6d9bc	-0.10490748
74	0xbe5a8bbf	-0.21342371
75	0x3c562a3a	0.013071591
76	0xbc276026	-0.010215795
77	0xbd98d32a	-0.07462151
78	0xbe7718d0	-0.24130559
79	0x3d0bfdcb	0.034177583
80	0xbe46716b	-0.19379203
81	0x3e729719	0.23690452
82	0x3e9350d5	0.28772607
83	0x3e061f7d	0.1309795
84	0x3dfce33a	0.123480275
85	0xbe08377c	-0.13302416
86	0x3d899570	0.06717956
87	0xbe03fe57	-0.12889992
88	0x3e4d2dff	0.20037077
89	0x3b4597ef	0.0030150374
90	0xbdc352a3	-0.09537246
91	0x3d8069bb	0.062701665
92	0x3bcce996	0.0062534316
93	0xbda43b6e	-0.08019148
94	0xbe0e4e6f	-0.13897108
95	0xbe44f3e3	-0.1923366
96	0x3e0eba17	0.13938175
97	0x3dba88a1	0.09108091
98	0x3e3329c0	0.17496395
99	0xbe37e079	-0.17956723
100	0x3daddf3a	0.08489843
101	0xbd8a29a2	-0.06746222
102	0xbd0645df	-0.032781478
103	0x3d2a3331	0.041552726
104	0x3e148b33	0.14506225
105	0xbd8ccf58	-0.06875485
106	0xbdd85550	-0.10563147
107	0xbde8b249	-0.1136213
108	0xbe86233a	-0.2619875
109	0x3e567873	0.20944385
110	0xbd071ffe	-0.032989495
111	0xbd303149	-0.043015752
112	0xbcdb113d	-0.026741618
113	0xbe472e9c	-0.19451374
114	0x3e21aca4	0.15788513
115	0xbe047067	-0.12933503
116	0xbe75326f	-0.2394502
117	0x3dfd5d9a	0.12371369
118	0x3e1fdc06	0.15611276
119	0x3e10d09a	0.14142075
120	0x3eaabe1b	0.33348164
121	0x3db8b5db	0.09019061
122	0xbdf79ae7	-0.12090092
123	0x3db76cb8	0.08956283
124	0xbdac8f06	-0.08425717
125	0xbc3b0a58	-0.01141604
126	0x3e4f26c6	0.20229635
127	0xbc9ea36f	-0.01936504
128	0xbbd92613	-0.0066268533
129	0x3e04386e	0.12912151
130	0xbe7b3645	-0.24532421
131	0x3e2ac47c	0.16676515
132	0xbddbb942	-0.107286945
133	0xbc4cdaf6	-0.012503376
134	0xbe7d081f	-0.24710129
135	0x3dc6abf9	0.0970077
136	0xbdc361c2	-0.0954013
137	0xbd407dd8	-0.046995014
138	0x3d68f729	0.056876335
139	0xbdf5bcc2	-0.11998893
140	0x3d930789	0.071791716
141	0xbde4eb74	-0.111777216
142	0xbdaaf5ad	-0.0834764
143	0x3e5050ca	0.20343319
144	0xbd757f3d	-0.059935797
145	0x3cfe12a2	0.031014744
146	0x3d2880ba	0.04113839
147	0x3d705e8f	0.058683928
148	0x3d2c38b6	0.04204627
149	0x3d95bcb0	0.0731138
150	0x3e4031a6	0.1876894
151	0xbe5323fa	-0.20619193
152	0x3ed1ac20	0.40951633
153	0x3e31c003	0.17358403
154	0x3e23726e	0.1596162
155	0xbb7b8515	-0.0038378884
156	0x3e2d5ff2	0.16931131
157	0x3e18875c	0.14895386
158	0x3d635e5c	0.05550991
159	0xbe1958f2	-0.14975336
160	0x3e8adc4b	0.27121195
161	0xbe48eacb	-0.19620816
162	0x3dfc278f	0.12312233
163	0x3d83bfcd	0.064330675
164	0xbe06a931	-0.13150479
165	0x3ddd4639	0.108044095
166	0xbd799b79	-0.060939286
167	0xbd08bbed	-0.033382345
168	0xbdcf6e19	-0.10128421
169	0x3daf3b11	0.08556188
170	0x3c279c09	0.010230073
171	0xbe011b22	-0.12608007
172	0x3e1855c5	0.14876468
173	0x3dbdcaeb	0.09267219
174	0x3c521516	0.01282241
175	0xbd7fcf3f	-0.062453505
176	0xbd85c71c	-0.06532118
177	0x3d7fbae4	0.062434092
178	0x3dadea70	0.08491981
179	0xbdb24978	-0.08705419
180	0x3e557a06	0.2084733
181	0x3ef839e1	0.48481658
182	0xbaf677f8	-0.0018804064
183	0x3cf6fd14	0.030149974
184	0xbe30afaf	-0.17254518
185	0xbdb77028	-0.08956939
186	0xbc0116c8	-0.007878967
187	0xbaa46d09	-0.0012544702
188	0x3ccfe759	0.02537887
189	0x3db70d10	0.08938038
190	0xbd7c5294	-0.06160219
191	0x3e7b0162	0.24512246
192	0xbde75988	-0.112963736
193	0xbe16c171	-0.1472223
194	0xbe412235	-0.18860705
195	0x3e1c86e9	0.15285839
196	0xbe82d7fa	-0.25555402
197	0x3e2f8398	0.17140043
198	0x3d4a4fa4	0.049392357
199	0xbb466fd2	-0.0030279052
200	0x3d114c19	0.035472963
201	0xbe081b3c	-0.13291639
202	0x3e351ce0	0.17686796
203	0x3de6bf63	0.11266973
204	0x3e63ca74	0.22245198
205	0xbcbbb8d7	-0.022915287
206	0x3e2d57e8	0.16928065
207	0xbe081fd6	-0.13293394
208	0x3db1d550	0.08683264
209	0xbe38ecbb	-0.18059056
210	0x3ddcff5e	0.10790895
211	0xbd2926f0	-0.0412969
212	0xbe8000f0	-0.25000715
213	0x3da639f4	0.081165224
214	0x3e363b36	0.17796025
215	0x3db001c9	0.085940905
216	0xbdd73a3a	-0.10509153
217	0x3ce1ba4c	0.027554654
218	0x3e0728aa	0.13199106
219	0x3e24d333	0.16096191
220	0x3e14a5e3	0.14516406
221	0xbe817fbc	-0.25292766
222	0x3e430773	0.1904581
223	0xbe531f80	-0.20617485
224	0x3d2823bb	0.0410497
225	0xbd2e63ff	-0.042575832
226	0xbd3dd11f	-0.04634201
227	0x3d1a29ad	0.0376374
228	0x3e1cef2d	0.15325613
229	0xbec2490a	-0.3794635
230	0x3e1263ea	0.14295927
231	0xbe41077c	-0.18850511
232	0x3e06c70f	0.13161872
233	0x3dbd334d	0.092383005
234	0x3d9e3150	0.07724249
235	0x3e6d23eb	0.23158233
236	0xbe46fcc5	-0.19432361
237	0xbd18bc72	-0.03728909
238	0x3d99b722	0.07505633
239	0x3df3bb56	0.11900966
240	0x3e4046a8	0.18776953
241	0x3d2059a6	0.039147995
242	0x3d56a41d	0.052402604
243	0x3e97fbeb	0.29684386
244	0x3d61d418	0.05513391
245	0x3de9d04f	0.11416685
246	0xbc5756db	-0.013143267
247	0xbe684612	-0.2268298
248	0xbe47e894	-0.19522315
249	0x3d565479	0.052326653
250	0x3d027265	0.031847376
251	0x3d86dfc4	0.06585649
252	0xbbdb01b5	-0.006683553
253	0x3ebd9854	0.3703028
254	0xbe40d6b6	-0.18831906
255	0xbd159b7b	-0.03652523

conv2.in3.weight f4 [64]
0	0x3f7f1d6f	0.9965429
1	0x3f821608	1.0162973
2	0x3f5e9a6f	0.86954397
3	0x3f8d6333	1.1045898
4	0x3f7b7c58	0.9823661
5	0x3f7335f9	0.9500423
6	0x3f7743d5	0.9658788
7	0x3f71d277	0.9446177
8	0x3f830814	1.023684
9	0x3f881cd8	1.0633802
10	0x3f82df44	1.0224385
11	0x3f85529b	1.0415834
12	0x3f727844	0.9471476
13	0x3f855c3a	1.041877
14	0x3f750252	0.95706666
15	0x3f6dedae	0.92940795
16	0x3f8a628a	1.0811322
17	0x3f899b15	1.0750452
18	0x3f5f8598	0.8731322
19	0x3f8ae6fa	1.0851738
20	0x3f7904f1	0.97273165
21	0x3f6b9478	0.9202342
22	0x3f74d513	0.95637625
23	0x3f65115f	0.8947963
24	0x3f817900	1.0115051
25	0x3f66bbc5	0.90130264
26	0x3f80ddcc	1.0067687
27	0x3f7cc1b2	0.98733056
28	0x3f8a41d5	1.080134
29	0x3f7f4179	0.9970928
30	0x3f80dc97	1.0067319
31	0x3f83473f	1.0256118
32	0x3f8cd59d	1.100269
33	0x3f8ead89	1.1146709
34	0x3f88b40e	1.0679948
35	0x3f79367d	0.9734877
36	0x3f8966be	1.073448
37	0x3f85ff6c	1.0468574
38	0x3f834138	1.0254278
39	0x3f70a5be	0.940029
40	0x3f88d1b8	1.0689001
41	0x3f9402f6	1.1563404
42	0x3f772523	0.9654104
43	0x3f799a9a	0.9750153
44	0x3f82ebdb	1.0228227
45	0x3f8722dc	1.0557513
46	0x3f79bc31	0.9755278
47	0x3f810c29	1.0081836
48	0x3f63222e	0.8872403
49	0x3f655e34	0.8959687
50	0x3f74e356	0.9565939
51	0x3f830f2e	1.0239007
52	0x3f66df2f	0.901843
53	0x3f5823e1	0.84429747
54	0x3f8b086e	1.0861948
55	0x3f639da7	0.88912433
56	0x3f89be05	1.0761114
57	0x3f987d90	1.1913319
58	0x3f8252ba	1.0181496
59	0x3f83bab2	1.029135
60	0x3f6e2f00	0.93040466
61	0x3f8766fd	1.0578305
62	0x3f5a3b80	0.8524704
63	0x3f81f623	1.015324

conv2.in3.bias f4 [64]
0	0x3da15b66	0.07878761
1	0x3cca7a08	0.024716392
2	0xbbdcf755	-0.0067433515
3	0xbcc705ee	-0.02429482
4	0x3ca5fc17	0.020261807
5	0x3ccab6e5	0.024745414
6	0xbc16e9ed	-0.009211046
7	0x3cf48a2d	0.029851044
8	0x3d19053c	0.037358508
9	0xbbdf36e4	-0.0068119634
10	0xbc4aeca7	-0.012385524
11	0x3c6067de	0.013696639
12	0xbd3a1461	-0.04542959
13	0xbcf3ceb2	-0.029761646
14	0xbb7e6540	-0.0038817674
15	0x3c0b8b5f	0.008517115
16	0x3b271191	0.0025492648
17	0x3d838fe1	0.06423927
18	0xbd7ac53f	-0.061223265
19	0xbbd56617	-0.006512414
20	0xbcc6cd0b	-0.024267694
21	0x3be6a4a2	0.0070386687
22	0x3c5abce1	0.013350696
23	0x3cab7182	0.020928148
24	0xbd09d283	-0.033648025
25	0x3d504a51	0.050852124
26	0x3d284716	0.041083418
27	0x3d1822c7	0.03714254
28	0xbbca6b34	-0.0061773304
29	0x3c0f4989	0.0087455595
30	0xbc980cbe	-0.018560763
31	0x3d356172	0.044282384
32	0x3c6ed3a7	0.014576829
33	0xbd23600a	-0.03988651
34	0x3d7322c0	0.059359312
35	0xbd9169a6	-0.07100229
36	0x3bbb3a8a	0.0057137655
37	0x3cc480b7	0.023987157
38	0xbd53144e	-0.051533036
39	0xbcbf49ce	-0.023350623
40	0x3c67e407	0.014153487
41	0x3d8ca025	0.06866483
42	0xbcfbb847	-0.030727519
43	0x3aabd842	0.0013110714
44	0x3d9f5e6c	0.077816814
45	0x3aeb2bf6	0.0017942179
46	0x3b738d28	0.0037162993
47	0xba921549	-0.001114526
48	0x3da6222f	0.08111989
49	0xbb8b7ea2	-0.004257039
50	0x3d622d24	0.05521883
51	0x3d9cd6d6	0.07658164
52	0x3ccbc1b1	0.024872633
53	0xb9e24eaa	-0.00043164688
54	0xbd30b237	-0.04313871
55	0x3cdb3134	0.02675686
56	0x3d1b3dc2	0.037900694
57	0xbcdc0193	-0.02685622
58	0x3d5405c7	0.051763322
59	0x3d9363a3	0.071967386
60	0x3c66fb64	0.014098022
61	0x3c4f8893	0.012666839
62	0xbcee2b64	-0.029073425
63	0x3d3a85c4	0.045537725

conv3.conv1.weight f4 [64, 64, 1, 1]
0	0xbc08dada	-0.0083529595
1	0xbdb9e236	-0.090763494
2	0x3e2de3d4	0.16981441
3	0x3dd87f94	0.105712086
4	0xbde2156b	-0.110392414
5	0xbd8839eb	-0.06651672
6	0xbea8146f	-0.3282809
7	0x3dbfb9f2	0.09361638
8	0xbe91d2ff	-0.2848129
9	0x3d666005	0.056243915
10	0xbd376a8a	-0.044779338
11	0x3e36b3fa	0.17842093
12	0x3ce67ec6	0.028136622
13	0x3e6ae85a	0.22940198
14	0xb92b9286	-0.00016362415
15	0x3cbc153c	0.022959344
16	0xbe255dea	-0.16149107
17	0x3e4e451e	0.20143554
18	0xbd978a37	-0.07399409
19	0xbc28b5f0	-0.0102972835
20	0x3d444cce	0.04792481
21	0x3bac0fe3	0.0052509173
22	0xbdc1ceac	-0.09463248
23	0xbcdcaac9	-0.026936905
24	0x3db26268	0.08710176
25	0x3daa7171	0.083224185
26	0x3e2674e8	0.16255534
27	0x3ddfa3fc	0.109199494
28	0xbd07e665	-0.033178706
29	0x3d0868b2	0.03330297
30	0xbe010c56	-0.12602362
31	0xbd48f334	-0.04906006
32	0x3d042355	0.032260258
33	0xbdf72ba0	-0.12068868
34	0x3c8ad992	0.016949449
35	0x3c3eb942	0.011640849
36	0x3d44a1c6	0.04800584
37	0xbe8911a4	-0.2677127
38	0xbe4aef98	-0.1981796
39	0x3e41343c	0.18867582
40	0x3c1a3a5b	0.009413327
41	0x3e12b5a2	0.143271
42	0xbd3ed46a	-0.046589293
43	0xbc9ceb71	-0.019155236
44	0x3b0477fa	0.0020213113
45	0x3e297c90	0.16551423
46	0x3e63024f	0.2216885
47	0xbdf4d551	-0.119547494
48	0xbe2edb21	-0.17075779
49	0x3b164760	0.0022930726
50	0xbdaa3732	-0.08311309
51	0xbe03d82a	-0.12875429
52	0x3c96a191	0.018387588
53	0x3e234614	0.15944701
54	0x3e061057	0.1309217
55	0xbdb58442	-0.08863117
56	0x3e956f3f	0.29186437
57	0x3dc12409	0.09430701
58	0x3d1a9c51	0.03774673
59	0xbc2f1430	-0.010685965
60	0xbdb32a25	-0.08748273
61	0x3e221788	0.15829289
62	0xbdd712b0	-0.10501611
63	0xbdb75bfc	-0.089530915
64	0xbe52c585	-0.2058316
65	0x3e4c981e	0.19979903
66	0x3d4a348a	0.04936651
67	0x3ea11b36	0.31466073
68	0xbe62f114	-0.22162277
69	0x3d657759	0.056022022
70	0xbd9edac6	-0.077565715
71	0xbdbe7499	-0.09299583
72	0xbd2b294b	-0.041787427
73	0xbe50fda5	-0.20409258
74	0xbb082320	-0.002077289
75	0x3e062455	0.13099797
76	0xbc9c21bb	-0.019059053
77	0xbca09ea0	-0.019606888
78	0xbe585959	-0.21127833
79	0xb97e1f3e	-0.00024234966
80	0x3d70f68a	0.058828868
81	0x3dc27691	0.09495271
82	0x3d9d90cc	0.076936334
83	0x3e272c8e	0.1632559
84	0xbe180125	-0.14844187
85	0x3de27d53	0.1105906
86	0x3d48e7cd	0.049049187
87	0xbe1c6ee2	-0.15276673
88	0x3d5c254b	0.053746503
89	0x3d6625d2	0.056188412
90	0xbd7d468a	-0.06183485
91	0x3d35cb63	0.044383418
92	0x3e44cc84	0.19218642
93	0xbbe9bf5d	-0.007133408
94	0x3d966dd3	0.07345166
95	0xbe0cb927	-0.13742505
96	0xbd7f1ccf	-0.062283333
97	0xbe5e6ab4	-0.21720392
98	0xbda2ba76	-0.07945721
99	0x3e23fd61	0.16014625
100	0x3d830d18	0.06398982
101	0xbe1b807b	-0.1518573
102	0xbcb9e4fc	-0.022692196
103	0xbe6668c3	-0.22500901
104	0xbddee484	-0.1088343
105	0x3e6882c8	0.22706139
106	0xbd13fb29	-0.036128197
107	0x3d35470e	0.044257216
108	0x3d4c578c	0.04988818
109	0x3e192602	0.14955905
110	0x3dc66a60	0.09688258
111	0xbbb884ec	-0.00563108
112	0xbd59c529	-0.053166542
113	0xbde84a60	-0.11342311
114	0x3d16aa05	0.036783237
115	0xbd4a2c70	-0.049358785
116	0xbe1a12e3	-0.15046267
117	0x3e30ca47	0.17264663
118	0xbdf53527	-0.11973029
119	0xbe355573	-0.17708378
120	0x3de07356	0.109594986
121	0xbcdc29ca	-0.026875395
122	0xbe414667	-0.18874513
123	0xbda4f638	-0.08054775
124	0xbe104407	-0.1408845
125	0x3e0a693b	0.13516705
126	0xbd3e5271	-0.04646534
127	0xbd2f4643	-0.042791616
128	0xbd7090f9	-0.058732007
129	0x3da4ccfe	0.08046912
130	0x3e6c21ed	0.23059817
131	0x3dbc9f19	0.09210033
132	0x3e0d3ae1	0.13791992
133	0xbccff86e	-0.025387015
134	0xbd6853c7	-0.05672052
135	0xbd36abba	-0.044597365
136	0x3d0de4fa	0.034642197
137	0xbd517efe	-0.0511465
138	0x3d61b551	0.055104557
139	0x3e2751fb	0.16339867
140	0xbdf1730e	-0.11789523
141	0xba5b801e	-0.0008373278
142	0x3d127aa3	0.035761487
143	0xbe1eb59d	-0.15498967
144	0xbd13fb87	-0.036128547
145	0xbddcc7f1	-0.10780323
146	0x3b03be66	0.00201025
147	0x3d64bb5b	0.05584274
148	0x3e0b6a88	0.13614857
149	0x3e114c80	0.14189339
150	0xbd7aa54f	-0.061192807
151	0x3e0c8c91	0.13725497
152	0xbafb5b5e	-0.001917701
153	0xbd8109c4	-0.06300691
154	0x3d997732	0.07493438
155	0x3d8fe6c6	0.070264384
156	0x3de0dee5	0.10980014
157	0xbe4e2e4f	-0.20134853
158	0x3d852cfd	0.065027215
159	0xbd708c53	-0.058727574
160	0xbca2b17f	-0.019860027
161	0x3e96d34f	0.2945809
162	0x3ea09d83	0.31370172
163	0x3d837530	0.06418836
164	0xbd36c25d	-0.044618953
165	0xbe478877	-0.19485651
166	0xbe34e1fb	-0.1766433
167	0xbe279249	-0.16364397
168	0xbd47cb6f	-0.048777994
169	0x3ddd8085	0.10815529
170	0x3e019687	0.12655078
171	0xbe8da201	-0.27662662
172	0x3c2b91af	0.010471745
173	0xbda0a39c	-0.07843706
174	0x3e0e137a	0.13874617
175	0x3dea9b18	0.11455363
176	0x3de5b579	0.11216254
177	0xbe2b6801	-0.16738893
178	0x3e5cf6cb	0.21578519
179	0x3de6b96c	0.11265835
180	0xbd75157d	-0.059834946
181	0xbe2eb935	-0.17062838
182	0x3d379e4f	0.04482871
183	0xbdae4d21	-0.08510805
184	0x3e1c50d1	0.15265204
185	0x3c66f37b	0.014096136
186	0x3dbf82c0	0.093511105
187	0x3e531168	0.20612109
188	0x3d85438f	0.065070264
189	0x3cc152c9	0.023599045
190	0xbdae108a	-0.08499248
191	0xbc78d326	-0.01518706
192	0xbdc4e78f	-0.09614479
193	0x3dabee02	0.08395006
194	0x3c93c063	0.018036073
195	0xbc962591	-0.01832846
196	0xbcd54fd8	-0.026039049
197	0xbc647c9a	-0.013945723
198	0xbe890bfe	-0.26766962
199	0x3e0f0c1b	0.13969462
200	0xbe25dcd5	-0.16197522
201	0xbd2ab8db	-0.0416802
202	0xbe29224e	-0.16516992
203	0x3e1cc64b	0.15310018
204	0xbd89c684	-0.06727317
205	0x3dcf649f	0.10126614
206	0xbe090368	-0.13380206
207	0x3ddafa87	0.106923155
208	0xbe6ff4db	-0.23433249
209	0x3e3b8e53	0.18316011
210	0x3c7e6ff4	0.015529621
211	0xbd92656f	-0.07148253
212	0x3e0684a0	0.1313653
213	0x3bcba123	0.0062142774
214	0xbdbb77c6	-0.09153704
215	0xbca2faff	-0.019895075
216	0xbd47ea12	-0.04880721
217	0xbd59012a	-0.052979626
218	0x3e450b08	0.1924249
219	0x3e0ddd72	0.13854006
220	0x3cb375d6	0.021906774
221	0xbe28edb0	-0.1649692
222	0xbd6fca98	-0.058542818
223	0xbe0521e7	-0.13001214
224	0x3cbeaa8c	0.023274682
225	0xbdb5cdbf	-0.088771336
226	0xbe198ab7	-0.14994322
227	0xbdb38dd8	-0.08767289
228	0x3dd011ce	0.10159646
229	0xbdce9739	-0.10087437
230	0xbd9fa953	-0.07795968
231	0x3dc86efe	0.09786795
232	0x3e168821	0.14700367
233	0xbdaa29b1	-0.08308733
234	0xbc755089	-0.014972814
235	0x3e1e65c7	0.15468512
236	0xbdccbaae	-0.09996544
237	0x3ebe8cb1	0.37216714
238	0x3d7ee59a	0.062230684
239	0xbd10f28c	-0.03538756
240	0xbdda77de	-0.10667394
241	0x3dc88120	0.09790254
242	0x3bd6e47b	0.0065579987
243	0x3d8c5662	0.06852414
244	0x3e507de2	0.2036052
245	0xbd34ac16	-0.044109426
246	0x3d57d4df	0.052693244
247	0x3b1b92ae	0.002373855
248	0x3d9fe376	0.078070566
249	0x3e8e4db6	0.27793664
250	0xbcea8ebe	-0.028632518
251	0xbdd2fd7c	-0.103022546
252	0x3e8d06a8	0.2754414
253	0x3e345e90	0.17614198
254	0x3d600264	0.05468978
255	0x3c669a15	0.014074822

conv3.in1.weight f4 [64]
0	0x3f0eaf60	0.5573635
1	0x3d4c0736	0.049811564
2	0x3f3b9057	0.7326712
3	0x3e9bf763	0.3046218
4	0x3e616b9e	0.22013709
5	0x3db4874c	0.08814868
6	0x3d7df9b2	0.062005706
7	0x3e5f43d0	0.21803212
8	0x3d2841ad	0.04107826
9	0x3d93ae64	0.07210997
10	0x3f000225	0.5000327
11	0x3e8bf873	0.2733799
12	0x3e60864c	0.2192623
13	0x3d364d1f	0.044507142
14	0x3f93216e	1.1494577
15	0x3e8f2a61	0.2796202
16	0x3ecdbd3b	0.40183434
17	0x3e2a10c2	0.16607955
18	0x3f08368a	0.5320822
19	0x3f45a728	0.77208185
20	0x3d804a31	0.06264151
21	0x3e89d133	0.2691742
22	0x3f92e3bb	1.1475748
23	0x3ecb33aa	0.39687854
24	0x3e196755	0.14980824
25	0x3efd489c	0.4946946
26	0x3f36282a	0.71155035
27	0x3f1d2367	0.61382145
28	0x3eea7e99	0.4579971
29	0x3e6d7564	0.23189312
30	0x3d9c0579	0.07618231
31	0x3e784d51	0.24248244
32	0x3ec995c4	0.39372075
33	0x3ed46486	0.41482943
34	0x3f01a306	0.5063938
35	0x3f559a4b	0.8343856
36	0x3e93ba74	0.2885319
37	0x3e1ecd49	0.15507998
38	0x3d5ff504	0.054677024
39	0x3f28c0fd	0.65919477
40	0x3ce46843	0.027881747
41	0x3f02ce33	0.51095885
42	0x3ec55337	0.3854005
43	0x3f4e943d	0.80694944
44	0x3e84cc97	0.2593734
45	0x3f9befce	1.2182558
46	0x3c62829b	0.013825084
47	0x3ee78f6c	0.4522661
48	0x3e9bcc0c	0.30429113
49	0x3f07a9e6	0.5299362
50	0x3e02ef29	0.12786545
51	0x3ea5579f	0.32293412
52	0x3f64951f	0.8929004
53	0x3f2968d5	0.66175586
54	0x3f3309b3	0.69936675
55	0x3ed84fbd	0.42248335
56	0x3db20b3a	0.086935475
57	0x3f3ea618	0.7447219
58	0x3f054cd6	0.5207037
59	0x3f13f77b	0.577995
60	0x3f54b4f0	0.8308859
61	0x3ecff676	0.40617722
62	0x3f17f34d	0.5935562
63	0x3f0a25aa	0.5396372

conv3.in1.bias f4 [64]
0	0x3f00cd3e	0.50313175
1	0x3f3e1d3d	0.74263364
2	0x3e0c612d	0.13708945
3	0x3eeebdfc	0.46629322
4	0x3f49fa0f	0.78897184
5	0x3f32f41c	0.6990373
6	0x3ed4b708	0.41545892
7	0x3f1d305c	0.61401916
8	0x3f057105	0.5212558
9	0x3f2a893e	0.66615665
10	0x3ed80f4c	0.4219917
11	0x3f089778	0.5335612
12	0x3ef67fee	0.48144478
13	0x3f23079a	0.63683474
14	0xbadd71b1	-0.0016894845
15	0x3f03286a	0.5123354
16	0x3eda0f31	0.42589715
17	0x3f5f2a4f	0.8717393
18	0x3e993b3d	0.29928008
19	0x3e288369	0.16456379
20	0x3f41a0f8	0.75636244
21	0x3f332a9e	0.69986904
22	0x3e39a780	0.18130302
23	0x3f37e0e7	0.7182755
24	0x3f3b44f6	0.731521
25	0x3f020e68	0.5080323
26	0x3ea81a26	0.3283245
27	0x3e549b22	0.20762303
28	0x3f0b19d2	0.54336274
29	0x3f1abc6f	0.60443777
30	0x3f2e3c0c	0.68060374
31	0x3f24186e	0.64099777
32	0x3ee4dc78	0.44699454
33	0x3f262ec1	0.6491509
34	0x3ef22b99	0.47298887
35	0x3e04facb	0.12986295
36	0x3f05e526	0.5230278
37	0x3f44fa0b	0.76944035
38	0x3f191c41	0.5980874
39	0x3e2912ea	0.16511121
40	0x3ef6ceab	0.4820455
41	0x3f102484	0.5630572
42	0x3f13d689	0.5774923
43	0x3e2a867d	0.16652866
44	0x3f09fa84	0.5389788
45	0xbdaf142f	-0.085487716
46	0x3f1bd77b	0.6087567
47	0x3f18fe50	0.5976305
48	0x3ee959bb	0.4557627
49	0x3e99b4e2	0.30020815
50	0x3f2fe498	0.6870818
51	0x3f1fe55a	0.6245934
52	0xbe307fa3	-0.1723619
53	0xbcd67c0e	-0.0261822
54	0x3e7dedc3	0.2479773
55	0x3f02d9d3	0.51113623
56	0x3ef99bea	0.48751765
57	0x3ea237da	0.31683236
58	0x3e996ff6	0.29968232
59	0x3ebe89a5	0.3721439
60	0x3e95de59	0.292712
61	0x3f0129e0	0.5045452
62	0x3ec201b7	0.37891933
63	0x3ed89514	0.42301238
