mobilenet_weights/starry_night.pth (torch, 985894 bytes, 85 tensors)

conv1.weight f4 [32, 3, 9, 9]
00000000: 0fd3 9f3d 4ca1 633d 8095 5ebd ef4f 193d
00000010: 1e58 223d 6e8e 4fbd 509b 31bd bf55 a1bc
00000020: adfd a7bc e1f4 bf3c 4eab 393d 0977 ebbb
00000030: 38d8 613d c826 8f3c 316e 0dbd fef8 97bc
00000040: 0103 a4bd 0def 12bd af69 24bd 0c72 423c
00000050: f390 53bc 9bd6 5f3d 1ee0 8c3c 50db d23d
00000060: 2a5f 32bb b630 08bd 532b 6c3d aca1 7dbc
00000070: f907 423b 1791 f13d a31d 413d f3a2 dfbd
00000080: b9cf 833d 6637 033d 0fa8 9dbb d373 d13c
00000090: 9ee1 c4bb 1151 fb3c de6b 77bd 2b9c 343d
000000a0: 012e 013e 0cb9 883c d760 783d 10cb c73d
000000b0: 4adf 41bc d48b 57bc c949 7bbd 2a49 b4bd
000000c0: 6f14 893d 8989 803e b254 3b3e 305a 4e3e
000000d0: cc51 1c3e c46a 8d3d 0dbf 6e3c 7c3e 9bbd
000000e0: 09f9 04bd cddc 3a38 8f93 ac3d 7f9c 553d
000000f0: b9d5 3d3d ae9e ca3d 9276 b83d 452d 7a3c
00000100: ece5 993c 06d9 00bd e503 573c 7e91 143d
00000110: b680 f53d e546 ed3d 36fd 663d edeb e83a
00000120: 0c21 e33b a2ed 813d 8739 5ebd 575a 4e3d
00000130: 922b cd3d 9f37 ca3c b4d4 0b3c 82c0 123d
00000140: dcce 63bc 79e9 87bd 5c7d ad3c db2d f0bc
00000150: 20ae ea3b 3c25 d0bd 84dc ebbd ccb8 0bbe
00000160: 3c96 0dbe b30f d4bd 3ca8 0ebb 6c21 cbbd
00000170: 25cd b1bd 1581 93bd 7759 b7bd b9b0 b3bd
00000180: d3b0 81bd 7819 45be dfe6 b5bd 9ec5 a5bd
00000190: c17e dfbd 33ea b0bb de84 9abd 91f2 c2bd
000001a0: d5cf e3bd cc1a 04be 4058 33be c138 26bd
000001b0: 87c7 b8bc dc58 2dbc a310 b2bc ffb7 21be
000001c0: 8d7c 90be a0d8 11be 126d 67bd ed4b 2c3b
000001d0: e717 8dbd 80f8 c9bd c272 a4bd 5f64 80be
000001e0: 7315 59be 8c7e a8bd c2d0 1dbe d610 543d
000001f0: a9e3 04bc 85ad cdbc f936 35bd ebdf 4cbe
00000200: 7ea8 a5be bea0 17be db19 ed3d 1f69 3a3d
00000210: 0d05 e03d 5224 9dbc 0125 22bd a9d9 e4bc
00000220: b843 4ebe 28c0 3ebe 7310 45be 3b13 7ebd
00000230: 3352 233c e4c4 dbbc 6120 e8bd 4911 0fbc
00000240: ea97 88bd db54 07be bb56 bbbd 8b9a 17be
00000250: 0351 20be 44cb b5bd e8b7 c1bd 0f48 3abd
00000260: b869 d9bd 752c e3bd 87a3 24be 331d 15be
00000270: 86c9 0cbe 4390 18bd c43e fcbd 9c85 c8bd
00000280: 7089 01be 1dd6 c9bd 08de da3d 0def 133e
00000290: 30cb cf3d ff79 023e 34cd 043e 5173 513d
000002a0: 4659 b63d 6a2e 193d 861f a4bb a2e5 bb3d
000002b0: d099 033e d089 a93c ca84 6a3d 7d62 803c
000002c0: 6ba2 f63c 4f26 483c 270c 93bb 1397 463d
000002d0: 9483 953d d63c 963d 220e 6a3c 7d61 293d
000002e0: 91e6 19bc 6fd2 a4bc 56bc 94bd 8efd 9a3d
000002f0: e4e0 093d 0aa6 813d 3383 893c 2f27 02bd
00000300: 183e dcbd cac1 8bbe bf80 dbbd 80c0 1d3d
00000310: 36f4 8c3c add6 a43d 4747 0f3e 538f 8d3d
00000320: ccf0 b5bd 22d6 5ebe ac05 4ebe 4f17 8cbd
00000330: b802 773d 8a8a 7dbc 755b 6f3d f3a2 b63d
00000340: 6eae 8e3a 47f5 77bd 1ea8 8d3c 8ab2 993d
00000350: dc4a be3d 9b7b 583e e4fe c73c 2b56 fbbb
00000360: 6e42 7c3d e762 c63d 9ea0 9e3d 0dae e03c
00000370: b12a 8b3d 818f 773d a786 cf3d c9d8 d73d
00000380: 3993 b43d 2b22 653d 6233 1a3e 8fa7 7d3d
00000390: 30a5 ee3d 03a7 663d 14b1 f83d 117b ab3d
000003a0: 60a5 023e 57b6 82bc a4fd be3d 10c4 f43d
000003b0: 2007 dc3d 1319 a93d 2afa 323d 708d bb3d
000003c0: 84b0 ba3d 3da3 d63b fb1f b43d 356d 4abb
000003d0: 3337 2e3c 752a 0b3d e448 573c 921e 62bb
000003e0: f194 033c 3655 1cbd f6ae 0cbd ba71 da39
000003f0: 3253 2f3b d774 74bd c875 8cbd ebde d8bc
0.07803928 0.055573747 -0.054341793 0.037429746 0.039634816 -0.05067294 -0.04336101 -0.019694207
-0.020506704 0.023432197 0.045329385 -0.007185821 0.055137843 0.017474547 -0.034528915 -0.018551346
-0.080083854 -0.035872508 -0.04013985 0.011868011 -0.012912977 0.054648023 0.017196711 0.10295737
-0.0027217367 -0.03324958 0.057658505 -0.01548044 0.0029606803 0.11795252 0.047147404 -0.10919752
0.06436104 0.032035254 -0.004811294 0.025567925 -0.006008341 0.030678304 -0.060405605 0.044094246
0.12615205 0.0166898 0.06063923 0.09755528 -0.011833021 -0.013155896 -0.061349664 -0.088030174
0.066933505 0.2510493 0.18294027 0.20151591 0.15265578 0.069051296 0.014571917 -0.07580277
-0.03246406 4.4551492e-05 0.08426582 0.0521512 0.0463464 0.09893547 0.090069905 0.015269582
0.018786393 -0.03145697 0.013123487 0.036271565 0.1198744 0.11585788 0.056393825 0.0017770507
0.0069314297 0.06344153 -0.05425408 0.050379124 0.10018076 0.024684725 0.008534599 0.03582812
-0.0139043 -0.06636328 0.02117794 -0.02931874 0.0071618706 -0.10163352 -0.115166694 -0.13644713
-0.13826841 -0.10354557 -0.0021767756 -0.09918484 -0.08681706 -0.07202355 -0.08952611 -0.087739415
-0.06332555 -0.19247997 -0.08881926 -0.08094333 -0.10912848 -0.0053990125 -0.07544874 -0.09518922
-0.11123625 -0.12900847 -0.17514133 -0.04058147 -0.02255608 -0.010580268 -0.021736449 -0.15792845
-0.28220025 -0.14242792 -0.056500502 0.0026290372 -0.06889325 -0.09861851 -0.08029701 -0.25076577
-0.21199588 -0.08227262 -0.15411666 0.05177387 -0.008110919 -0.025107155 -0.04424188 -0.20007293
-0.32355112 -0.14807412 0.11577197 0.045510408 0.10938463 -0.019182358 -0.03958607 -0.02793582
-0.2014302 -0.1862799 -0.19244556 -0.06203006 0.009968328 -0.026827283 -0.11334301 -0.008732148
-0.066696 -0.13215964 -0.09147402 -0.14805047 -0.15655904 -0.088766605 -0.094589055 -0.045478877
-0.106158674 -0.11092464 -0.16078006 -0.1456192 -0.1374875 -0.037246954 -0.12316659 -0.09791109
-0.12650084 -0.09855292 0.1068688 0.1444666 0.10146177 0.1274185 0.12968904 0.051135365
0.08903746 0.03739778 -0.0050086407 0.09174658 0.12851644 0.020695597 0.057255544 0.015671963
0.030106744 0.012216165 -0.0044875327 0.04848392 0.07300487 0.07335822 0.014285596 0.041352738
-0.00939335 -0.020119874 -0.07262485 0.07567893 0.033661738 0.063304976 0.016786193 -0.03177565
-0.10754031 -0.27296287 -0.10717916 0.03851366 0.017206293 0.08048759 0.13992034 0.069121026
-0.08883819 -0.21761373 -0.20119351 -0.06840383 0.060305327 -0.015474925 0.05843683 0.08917799
0.0010885724 -0.06053665 0.017292079 0.07504757 0.09291622 0.21140902 0.024413534 -0.007670184
0.06158679 0.09686833 0.07745479 0.027426744 0.06795252 0.06043959 0.10133105 0.10539395
0.08817143 0.05594079 0.15058663 0.061927374 0.11652601 0.05631162 0.1214315 0.083730824
0.12758398 -0.015956087 0.09325722 0.119514585 0.107435465 0.08256736 0.043695606 0.091578364
0.09115699 0.0065502212 0.08795162 -0.0030887846 0.010633278 0.033976037 0.013139937 -0.0034503085
0.008031116 -0.0381672 -0.034346543 0.00041664933 0.002675247 -0.05968174 -0.068584025 -0.026473483

in1.weight f4 [32]
00000000: ee64 183f fccf 4d3f cd01 723f 2010 423f
00000010: 76bc 873f f030 4f3f be18 833f 824f 9c3f
00000020: 6855 7c3f 4f3d 5f3f f7cd 913f a397 793f
00000030: daea 673f c9d4 543f 31c2 743f 0242 333f
00000040: 2227 8d3f 94de 673f 5bfd aa3f b0c7 0d3f
00000050: 12b0 ed3e 0dcb 823f 4aad 763f 09d2 163f
00000060: 6131 853f 8fdb 313f de35 5e3f 5fc5 283f
00000070: 5350 953f fef1 373f 3b5a 1d3f 23a2 883f
0.59529006 0.80395484 0.94534 0.75805855 1.0604389 0.8093405 1.0241926 1.2211764
0.9856782 0.87202924 1.139098 0.97497004 0.9059273 0.83137184 0.9560881 0.70022595
1.1027567 0.90574 1.3358568 0.55382824 0.46423393 1.0218216 0.9635817 0.5891424
1.0405694 0.69475645 0.86800945 0.65926164 1.1665138 0.71853626 0.61465806 1.067448

in1.bias f4 [32]
00000000: f378 123e ad17 273e eda2 d7bc 1f32 a83e
00000010: 3dc3 4c3e 0178 5abe 4f9a 28bd ef5f 76bc
00000020: 6a06 9abc 6eb4 1d3e 1811 29bd 3b60 863d
00000030: ac7e c7bd a8ce 9e3d f391 96bd 98f0 0b40
00000040: 7248 093d 5fd9 5fbd 2301 473c 1f90 af3f
00000050: bdf5 603f 1c02 253e edd8 9d3e eaaa ca3f
00000060: 9763 af3d 3e28 093e 8d88 cc3e 2cf9 ee3f
00000070: f941 2b3e 2631 763e cde7 693f 68d5 243e
0.14303951 0.16317625 -0.026322806 0.3285074 0.19996352 -0.2133484 -0.041162785 -0.015037521
-0.018801887 0.1540086 -0.041276067 0.06561323 -0.097409576 0.0775426 -0.07352056 2.1865597
0.033516355 -0.05465066 0.012146267 1.3715857 0.87874967 0.16114086 0.30829564 1.5833409
0.08563917 0.13394257 0.3994793 1.8669791 0.16724385 0.24042186 0.91369325 0.16097033

conv2.conv1.weight f4 [32, 32, 1, 1]
00000000: 7192 93bd bb12 1f3e 43ec 4fbd 5f09 e13c
00000010: 95a3 06bd c21d babd 7d4f b93e b765 57be
00000020: 29f5 10be c358 cfbb ac0c 2e3e 4a50 a83d
00000030: e2e2 87bd 5c98 a1bd cc14 883e 9abd c23d
00000040: 6550 4a3e d5c7 e2bc 0924 7c3e 2663 703d
00000050: f8db 183b 2db7 dfbc 3d4c 723d 7609 95be
00000060: da6f 83be ec0c a1bc 1ecc 44bc 6212 0abe
00000070: 8fa5 19be dac8 ca3d b164 903d feee b13d
00000080: 2bb1 f0bd 3ad8 9e3c 087a 9dbd 3f21 bebd
00000090: 3ee3 373e c644 2dbe a91c 283e e42e d6bd
000000a0: 3b5d 41be 997b 083e ac7d 093d 03f5 56be
000000b0: b575 8abd c722 13be b6a8 173e bce3 d2bc
000000c0: aaa1 00be 364e b7bd e22b 09be a4a1 6fbe
000000d0: 1fc7 41be 9f7a 80be 4fbb 8e3d 3618 823e
000000e0: 6300 993c 2756 40be e67f 853e 285c 67be
000000f0: 03a3 3dbc 664b f43c e980 e2bd 6457 303e
00000100: 68f2 293d ad3f 1abb 2498 033e a042 85bd
00000110: 070e 9e39 5824 24bc ea9e 8dbc c0ea 933e
00000120: 3b93 4f3d c6ec 243d 734a 37bd 5dca fb3d
00000130: 3f41 9a3c 4947 d0bd 3be3 fb3d d32c 953c
00000140: 43de bfbc bfc1 e93e 1bc4 2dbe 056c 10bc
00000150: 5c55 7ebc fdb2 28bd 78ba d03d cdb2 d13c
00000160: 2321 d5bc 80df 92bd e89c b83d cc59 1c3c
00000170: 1a50 173e d61b 3d3e 2c6d f6bc 06d3 113f
00000180: ec27 30be 5e4d 54bc e636 7b3e 4bc9 ce3c
00000190: 54df 4c3e b4e2 c03c 8e3d 623d 7535 ee3e
000001a0: b731 353e 6875 bc3d 4c39 43be 4ca6 02be
000001b0: af3d d3bc 64e4 ffbc be21 d3bd eb57 bb3d
000001c0: 3fce 30be 5dd4 22bd f224 c5be 97be f2bd
000001d0: 5bdc e4bc bf4f f4bd aa39 893d 517b 0f3d
000001e0: 02cf f53d 6274 eabc e4d6 683d 1fab 003b
000001f0: 83b0 acbd a655 1f3c 2234 903d 9b2c 853d
00000200: a388 5cbd fb16 c63d 00cd ed3a 32ae 2f3d
00000210: c266 50bd 2e02 82be e8b6 963e 27f8 88bd
00000220: d1fb 4fbd 8aae 3abd 16aa da3d 0419 5b3e
00000230: cd65 433d 3e5f 303d 253e 7c3e 9fe5 c5bc
00000240: a228 d03d 243f 5e3d 9c9b bd3d 462e adbc
00000250: 03ad 5839 0e16 92be 85df 11be cd10 6bbd
00000260: 7856 f3bd 98ec 133a 5e11 013d a239 da3c
00000270: 3b5a ff3c 5111 02bd abe7 2dbf e48c 32be
00000280: ae80 e6bd 9093 313e de8e 1c3e 81b1 9c3d
00000290: d698 43bd 9864 143c cb49 85bc 3d8b 693d
000002a0: 6afc 5bbd 553b 7abd f74a 31be 1345 633a
000002b0: 97d7 ef3d 8d8e e93c fb32 a83d 8c78 393e
000002c0: a8dc 723d 00c2 0bbc 1dc2 cb3c 8507 ff3b
000002d0: 832d 2fbe 7235 c83d 88b2 453d 3adf 37be
000002e0: e253 acbd f573 1abd fd57 84bd e193 233f
000002f0: 8684 e13c 18a0 b7bd 24ba 523d b4b4 173d
00000300: ecaa 583e 858e a03e 3089 bfbd c2e4 5e3d
00000310: 23ce 2b3e 7b75 42bd 3aba 73bd f47e 91be
00000320: 4987 8fbe dec2 3f3e e7e2 843e 5e12 9d3d
00000330: bd7e 843e baf7 d73c 32ef c13d b3b5 733b
00000340: 2798 173e cefa 3dbe ba4c 7c3e 2040 823c
00000350: 90ef 9bbd f446 06ba 664c babd cb27 8fbd
00000360: 3680 e23d 89d5 a5bd efe4 afbd 7e1d ef3c
00000370: 3756 1cbe 8f28 09be 7695 6cbd a21e 1cbe
00000380: f5eb 0d3e f969 1dbd fdf7 343e 3346 d23d
00000390: 35cd c6bd aa1a 123d 31d7 0b3e ac79 893e
000003a0: fdd8 11bd 495e 7cbd 59f2 3abe d247 a3bd
000003b0: 18e8 243d c200 cb3d 86a2 10be 0820 b43c
000003c0: c601 5bbd 0661 573e 49dd 3bbe 714c 9a3c
000003d0: 5f05 e7bc 234f c6bd 31d4 43be eed1 803d
000003e0: 5f96 023e d2ab e6bd 7b1a 9e3c 3ccf 83bd
000003f0: 8b65 ea3e 36f4 3a3d 58dd f3bc b2b6 4b3e
-0.07205666 0.15534489 -0.050762426 0.027470289 -0.032870848 -0.09087707 0.36193457 -0.21034895
-0.14156021 -0.00632772 0.16997021 0.08218439 -0.06635071 -0.07890388 0.26578367 0.0950882
0.1975723 -0.027683178 0.24623121 0.058688305 0.002332447 -0.027309025 0.059154738 -0.2910878
-0.25671273 -0.019659482 -0.012011556 -0.13483575 -0.15004562 0.09901591 0.07050455 0.08688162
-0.11752542 0.019390214 -0.07689291 -0.09283685 0.1795778 -0.16920766 0.16417183 -0.104581624
-0.18883221 0.13328399 0.033567116 -0.20991902 -0.06760732 -0.14368735 0.14810452 -0.025743358
-0.1256167 -0.089504644 -0.13395646 -0.23401505 -0.18923615 -0.25093552 0.0696932 0.25409096
0.018676942 -0.18782865 0.2607414 -0.22593749 -0.01157451 0.029821109 -0.11059744 0.17220837
0.041490942 -0.002353649 0.12851006 -0.06506848 0.0003014656 -0.010018431 -0.01728769 0.28890038
0.05067752 0.040264867 -0.044748735 0.12294457 0.01882994 -0.101698466 0.122992 0.01820985
-0.023421412 0.4565563 -0.1696934 -0.008814816 -0.015523281 -0.04118632 0.10191816 0.025597954
-0.026016777 -0.071715355 0.090143025 0.009542894 0.1477665 0.1846765 -0.030081354 0.5696262
-0.17202729 -0.012957899 0.24532661 0.025242468 0.20007068 0.0235456 0.055234484 0.4652516
0.17694746 0.09202081 -0.19064826 -0.1275875 -0.025786249 -0.031236835 -0.1030917 0.091476284
-0.17266177 -0.039753307 -0.3850475 -0.118527584 -0.027937105 -0.11929273 0.06700452 0.035029713
0.12002374 -0.028619949 0.05684556 0.0019633246 -0.084321044 0.00972501 0.070411935 0.065026484
-0.053841244 0.09672352 0.001814276 0.042890735 -0.050879247 -0.25392288 0.2943642 -0.06687956
-0.05077726 -0.04557661 0.106769726 0.21396261 0.047704507 0.04305958 0.24633081 -0.024157343
0.10164 0.054259434 0.09258196 -0.021140229 0.00020663817 -0.2853245 -0.14245422 -0.05738907
-0.11881727 0.000564286 0.031510703 0.02663881 0.031170955 -0.031754795 -0.6793162 -0.17436558
-0.112550125 0.17341447 0.15288875 0.07651044 -0.047753178 0.009057187 -0.016270539 0.057017554
-0.053707518 -0.06109174 -0.17313753 0.00086696557 0.117110424 0.028510356 0.08212849 0.18112391
0.059292465 -0.00853014 0.024872834 0.007782879 -0.17107205 0.09775819 0.048265964 -0.17956248
-0.08414437 -0.03770824 -0.06462095 0.6389752 0.027529012 -0.08966082 0.05144705 0.037037566
0.21158952 0.31358734 -0.09352338 0.05441738 0.16777854 -0.04747532 -0.05950377 -0.2841717
-0.28032902 0.1872668 0.25954363 0.07669519 0.25877944 0.026363242 0.09469451 0.0037187159
0.14804135 -0.18552706 0.24638644 0.015899718 -0.07614052 -0.0005122267 -0.09096603 -0.06990012
0.110596105 -0.08097369 -0.085885875 0.029188868 -0.15267263 -0.13394378 -0.057759725 -0.1524606
0.13859542 -0.03843114 0.17672725 0.10267296 -0.09707109 0.03566996 0.13656308 0.2685064
-0.035607327 -0.061613355 -0.18256511 -0.07972683 0.040260404 0.09912254 -0.14124498 0.02198793
-0.05346849 0.21033105 -0.18346132 0.018835278 -0.028200803 -0.09683063 -0.19123913 0.06290041
0.12752675 -0.11263241 0.019299736 -0.06436011 0.45780596 0.045643054 -0.02976863 0.19893911

conv2.in1.weight f4 [32]
00000000: 5e89 d73d 8dad 913f 49ee 373f ca64 a33c
00000010: b54e 223f 0a6a a73e a27c ed3c 1e58 4f3d
00000020: bc3c 813f 274b 3a3f c2b8 d43d 8f91 8f3f
00000030: bb3d 0b3f 994a 253d 6565 ee3e 2a75 403f
00000040: f763 ab3e 09a1 2f3e bbc5 163f 43c4 653c
00000050: cf7a 083e 2a10 493f 5dd5 5a3f 38d7 643f
00000060: 74fe f23d 3edd 373d ea90 f83e 9728 c73f
00000070: 6b4d a83d c8eb 833f 9044 3d3c d00b 623f
0.105242476 1.1381088 0.7184797 0.01994552 0.6340135 0.3269809 0.028990094 0.050621144
1.009666 0.72770923 0.10386802 1.1216296 0.5439107 0.040354345 0.46561733 0.7517878
0.33474705 0.17151274 0.5889546 0.014023843 0.13328098 0.7854029 0.85481817 0.893909
0.11864939 0.044888727 0.4854806 1.5559262 0.08217891 1.030633 0.011551991 0.88299274

conv2.in1.bias f4 [32]
00000000: e560 333f f6b8 fa3c b3c8 9b3e 17ad b53e
00000010: 441b d43e b4e3 133f 6ea0 063f bab0 1f3f
00000020: a37c 0abd 1b58 8f3e a2be 0a3f 5ca9 79bd
00000030: c36a 7a3e 5e98 433f 1d70 de3e 357b 4d3e
00000040: 4a55 de3e e22f f03e 9178 c53d 8f66 243f
00000050: 76a4 e83e 6f15 c23e 4e72 0c3e 13a9 89bd
00000060: 07c0 2e3f d70a 0a3f 7c6b 043f 88db 2c3d
00000070: 886e 3b3f 3fb1 47bd 848d 043f a0fe b23d
0.70069724 0.030605774 0.3042656 0.3548362 0.41427052 0.5776932 0.52588546 0.6237904
-0.03381027 0.27996907 0.5419713 -0.06095253 0.24454789 0.7640437 0.4344491 0.20066531
0.43424445 0.46911532 0.09642137 0.6421899 0.45437974 0.37906978 0.13715479 -0.067217015
0.6826176 0.5392279 0.5172651 0.04220155 0.7321553 -0.04875302 0.51778436 0.08739972

conv2.conv2.weight f4 [32, 1, 3, 3]
00000000: 6690 e0bc a868 ae3d e676 26be 8237 e4bd
00000010: 4a2a 0f3f 536f e23d acd2 07be f081 883e
00000020: 25dc 4abe 82b3 cabe 2b91 30be da32 b9bd
00000030: 6835 06bf 9c5f 31be 3078 f1bd 262d 9abe
00000040: 358f 31be 8333 683d 938a 2f3e bae4 323e
00000050: f482 813e f95b ccbd baf7 1c3e 31f5 d53c
00000060: 4c84 ccbe 2310 56bd d7b4 51be 6f42 7c3e
00000070: 3ab1 803e 45c3 7b3e 3c3f 34bd 005d 0bbe
00000080: 63c3 99be 4b36 c6bd 71e6 64bd a4a3 d5bd
00000090: cbe1 05be 327b 20bd 09c9 bcbd b2ac 60be
000000a0: 169a 26bf f84f aebe 7223 b5bd cba2 efbd
000000b0: 8f9a f4bb 206d 7c3c f8cc 6c3e eb69 d23d
000000c0: d1cf af3d 18ef 273f 4a3e ba3d 7919 25be
000000d0: fb71 7a3e 363c ddbd 4d8e a43d f9b0 403e
000000e0: 8501 353d 6f3c a93e a796 583e b54b 2ebe
000000f0: de7b 14be 1b0a 3abe 8fdc abbe 74af ebbd
00000100: 74fd 6cbe 43dc 45bd 3048 4f3e 832d 113e
00000110: 35df edbe 1ac0 5e3e f68a ca3e 78d1 c0bc
00000120: 23d9 afbe f42e babd 1b61 a3be 70e2 57be
00000130: 3348 2d3e a78b 973d 8623 b2be 0e5a 35be
00000140: 7603 8a3e 0b58 003d 82b5 ab3e 748d fcbb
00000150: 2d5c 243e fc44 113f 8904 1c3e 16d9 13be
00000160: afe9 a93c 12a9 b73d c151 05be 369f 0fbe
00000170: 8b67 f2bd 9c7f 913e e63d 5bbc 5dba a7be
00000180: 055f 6e3e 4ea3 bd3e 3dff adbd ed55 d6be
00000190: 8e7a 58be e8a9 5e3c 4d0c 90be ab9a c0be
000001a0: cee3 9f3c a702 9abd d2ac 9ebd 1645 55bc
000001b0: 5420 4dbe 26fa a5bc 3218 9f3d dfe8 aabe
000001c0: df42 bfbe b2ba 9a3c ccc9 fc3b a069 bdbe
000001d0: 31bf d8bd c24b 533e cefe ce3e 0557 d8bd
000001e0: 82fc c03d eb52 053f 3311 463e 92b1 3fbc
000001f0: 39c5 2abe ee50 173d b064 04be f881 a8be
00000200: 4c16 44be 9742 9fbe b762 88be 0bf7 51be
00000210: b6c2 6dbe 1243 86be 068d 12be 41b1 d03c
00000220: 172b dd3d f997 53bc 642a e43e 55c0 89bc
00000230: 6509 ccbd ef06 0c3f bc1b e9bc ec34 473d
00000240: baa9 dc3d f504 733d 4c25 4fbd acd8 a23e
00000250: 27b7 8fbd e207 61be 60cc 083c e5d6 4cbe
00000260: b68f a83c 39d3 523e 5b39 3d3e dc4e 2f3e
00000270: d801 193d 148c 023f ffb2 753e 8dde 1bbe
00000280: 49cc 1c3e 6937 8a3d 710a f4bd b43b 8abd
00000290: 8063 373e 4877 32be 5c2c 7e3e dc4c 943e
000002a0: c2ee 843b 2091 b53e 1629 663e 5c3d 8dbe
000002b0: 6681 e0bd 4357 403d 55ba 793e 5591 0d3f
000002c0: e58e bebd e032 01bc c4a2 a4be 03f5 97bc
000002d0: e8ad 963c f0c2 24be 69a3 313d ad1a 9fbe
000002e0: a2a0 2fbe 2838 463e 9518 04be 9099 9f3e
000002f0: f109 da3e ff5e a4bd cc13 0a3e abd8 813c
00000300: ed8a ac3e e2b1 0d3f 1848 9d3d 18b2 123e
00000310: 7266 bb3e f8ba 2bbe 4ad2 893d 58fe 44bd
00000320: c413 a1bd 24ce 70bd d9e0 57bd 25e1 1ebe
00000330: 9789 b3bd e5d9 d8be 0510 0cbf 0978 64bd
00000340: 307f ac3e 13e8 143e 26a8 a43d d3a4 0e3e
00000350: bdd0 923e e916 06be 3305 2dbb e41a 93bd
00000360: 4907 cebc 3ab7 f93e 637e b1bd 9667 2b3e
00000370: e8d3 2a3f 8e88 573e 5bbc 03be 14fe 0a3c
00000380: f8eb da3c ddda 22be 4095 b1bc cbe2 35bd
00000390: 40e7 24be 1236 203f 67cf 983d 7541 62be
000003a0: 05b7 bd3e 61f9 4abe db95 973d 54d7 7c3e
000003b0: 2c05 9abd ae0c 843e 8c18 f53e 07dd abbd
000003c0: 0c31 0c3e b7c4 bb3d 176d 51be 6504 66bd
000003d0: cd47 803e 6d70 6c3e 3496 c83e 2faa 7c3e
000003e0: e04c 343d f743 803e 4a25 9e3e 3fcd 00be
000003f0: c442 a7bd d295 d1bd d308 debd 4af7 633d
-0.027412605 0.08516055 -0.16256294 -0.111434 0.55923903 0.1105639 -0.13263959 0.26661634
-0.19810541 -0.3959008 -0.17242877 -0.09042902 -0.5242524 -0.17321628 -0.11790502 -0.3011257
-0.17339785 0.05668975 0.17142706 0.17470065 0.25295222 -0.0997848 0.15328875 0.026117893
-0.39944685 -0.052261483 -0.20479141 0.24634717 0.25135213 0.24586208 -0.044005617 -0.13609695
-0.3003188 -0.09678324 -0.05588383 -0.104316026 -0.13074414 -0.03917999 -0.09218032 -0.21940878
-0.65078866 -0.34045386 -0.08844651 -0.11700972 -0.007464714 0.015406877 0.23125064 0.102741085
0.0858456 0.65599203 0.09093912 -0.16122998 0.24457543 -0.108025 0.08034954 0.1881751
0.044190902 0.3305392 0.2115122 -0.17021067 -0.14500377 -0.18167917 -0.3356671 -0.115080744
-0.2314356 -0.04830576 0.20242381 0.14177518 -0.46459356 0.21752968 0.39559144 -0.023537382
-0.3434535 -0.09090987 -0.31910023 -0.21082473 0.16922073 0.073996834 -0.34792727 -0.17710134
0.26955765 0.031333964 0.33536917 -0.007707292 0.16050787 0.56745887 0.15236105 -0.1443828
0.020741312 0.089677945 -0.13019468 -0.14025578 -0.118361555 0.2841767 -0.013381457 -0.3275937
0.23278435 0.37038654 -0.084959485 -0.4186243 -0.21140501 0.0135903135 -0.28134385 -0.37618002
0.019517805 -0.07520037 -0.077478066 -0.01301696 -0.20031863 -0.020260882 0.07768287 -0.33380792
-0.37355706 0.018887851 0.0077144857 -0.36994648 -0.10583342 0.20634368 0.40428776 -0.10563473
0.09423162 0.5207965 0.19342498 -0.011700051 -0.16676797 0.036942415 -0.12929034 -0.32911658
-0.1914913 -0.31105492 -0.26637813 -0.20504396 -0.23218808 -0.26223046 -0.14311609 0.025475146
0.10799234 -0.012914651 0.4456359 -0.016815344 -0.09962729 0.5469808 -0.028455608 0.048634455
0.1077456 0.0593309 -0.05057268 0.31805933 -0.070173554 -0.21975663 0.008349508 -0.20003851
0.02057634 0.20588388 0.1847891 0.17119926 0.037355274 0.5099499 0.23994063 -0.15221615
0.15312304 0.0674885 -0.11916054 -0.06749669 0.1790905 -0.17428315 0.2482161 0.2896489
0.0040567825 0.35462284 0.2247661 -0.27585876 -0.10962181 0.04695822 0.24387486 0.55299884
-0.09304599 -0.007885665 -0.3215543 -0.018549448 0.018393472 -0.16089988 0.04336873 -0.3107504
-0.1715112 0.1935736 -0.12900002 0.31171846 0.4258571 -0.080259316 0.13484114 0.015850386
0.33699742 0.5534955 0.076797664 0.1432575 0.36601597 -0.16770542 0.067295626 -0.048094124
-0.07865098 -0.05879034 -0.052704666 -0.15515573 -0.087664776 -0.4235374 -0.54711944 -0.055778537
0.33690786 0.14541654 0.08039884 0.13930063 0.2867488 -0.13094677 -0.0026400804 -0.07182863
-0.025149958 0.48772603 -0.086666845 0.16738734 0.66729593 0.21048185 -0.1286482 0.0084834285
0.026723847 -0.15903802 -0.021677613 -0.04440574 -0.1610384 0.62582505 0.07461434 -0.22095282
0.37053695 -0.19821693 0.074016295 0.24691516 -0.07520518 0.25790924 0.4787029 -0.08391767
0.13690585 0.0916838 -0.2045177 -0.056156535 0.2505478 0.23089762 0.39177096 0.24674295
0.044018626 0.25051853 0.30887824 -0.12578295 -0.081670314 -0.10233654 -0.10841527 0.055655755

conv2.in2.weight f4 [32]
00000000: 6db1 243f 892e 2b3f 41e5 1d3f b656 3b3f
00000010: da20 3a3f 06d1 023f 4d67 383f 85ba 1c3f
00000020: 906d 183f 0a2b 603f 018e 1f3f 778c 113f
00000030: 9a77 633f 1640 0f3f 814e 593f 1b02 223f
00000040: 35b5 223f acf4 4b3f 15bb 123f a689 5b3f
00000050: ef92 0e3f fda3 183f 5f01 2a3f c142 823f
00000060: 439f 683f 47d9 303f 715b 3f3f a9b7 6b3f
00000070: 880c 173f 1f60 303f f8eb 323f 8344 183f
0.6433323 0.6686788 0.6167794 0.73179185 0.7270638 0.51100194 0.72032624 0.61222106
0.5954218 0.8756567 0.62326056 0.5685496 0.8885437 0.5595716 0.8488541 0.6328446
0.6355775 0.79670215 0.57316715 0.8575691 0.5569295 0.59625226 0.6640834 1.0176622
0.90868014 0.6908154 0.74748904 0.9207712 0.59003496 0.6889667 0.6989131 0.5947954

conv2.in2.bias f4 [32]
00000000: 6569 f43e f70c 85bd 409a 533e d3ea 413f
00000010: c688 103f 8c04 a43f 7781 143f 8fc1 853e
00000020: 27ed 60be 2e3b 8e3e 9076 853e a28c 9fbd
00000030: 5677 d63e c36d 443f 550a 323e d509 d43d
00000040: d0ae 273f b8e9 653e da8c c13e 30b0 d3bc
00000050: 0bde e23e 3638 2b3f 08aa 623e cd73 753e
00000060: 47a3 763d edb7 163f cbc1 4a3e b0bf 603d
00000070: 997f e33f 113f 0a3e 2d89 a6bc a63b 0b3f
0.4773666 -0.064966135 0.2066431 0.7574894 0.564587 1.2813888 0.5801005 0.26124236
-0.21965466 0.27779526 0.26067019 -0.077904955 0.4188792 0.76729983 0.17386754 0.10353438
0.6550112 0.22452438 0.37802774 -0.025840849 0.4431003 0.66882646 0.22135174 0.23969956
0.060214307 0.588744 0.19800489 0.054870307 1.7773315 0.1350062 -0.020329082 0.5438789

conv2.conv3.weight f4 [64, 32, 1, 1]
00000000: 3195 0f3e c7f8 0f3c e096 e0bd 3b04 d3bd
00000010: 3154 713c 025e 05be 89ea 663e 2089 b13e
00000020: adde 743d fbfd 923d 917f 5dbe 61bb 513b
00000030: ca9b 713c 3d7b 7d3e f40e 9abd ca4b b3bd
00000040: b3af 46be 212e d23d 9900 083e 2a91 17bd
00000050: d9fc 3b3e 278a 833e f388 1abe 0761 13be
00000060: 0eee 433e 085a 493e e200 403e 8783 df3d
00000070: c13a 82bd 0ba2 53bd eef7 f5bd 64be a63d
00000080: b57a 4e3e c010 04be 9405 3dbd 2ae0 1d3d
00000090: 5e05 b3bd 9df5 4f3e aefc 083e fc3e 78bc
000000a0: 1f4b 7b3d aecd 06bd 1cab 683e d5e3 073e
000000b0: df2d 47bb ff71 303d 8ffa 53be f93d 9cbd
000000c0: d5a8 c13d d93c b03d 2e98 eb3d 73ba 503e
000000d0: f8a6 493e a4e2 2b3d de40 84bc b10f cd3d
000000e0: 6531 50bc 1071 22be 3e63 44be c647 ecbd
000000f0: 849b 783e 0cdf 11be f1a1 963e ce80 b23d
00000100: 817a 3ebe 889b e03d a5a9 683c 10b6 5bbe
00000110: 6ebd 423e f5aa f3bd 5369 043e 88b0 63be
00000120: a4cb 7d3c 9580 d4bc 9181 833e 5524 b93d
00000130: d23a d03c 7026 083e 53ef 413e d172 6a3d
00000140: 9126 33bd 70e4 773d 5bc1 8a3d d88e f5bd
00000150: 4c5e dabd cbfa 6a3e 4040 93bb 4792 32be
00000160: d9ba 6dba 80ed afbd 7a3f 783e 6ad5 06bd
00000170: 96d9 c7bd 8dcd 9c3d 9145 673d e4c4 983b
00000180: 0cf3 6a3e 51ab a63d 60b9 fc3d a3e2 093e
00000190: 71df 543e 907c 22be b41c e03c 03dd 93be
000001a0: fbd3 c53d 3e3b 40be 8438 163d e5d6 a13c
000001b0: 765d 53bd 0bd0 153d ed5c ed3d 0bff a3bc
000001c0: 17d1 5d3e 91d1 30bd 5ddf 113d cbec 583e
000001d0: 1a35 bebd e83c dd3d ccb5 283d 269b 533e
000001e0: 511b 53bd e1d6 8ebe 6172 a239 e86b cb3d
000001f0: 7002 ef3d 70a7 cdbd 145a a5bd 0877 4ebd
00000200: b8f5 77be 7b04 a13d ca2b 343d a905 7cbd
00000210: bfb9 9fbd e01d 233e 1629 cfbd 80d8 b3b9
00000220: d84d c93d 6635 67bd d52f 84be 35df 193d
00000230: 6297 ef3b b19e c2bb 9aeb 923b e404 dd3c
00000240: 29eb 9ebd 9e14 613d ef57 e53d 0f16 a5be
00000250: d2c1 8dbd 9628 38be 61d8 62bd 69cc 7f3d
00000260: 1ad2 813d 062e 38be d023 55bc 426c 633b
00000270: 3c4e 1abe a10c b53d 653c 2cbf f0b4 0ebd
00000280: c5df 753e a83e cc3d 0c4c ca3d 1268 15bd
00000290: fadc 43be 7692 bebe 0b00 fd39 27b0 bb3d
000002a0: fcf5 46be b2ca 7ebd 7b69 3fbe 4a82 14bd
000002b0: dc45 39bd 4c8d 8b3d 5544 54bc 4ccd dc3d
000002c0: 8d21 8e3b 9dfa d5bb c193 013d d686 e3bd
000002d0: 8e2c 673c 79b4 33be 30eb e5bd 1a2a 0cbe
000002e0: b372 b33d 0125 1ebe 5c26 1fbc b0d0 4a3d
000002f0: afa8 f2bd 0e5b fbbb 1ca4 a13e 7b16 8bbd
00000300: db0a d5bd e81f c139 45b8 f9bb e3d3 4bbd
00000310: c4bc 603e 8f03 7bbd 5d47 ef3d cac7 443e
00000320: 00f5 1abe 0167 383e 2f07 73be 1aab b1bc
00000330: 00de 4e3d 38ba 9a3d a57b c03c 1bdb a9bd
00000340: 5b98 2ebd 6fd6 833e 508c ab3d e4ab 54be
00000350: 003c e93c 9726 203c b285 e63d 0baf 79be
00000360: 3b4c 8abd e26e 05be 82de 8fbc 2f05 0bbe
00000370: 3092 d4bc 0a59 ab3d f674 84be 1631 76be
00000380: a68b 983c 7414 92bd 3992 fc3d 51a2 e13d
00000390: 5d08 293e 3be3 f43d 5e96 afbe d8ac 65be
000003a0: 04eb a63c e8f0 2f3e 6839 cb3d d44c a2bd
000003b0: 424d ddbd 7212 a43d 783c e4bd 0f51 f63d
000003c0: 69de 203e 311f 18bc 0617 d1bc 1f4f 5d3d
000003d0: 6969 933d e41e bb3d de96 13be c1d3 193e
000003e0: aab3 60be d2bb 95bd 6e66 223e 917b 143e
000003f0: ba43 1fbe 2af6 43bd 467b 25be cf8f 6d3d
0.14021756 0.0087873405 -0.10966277 -0.10303541 0.014729545 -0.13024142 0.22550406 0.3467493
0.059782673 0.07177349 -0.21630694 0.0032002556 0.014746616 0.24754043 -0.07522383 -0.0875469
-0.19402961 0.10262705 0.13281478 -0.037003674 0.18358172 0.2569134 -0.15091304 -0.14392482
0.1913378 0.1966325 0.18750337 0.10913759 -0.06358863 -0.051668208 -0.120101795 0.08141783
0.20163997 -0.12897015 -0.046147898 0.038543858 -0.08741258 0.20308538 0.1337764 -0.015151735
0.061350938 -0.032910995 0.22721523 0.13270505 -0.0030392332 0.043077465 -0.2070105 -0.07629008
0.0945603 0.08605356 0.11503635 0.20383625 0.196926 0.04196419 -0.016144212 0.100127585
-0.012707089 -0.15863442 -0.19178483 -0.11537127 0.24278075 -0.14245242 0.29420426 0.08715974
-0.18601419 0.10967165 0.014200603 -0.2145617 0.19017574 -0.11897842 0.12930803 -0.2223531
0.015490446 -0.025940219 0.2568479 0.09040133 0.025418673 0.13295913 0.18938951 0.057238404
-0.04373795 0.06052059 0.06775161 -0.11990136 -0.10662517 0.22947232 -0.004493743 -0.17438613
-0.0009068675 -0.085902214 0.24242964 -0.03291837 -0.09758298 0.07656393 0.056462828 0.004662143
0.22944278 0.08138145 0.12340045 0.13465361 0.20788361 -0.1586783 0.027357437 -0.28879556
0.09659573 -0.18772599 0.03667499 0.01975579 -0.051602803 0.03657536 0.1158999 -0.020019075
0.21661793 -0.043168608 0.035613406 0.2118408 -0.09287472 0.108026326 0.041189 0.20664653
-0.051539723 -0.27898315 0.00030984267 0.09932691 0.11670387 -0.10041702 -0.08073822 -0.050406486
-0.24214828 0.07862183 0.043987073 -0.061528835 -0.077991 0.15929365 -0.101152584 -0.00034302846
0.09829301 -0.05644741 -0.25817743 0.037566382 0.0073117474 -0.0059393276 0.0044836523 0.026979871
-0.07759697 0.054951303 0.111984126 -0.32243392 -0.06921734 -0.17984232 -0.055382136 0.0624508
0.06338902 -0.17986307 -0.013009027 0.0034701978 -0.15068907 0.088402994 -0.67279655 -0.034840524
0.24011143 0.09972888 0.09877786 -0.036476202 -0.19127265 -0.37221116 0.00048255952 0.09164458
-0.19429773 -0.062205024 -0.18692581 -0.036257066 -0.04523264 0.068140596 -0.012955745 0.10781345
0.0043374957 -0.0065301196 0.03163505 -0.11109702 0.014109744 -0.17549314 -0.11226499 -0.13687935
0.087621115 -0.15443803 -0.009713735 0.049515426 -0.1184858 -0.0076707667 0.31570518 -0.06791397
-0.10402461 0.000368356 -0.0076208436 -0.049762618 0.21947008 -0.06128269 0.11683533 0.19216838
-0.15132523 0.18008043 -0.23733209 -0.021688033 0.050504684 0.0755505 0.023496458 -0.08293744
-0.042625766 0.25749537 0.08376372 -0.20768696 0.028470993 0.009774826 0.11255969 -0.2438318
-0.06752821 -0.1303058 -0.017562155 -0.13576196 -0.025948614 0.08366592 -0.25870484 -0.24042162
0.018621277 -0.071328074 0.12332577 0.110172875 0.16507097 0.11957403 -0.3429441 -0.22429216
0.020375736 0.17181742 0.09923059 -0.0792481 -0.108057514 0.08011331 -0.11144346 0.120271794
0.15709843 -0.00928478 -0.025523674 0.054030534 0.0719784 0.09136751 -0.1441302 0.15022184
-0.21943536 -0.073112145 0.15859386 0.14500262 -0.1555318 -0.047842182 -0.16160306 0.057998475

conv2.in3.weight f4 [64]
00000000: e57d 7d3f de48 863f 67ae 8d3f 0e66 703f
00000010: 2e30 8b3f 16ce 7d3f ec46 693f 0d09 823f
00000020: aca6 8c3f e5df 833f af1b 783f 4ec1 4b3f
00000030: 1e59 803f 53eb 543f 143f 6a3f e4f0 6f3f
00000040: 1260 7c3f c47a 553f 4ef1 783f 1a80 863f
00000050: 8d9e 763f fdd4 8e3f e820 683f 3360 7c3f
00000060: f50a 643f 5c51 883f c128 623f 9648 773f
00000070: f2f9 623f ad9f 713f 6070 913f cfa7 7f3f
00000080: 54c5 703f e163 8a3f 6652 693f 1ab9 893f
00000090: 79c6 753f ff7a 6f3f 641b 8c3f 70e1 703f
000000a0: 867d 753f 56bc 913f 3a83 803f af5b 863f
000000b0: 126d 7f3f e302 9f3f aa65 8a3f 1a65 893f
000000c0: e21c 713f 921d 833f 535f 7a3f c41e 7d3f
000000d0: 71fe 813f 462f 743f 2f1c 9a3f 3ccc 933f
000000e0: 0ac2 823f 2177 883f 0cc8 793f b225 803f
000000f0: 0f70 8d3f eae5 6a3f 129f 843f f008 813f
0.99020225 1.0490987 1.1068848 0.93905723 1.0874078 0.9914259 0.91123843 1.0159012
1.0988364 1.0302702 0.9691724 0.79591835 1.0027196 0.83171576 0.915025 0.93726945
0.9858409 0.8339045 0.972432 1.0507843 0.9633568 1.1158749 0.9067521 0.9858429
0.8907922 1.0649829 0.88343436 0.9659513 0.88662636 0.9438427 1.1362419 0.9986543
0.940511 1.0811731 0.91141355 1.0759614 0.9600597 0.9354705 1.0945859 0.9409399
0.9589466 1.13856 1.0040047 1.049673 0.99775803 1.2422756 1.0812275 1.0733979
0.94184697 1.0243399 0.97801703 0.9887507 1.0155774 0.95384634 1.2039851 1.1546702
1.0215466 1.0661355 0.9757087 1.0011504 1.1049823 0.9175707 1.0361044 1.0080853

conv2.in3.bias f4 [64]
00000000: fcbe 9fbc fcab 71bd 0204 7fbc 3ea2 a0bd
00000010: 3980 66bd d96c 893c 5a3a 133b 4b9a 36be
00000020: cb6e 01bd 7d13 8b3d 9a38 513c d983 e9ba
00000030: 9cf1 24bd ab52 153e a159 0fbd 16ee bc3d
00000040: aee7 04be 44c3 3c3c d7c5 c53d c7b6 0b3d
00000050: ef0e b2bd bb8d a5bd 9f91 a6bb 0509 5d3d
00000060: 90fc 4d3d 2490 833c d692 5dbd d9f2 edbb
00000070: e842 09be 48e9 50bd a380 1d3d 4353 d83c
00000080: faba 08be ea04 503d d553 aabd d379 ab3d
00000090: abb6 843d bcb7 04be 1279 a93c d8c9 a7bd
000000a0: 9917 be3d ffc0 a7bd 4588 7a3d 928d 21be
000000b0: 1f85 5bbd c3f8 af3c ae47 edbc 6b26 ad3d
000000c0: 6598 3abd bdad a23d 7bdc 563d 3f37 2cbd
000000d0: c9d1 593c d277 d5bc 4d06 1ebd a8ca cabd
000000e0: 5c85 913d 7f96 e7bd 4a3d 243e b3bb 26bd
000000f0: b34a f7bd 6862 c43c 6e2d a5bd d9a3 8fbc
-0.019500248 -0.059001908 -0.01556492 -0.07843445 -0.056274626 0.016775535 0.00224652 -0.17832296
-0.0315998 0.067908265 0.0127698425 -0.0017815783 -0.04026948 0.14582317 -0.034997586 0.09225099
-0.12979004 0.011521164 0.096568756 0.034109857 -0.086942546 -0.080836736 -0.0050832774 0.05396368
0.05028969 0.016059943 -0.05409511 -0.0072616157 -0.13404429 -0.051003724 0.038452756 0.02640689
-0.13352576 0.050785936 -0.08316771 0.083728455 0.06480154 -0.12960714 0.020687614 -0.081927955
0.09281845 -0.08191108 0.061165113 -0.15776661 -0.05359375 0.021480924 -0.028964844 0.08454593
-0.04555549 0.07943294 0.05245636 -0.042044874 0.013294646 -0.026058111 -0.038580228 -0.09901935
0.071055144 -0.11308002 0.16039005 -0.040706348 -0.120747946 0.023972705 -0.08065306 -0.017534183

conv3.conv1.weight f4 [64, 64, 1, 1]
00000000: d756 75bd e4c7 063e 529b 3dbe 0ad8 b8bd
00000010: dcf6 053e 7af6 5abe 24dc 42ba dd61 743c
00000020: 42f4 113e 03ed e9bd f70e 09be dbfb 94be
00000030: bafd 883b 6d41 a5bd 93c5 d93c b159 07be
00000040: 0ae6 543e 585f 6ebd d294 963d f060 c8bd
00000050: 3539 cebd c5cf 533e 0c1a cabe 192b 3ebd
00000060: a9f8 873e acae 74bd f6a1 f63d 4b02 f23d
00000070: 8476 83bd 5fa2 27be 1c49 40be a1d9 e1bb
00000080: 9303 ccbb b2e6 0abe 07f9 273e 9015 babd
00000090: accf 42bd e577 b2bc 0369 df3d c734 5d3c
000000a0: 6b7c 163d d5a3 7ebd 5aa1 223d 2791 273d
000000b0: d3e7 433c 8544 82bd 102e 3d3d 8f34 1ebd
000000c0: dc43 303e 684c d83d 19ee 053e 6b6c ffbc
000000d0: 7d79 34be 38c6 76bd 4185 f33b 982c 84bd
000000e0: 0cc1 9d3d 52fe 593e 9232 f1bd b6e5 e3bd
000000f0: a1aa 0e3e 91e3 263b 6338 5f3d b520 23be
00000100: 6292 863d 3346 233d 88bd 073d 4b26 a23d
00000110: ecee b2bb 62df 9cbe 5e6d 07bc 2ba0 143e
00000120: 64fc c03d 6b43 30bd ea76 1bbe 723e 2dbe
00000130: 0990 2d3c fd46 a4bd 5d78 55bd a72b 1cbe
00000140: ee42 15be 6972 0f3d ba65 75be db29 2f3e
00000150: edf5 ebbc d08a 04bd 1a15 01be a092 f6bc
00000160: a6c9 383e f407 70bd d32b bc3d 74e6 00bd
00000170: b57a 2abe e459 2abe f345 fa3c 408d 94bd
00000180: 2ed7 1d3d 54ce 6dbe c800 aebd 69c2 403e
00000190: 386e 303c a75b e43d 862e 683e e3df 17bd
000001a0: feee c9bd 6ef5 a33b 38e7 f73d b710 25bd
000001b0: 056e e7bc cdc2 06be 9957 fdbc d7b5 3abd
000001c0: f0e5 fbbd 7b6d bb3d fbda 01be 2fa5 e63d
000001d0: d3fb 403e 329e 183e a23b 603c 2880 e03a
000001e0: a85d c83d 630c 2ebe 1221 843d d4b7 393e
000001f0: 1dd4 41bc d835 34be d362 87bd b78c c3bd
00000200: 76cb 22bc 3c56 c03d 9f92 c5bc fc8e 72bd
00000210: 5334 e7bb 0502 51be bd06 bc3d c47a 353e
00000220: 8e60 593d 0ecb 72be 394c bcbd e400 e2bd
00000230: c9ab 8bbc 5bc0 dcbd b807 0ebe 5de0 81bd
00000240: 60e2 1a3e 4537 0bbe 98d8 27bd b20c 98be
00000250: bf1e dbbd 31f0 50bc 1e07 22be 1f07 283d
00000260: 3241 183e 12ff b3bd 74fa 2e3e 05c4 ef3d
00000270: 6b6a a6bd 157a 40be 8e11 81bd 28c3 ddbd
00000280: fba8 91bd ae04 263d ec1f 94bd 0cfc 69bd
00000290: 4618 053d 0dee b43c f788 273e 37d4 603d
000002a0: fe50 a93c 4537 61bd b872 1a3d e9ea afbd
000002b0: 3d00 123d 8e4e 083e 83dc bebd 59e0 9bbc
000002c0: f0f3 12bd d821 c4bd e114 233e d8a7 e3bd
000002d0: 3602 4cbe 66fd ca3d 8632 953d d650 2cbe
000002e0: 9b6e 383e 4724 7ab9 90ab b93c 8e46 fcbd
000002f0: a392 15bd e0d2 013e 3357 533d 24b5 6dbe
00000300: 8c86 20be 7fc8 863d 9097 20be 9ad4 41be
00000310: 42e2 12bd 6eef 143e 5d0b f3bc c2ad 4bbe
00000320: 8e57 9fbd bb01 cf3c c17c 713d 733f adbc
00000330: 4ee6 89bd b605 473e c937 623d 05b5 8c3d
00000340: 01a0 063e e5f9 c03d 88e3 083e ddd4 f73c
00000350: 093b 01be 4edb 0b3e 0444 dcbc d9ee 713d
00000360: 86c8 f4bc 6590 40be f69e 0abe 02f4 033e
00000370: fbc0 65be 2765 273d a8a9 5ebd 2fdb b23d
00000380: c6e4 8cbc b9b0 1e3b b4b3 81be fa36 57be
00000390: b4ef 5a3b 58a5 f3bc 3429 12ba 204a 943e
000003a0: 339b 3bbd 3b26 543d db8a bcbd 9e00 2bbd
000003b0: d3e5 e13d c095 54be c5ab a9bd c3b7 693e
000003c0: e67c e03d ba71 3c3e 3aca 44bd efd2 abbd
000003d0: 0f54 193e b9f3 24be d2e9 22be e942 dcbd
000003e0: 08d8 50bd c447 f4bd 1651 3abd 8ddb 563e
000003f0: 45e6 b83d 5226 dc3d 307c 15be 66da 7cbc
-0.05989727 0.1316219 -0.18516281 -0.09025581 0.1308245 -0.21383086 -0.0007433316 0.014915911
0.14253333 -0.114221595 -0.13384615 -0.290984 0.004180637 -0.080691196 0.026583469 -0.13217808
0.20790878 -0.058196396 0.07352604 -0.09784114 -0.10069505 0.20684727 -0.39472997 -0.04642782
0.265569 -0.059736893 0.1204261 0.118168436 -0.064190894 -0.16370533 -0.18777889 -0.0068923985
-0.006226012 -0.13564566 0.1640359 -0.09086144 -0.047561333 -0.021785686 0.10908701 0.013501353
0.036739748 -0.06216796 0.039704658 0.040909912 0.011957127 -0.06360725 0.046186507 -0.038624343
0.17213386 0.10561448 0.13079108 -0.031179627 -0.17624469 -0.06024763 0.0074316566 -0.06453818
0.077028364 0.21288422 -0.11777224 -0.11127798 0.13932277 0.002546523 0.054497134 -0.15930445
0.06570889 0.03986187 0.033139735 0.0791746 -0.0054606106 -0.30639178 -0.008265821 0.14514224
0.0942314 -0.043033045 -0.15182081 -0.16918352 0.010593423 -0.080213524 -0.05211674 -0.15251027
-0.14576313 0.03502122 -0.23964587 0.1710581 -0.02880379 -0.032358944 -0.12605706 -0.030099213
0.18045673 -0.058601335 0.09188046 -0.031469777 -0.16648372 -0.16635853 0.030550933 -0.07253504
0.03853529 -0.23223239 -0.08496243 0.18824162 0.010768466 0.11150294 0.22673997 -0.03707875
-0.09860037 0.0050036227 0.12104648 -0.040299144 -0.028250704 -0.13160248 -0.030925559 -0.045583572
-0.122997165 0.09151741 -0.1268119 0.11261975 0.18846063 0.14904097 0.013686093 0.0017128037
0.097834885 -0.16996913 0.0645162 0.18136531 -0.011830357 -0.17598665 -0.06610646 -0.095483236
-0.009936204 0.09391448 -0.024117766 -0.05921839 -0.007055798 -0.20410927 0.09180973 0.17722613
0.053070597 -0.23710272 -0.09194226 -0.11035326 -0.017049687 -0.107788764 -0.13870132 -0.06341622
0.15125418 -0.13595302 -0.040978044 -0.29697186 -0.10699224 -0.012752579 -0.15823027 0.041022416
0.1486862 -0.08788885 0.17087728 0.1170731 -0.08125766 -0.1879657 -0.063021764 -0.10828239
-0.071123086 0.040531807 -0.07232651 -0.057125136 0.032493852 0.022086168 0.16360842 0.054889884
0.020668503 -0.05498435 0.03770706 -0.085897274 0.03564476 0.13311216 -0.09319403 -0.019027876
-0.03587717 -0.09576768 0.15925933 -0.11115998 -0.19922718 0.09911613 0.07285027 -0.16827711
0.18010943 -0.00023855372 0.022664815 -0.12318145 -0.036516797 0.12678099 0.05159683 -0.23213631
-0.15676326 0.0658121 -0.15682817 -0.18928757 -0.035860308 0.1454446 -0.029668504 -0.19890502
-0.077803716 0.02526938 0.058956865 -0.021148419 -0.0673338 0.19435772 0.055228982 0.06870464
0.13146974 0.094226636 0.13368046 0.030252868 -0.12620176 0.13657877 -0.026887901 0.059065674
-0.029880773 -0.18805082 -0.13537201 0.1288605 -0.22436897 0.04086795 -0.054361016 0.08733212
-0.017198931 0.0024214222 -0.25332415 -0.21017066 0.0033407034 -0.029741928 -0.0005575598 0.28962803
-0.045802306 0.051794272 -0.09206172 -0.041748635 0.110301636 -0.2076025 -0.082847156 0.22824006
0.109613225 0.18402758 -0.04804442 -0.08389842 0.14973472 -0.16108598 -0.15909508 -0.107549496
-0.050987273 -0.11927751 -0.045487486 0.2098219 0.090282954 0.107494965 -0.14598155 -0.01543293

conv3.in1.weight f4 [64]
00000000: f4f6 603d 55eb 213e 8900 e93c 89f7 ad3e
00000010: 8778 373f 13e6 043e 82d1 a53f f149 4e3e
00000020: 114a 573c 1aa3 a13e 362a 663e 6fd3 a03d
00000030: 2a63 623e d266 fb3e 2696 0c3f 1ee7 3c3e
00000040: bf3b a43d 1c65 483f cd49 9f3d 3a6b 993e
00000050: 27de 323e f162 dc3e 94cf 803e d196 273f
00000060: d8a4 433f 848b 143e fedf b33d a147 013f
00000070: 67cb 8e3e f9ec 883e 5741 4d3f ee5e a83e
00000080: 2b52 3c3f 90c3 1e3f 9e62 833e c1c1 4a3f
00000090: a357 4b3f 954e a13c 1fce ac3e 7b91 0a3f
000000a0: 809b 2f3f 920c 043f 8de1 a43e 7a2e 483f
000000b0: 533b 1c3f e67b 993d bed2 323d 6395 1b3f
000000c0: 314d f43e cb96 603d 1fff 2f3f 48ee d13d
000000d0: 362b f93e 8667 273f 0f5f 0e3e 9b25 bb3e
000000e0: 24a7 083e 5167 243f 2435 f93e 9617 ce3c
000000f0: c155 853d 5a6d 623f 3bcf 0b3e 3746 073f
0.054923013 0.15812428 0.028442638 0.33977917 0.71668285 0.12978391 1.2954562 0.20145394
0.013140217 0.3156975 0.2247704 0.07852828 0.2210814 0.49101883 0.5491661 0.18447539
0.08019208 0.7827928 0.07777748 0.2996462 0.17467557 0.43044236 0.2515837 0.654645
0.76423407 0.14506346 0.087829575 0.5049992 0.2788956 0.26743296 0.80177826 0.32884926
0.7356288 0.62017155 0.25661176 0.79201895 0.794306 0.019690791 0.33751008 0.54128236
0.6859665 0.5158168 0.32203332 0.7819592 0.6102802 0.07494335 0.04365801 0.6077482
0.47715142 0.054831307 0.6874866 0.10250527 0.4866578 0.6539234 0.1390345 0.36552128
0.13345009 0.6422015 0.48673356 0.025157731 0.06510497 0.8844811 0.13653271 0.52841514

conv3.in1.bias f4 [64]
00000000: f121 303f 210a 3f3f 2177 0d3f 0dd6 043f
00000010: 8b17 a93e 6fa8 283f 1456 62bd fefb 1d3f
00000020: dfa6 e73e e7c0 193f a6c7 043f 0d9e 303f
00000030: 7a9a 0d3f 98a6 0e3f 41f1 a33d f765 fe3e
00000040: 7eb4 283f a580 783e b292 3d3f a316 1b3f
00000050: 24d8 3c3f aae0 dd3e cf2c 143f c739 883e
00000060: f3b4 f73d 7e14 5f3f 3101 2a3f bb6e 523e
00000070: 3bc9 273f 2c07 223f faa5 443e 8c5f f93e
00000080: d55c 2f3e 4e0e 933e c1b9 183f 89bc fe3d
00000090: 0ebd 103e b1a7 e43e 04c4 e33e a4f5 9c3e
000000a0: 5a37 2f3e 4b04 843e b78d 0a3f 5c37 f73d
000000b0: d379 933e 4faa 213f 130d 073f dcac b63e
000000c0: 47d7 b53e f39b 2e3f 61f2 8a3e 992e 383f
000000d0: 349c ac3e f665 723e 9908 5b3f 1196 f73e
000000e0: 3c2c 203f 17fb cc3e e8ea b13e 10ce 083f
000000f0: 430c 373f 163e c23e d8d9 413f 07e4 153f
0.6880179 0.7462483 0.552599 0.51889116 0.33025774 0.6588201 -0.05525787 0.61712635
0.452445 0.6005997 0.5186714 0.68991166 0.5531384 0.5572295 0.08005 0.49687168
0.6590041 0.24267824 0.74051964 0.60581416 0.73767304 0.43335468 0.5788087 0.2660658
0.1209506 0.87140644 0.6640807 0.20550053 0.6554143 0.63292193 0.1920394 0.4870571
0.17125256 0.2872185 0.5965844 0.12438304 0.14134619 0.44659188 0.44485486 0.3065616
0.17110959 0.25784525 0.5412249 0.12071106 0.28803882 0.63150495 0.52754325 0.35678756
0.35515806 0.6820671 0.27138045 0.719461 0.33712924 0.23671708 0.85559994 0.4835668
0.62567496 0.40035316 0.34749532 0.53439426 0.71503085 0.37937993 0.7572303 0.5855107

conv3.conv2.weight f4 [64, 1, 3, 3]
00000000: 225c f5bd 7e9e 4ebd 90dc 463d 8df8 febd
00000010: 77d9 0f3f 3a5d 093f a3b7 d2ba 7ac8 913e
00000020: 646e cfbc be8b 91bb 7a5e f13c 5fbe 88bc
00000030: dc0e f43d b09f 3fbe 42e1 ba3d d867 efbd
00000040: 238d 033f 156d 74bd 502b 7abc 25db 7d3c
00000050: d9c5 8bbc 996b fb3d 1182 c43e 3f09 96be
00000060: b7b7 e33d d4fa 293d 6535 a5be 8938 c33c
00000070: f614 6c3e bfb8 78be bbeb 8b3e 5411 0ebe
00000080: eab3 87be 6cf1 ae3d c951 39be 1f6c e0bd
00000090: 348b 6bbd b62a 72bd e3d2 d8bb 5da4 08be
000000a0: 6b46 973e 35ec df3e e323 1fbd 3542 cd3e
000000b0: 20ff e23e 0ac5 1a3d 67b1 403e 66c5 333c
000000c0: 500f 6b3d 4623 83be 744b 583e 9038 84bd
000000d0: 7434 f93e 0868 9d3d 6f13 ee3d f879 943e
000000e0: 0be4 433e 1178 7c3e 2064 9d3e 220a b93e
000000f0: a742 2b3e 4653 8bbd ea1f 753d 211d e83c
00000100: 1dd7 a83c 3b89 983e 036a 13bc f7b6 7bbe
00000110: d218 d83e 71f3 96bd 0cca 01be da34 c43c
00000120: 9acb 95bc 142b de3c f63e 0a3b 1b83 043d
00000130: 9af9 723e c127 a1be 8094 0f3b f2a6 acbe
00000140: 47ec b73e 9771 7bbc d4a4 113d 27b1 b239
00000150: c38f 203c 0635 29be d782 f5bd 764e 51bc
00000160: f906 e43e 97d8 163e 3dcd 273d e964 a2bd
00000170: 9d57 09bd df68 2a3c dddb 833e 6db6 09be
00000180: e315 2ebe 954f 1c3f d1b9 07bd 33af 50bd
00000190: 552e 063d 5e89 c8bd 326c df3c 11fa 223f
000001a0: 8da1 cc3e 0bda 98bb 51ab 8a3d f313 9b3c
000001b0: 7606 94bd 3205 2ebe baeb 2abe 5be4 6dbd
000001c0: 29c0 26be b827 503e 2a73 473d f822 4a3e
000001d0: 6b03 013f e726 91bb cbe8 20bd 5e8d 7fbd
000001e0: f4c8 6fbd 4c6e 9b3e 8424 413c 1fe0 29be
000001f0: 90da 7a3e 956d 153f fc51 40bb 53f6 423e
00000200: efbf 09bd 2d93 b73a c33b 7d3f 13e4 84bc
00000210: cde7 b3bd a8ff 67bc da20 023d 91f4 39bd
00000220: 4967 003e 48b7 16bd abb8 62be 02ff 073f
00000230: c1ff 4cbe 038d a2bc 30d8 4f3d fc1b 1abd
00000240: 7614 32bd 8df0 393c b65d b63c 1458 553a
00000250: 27ac 3abe 76b8 b1bd bc56 973d 5645 d43e
00000260: f7e2 353e 23b1 2fbe 5ac0 91be 6c1c 76be
00000270: 63be 3bbe e7b6 adbe 5bd8 62be 3522 3bbe
00000280: 93af a2be 8d17 4ebe bb5c 043e c78d ba3d
00000290: 8577 7d3d 5329 603e 13a1 3cbe e123 1bbe
000002a0: c0f0 5c3e adb2 e9be a231 dd3d 5df7 b9bd
000002b0: f4d9 54bd 54cf bd3c 07a1 ebbc 6cae 013f
000002c0: 3b56 9c3e 2e2b 193e 7922 703e 9740 67be
000002d0: d98e 203d 191e 753e 0a92 f0bd 7f8f c33e
000002e0: 8657 4bbd 8e61 94be 4892 be3d 13f8 80be
000002f0: f09b 0dbb a650 643e 2111 ebbd 083c 13be
00000300: 8395 19be 1c14 c0be 100b c23e 56fc c6bd
00000310: 2f9f 6f3e cf19 e63d e17d 48bd 8fe0 163e
00000320: f49f 59bd 8597 753d dfa0 5a3f 9275 a43e
00000330: ff79 acbd 983b 7abb b45a ddbd 07d5 083e
00000340: 32cd ba3e 4527 4cbd 7626 ec3e c670 90bd
00000350: 1dd3 073e 0d85 383e 403f c03d 9c33 0a3e
00000360: 8316 023d 6ba4 fcbc e4f8 2cbd 33e3 943e
00000370: d76a c93e 4dea 6bbc 1658 583d 95ed 3b3e
00000380: 7892 603e 5866 883d 7198 2dbe 21ce 443e
00000390: 3342 823e 56e9 59be 6884 973d 0207 6d3e
000003a0: 6581 8c3d e445 9abe ad93 d4bb 6252 103c
000003b0: 8d82 12bd c053 f23a ae86 b5bd f5d5 3abe
000003c0: 3009 4b3d cace 093f 11c7 713e e620 79bd
000003d0: 51ed 55be 39a8 61be 16c4 d33b 9f3f 5abe
000003e0: 50fc dfbe 078e 8b3d 1570 1d3e ea3c 673d
000003f0: 7ac5 f33c 321d 45be e98d b7bd 65a6 763e
-0.119804636 -0.05044412 0.04855019 -0.12449751 0.561912 0.5365788 -0.0016076457 0.28473264
-0.025321193 -0.0044417074 0.029463995 -0.016692339 0.11916897 -0.1871326 0.09124996 -0.116897285
0.5138723 -0.05967434 -0.015269116 0.015494143 -0.017062115 0.12276382 0.38380483 -0.2930393
0.11119025 0.041498974 -0.322673 0.023830669 0.23054871 -0.24289225 0.27328286 -0.13873798
-0.2650445 0.08542141 -0.18097605 -0.109581225 -0.0575058 -0.059122764 -0.0066169365 -0.1334395
0.29545912 0.437349 -0.038852584 0.40089574 0.4433527 0.037785567 0.18817674 0.010972356
0.05738765 -0.2561285 0.21122533 -0.06456101 0.4867283 0.07685858 0.116248004 0.28999305
0.1912996 0.24655177 0.30740452 0.36140543 0.16724645 -0.068029925 0.05984489 0.028334202
0.020610387 0.297922 -0.008997443 -0.24581514 0.42206436 -0.073706515 -0.12674731 0.023950983
-0.018285561 0.02712015 0.0021094657 0.032351594 0.23728028 -0.31475642 0.0021908581 -0.3372112
0.35922453 -0.015346906 0.035557583 0.00034082794 0.0097999 -0.16524133 -0.11987846 -0.012775054
0.4453657 0.1473106 0.040967215 -0.07929403 -0.03353082 0.01040098 0.2575368 -0.13448496
-0.17000537 0.6105893 -0.033136193 -0.050948333 0.03275903 -0.09791826 0.027273271 0.6366282
0.39967003 -0.0046646646 0.06770957 0.018930411 -0.07227795 -0.1699417 -0.16691485 -0.058079105
-0.16284241 0.20327652 0.048693813 0.19739902 0.5039584 -0.0044296863 -0.03928451 -0.062390678
-0.058541253 0.30357587 0.011788491 -0.16589402 0.24497437 0.58370334 -0.0029345741 0.19039278
-0.033630308 0.0014005654 0.98919314 -0.016222036 -0.08784447 -0.014160074 0.03176961 -0.045399252
0.125394 -0.036795884 -0.22140758 0.53123486 -0.20019437 -0.01984263 0.05074328 -0.037624344
-0.043476544 0.011348856 0.022261482 0.000813843 -0.18229733 -0.08677761 0.0738959 0.4145915
0.17762361 -0.17157416 -0.28467065 -0.2403428 -0.18334346 -0.33928606 -0.22152846 -0.18274768
-0.31774577 -0.20126171 0.12925999 0.09109073 0.06188156 0.21890764 -0.1842082 -0.15150405
0.21576214 -0.4564413 0.10800482 -0.09080384 -0.05196567 0.02317015 -0.028763307 0.5065677
0.3053454 0.14957878 0.2345065 -0.22583233 0.03919873 0.23937263 -0.11746605 0.38195416
-0.049644016 -0.28980678 0.09305245 -0.25189266 -0.0021607839 0.2229639 -0.114778765 -0.14378369
-0.1499844 -0.37515342 0.37899065 -0.09716098 0.23400567 0.11235391 -0.048948172 0.147341
-0.05313106 0.059958953 0.8540172 0.3212095 -0.084217064 -0.0038182493 -0.10808316 0.13362513
0.36484677 -0.049842138 0.46123093 -0.0705276 0.13264127 0.18019505 0.09387064 0.1349625
0.03175975 -0.03084012 -0.042229548 0.2907959 0.39339325 -0.014399123 0.05281838 0.18352349
0.21930873 0.066601455 -0.16952683 0.19219257 0.2544113 -0.21280417 0.07398301 0.23147205
0.068606175 -0.30131447 -0.006487331 0.008808704 -0.035769034 0.0018488094 -0.08863579 -0.1824568
0.04956931 0.5383116 0.23611094 -0.06082239 -0.2089131 -0.22036828 0.0064625842 -0.21313332
-0.43747187 0.06814199 0.15374787 0.056454577 0.02975725 -0.19249418 -0.08962614 0.24086912

conv3.in2.weight f4 [64]
00000000: 6cee 193f f21e 073f 93c9 e03e 11f5 413f
00000010: ed0b 3d3f eceb 183f ac0c 6c3f 9a4f 393f
00000020: 4550 413f 574d 283f d4e5 063f 8079 153f
00000030: b365 383f 28ea 1c3f c41c 103f b99d 0c3f
00000040: c86d 583f b59f 6b3f a770 e33e 2dfc 203f
00000050: d62a 4b3f b7c6 033f a086 113f fe42 153f
00000060: 0d30 0e3f 7597 163f bf39 0d3f 787b 413f
00000070: 8f57 303f 5463 053f d302 263f 7ab2 123f
00000080: b4d8 2e3f 2e10 5d3f bdf8 113f ad9e 063f
00000090: f864 263f 13c4 0d3f 2964 1e3f 4cd8 183f
000000a0: ea2c 0d3f 5834 5a3f cdb8 483f 2626 693f
000000b0: 4be1 fc3e 293a 0b3f a2b0 f73e 2c57 1f3f
000000c0: 856b 2b3f 1ccf 053f 6727 443f d9ad da3e
000000d0: cfc8 163f 9de2 6d3f 2329 003f 960c 2b3f
000000e0: ee61 323f 756c 283f de90 173f 3e4a ed3e
000000f0: e151 053f 415f 423f 143e 013f cc43 2d3f
0.6012943 0.52781594 0.4390379 0.75764567 0.7384632 0.5973499 0.92206836 0.7238709
0.75513107 0.6574301 0.5269444 0.5838852 0.7203018 0.61294794 0.5629389 0.54928166
0.8454251 0.9204057 0.44421884 0.6288479 0.7936224 0.5147509 0.56846046 0.58305347
0.5554207 0.58824855 0.5516624 0.75579023 0.68883604 0.5210469 0.6484806 0.57303584
0.6829941 0.86352813 0.5702017 0.5258587 0.64997816 0.5537731 0.6187158 0.5970504
0.5514666 0.8523612 0.78406984 0.91073835 0.49390635 0.5438562 0.48376948 0.6224239
0.66960937 0.5226915 0.76622623 0.4271076 0.5890016 0.9292391 0.5006277 0.6681608
0.6968068 0.6579049 0.59205425 0.46345705 0.5207806 0.75926596 0.5048535 0.67681575
