mobilenet_weights/the_scream(2).pth (torch, 985894 bytes, 85 tensors)

conv1.weight f4 [32, 3, 9, 9]
00000000: 4627 473c a35e eabc ed34 5f3c 9084 3f3d
00000010: ead9 a63c c5d2 533d 1ab3 c03c b79b 743c
00000020: e8ae b9bc 149e b2bb d107 833c cb88 953d
00000030: bf2a a53d 2483 703d 828e 013d 2e69 d13d
00000040: 2681 773d 8c7c 7a3d 4ed3 5f3b 4b52 9f3d
00000050: 7299 a83d f886 203c abe1 dcbb e5f3 a1bd
00000060: 0449 e23c 7693 bc3c be4f 313b 86d3 283d
00000070: 0cf6 183d b139 553d e627 84be 6057 bdbe
00000080: f71c 52be 10c9 9bbc 2ff4 463c 6a69 253d
00000090: c821 623d 15ef 8ebb 242b 3dbd ba42 bbbe
000000a0: 2122 eebe 55bc b5be b59d e5bd c72e adbd
000000b0: 9f8a 033e d0db bc3c f6db a53c ba80 7cbd
000000c0: 4ed8 6cbe d725 24bc db45 38be d2aa d8bd
000000d0: 4f57 55bd 975e 523d 46f4 2f3c 05a4 f83c
000000e0: 3f73 193b 1998 23be e16e 36be f310 11be
000000f0: 6fa7 403d cae5 8a3d 5e96 8f3d 65e8 063e
00000100: e06e 9b3c 9357 453d b46e ec3d 1b85 253c
00000110: c236 093d 5074 8b3d 3bdf 343d 6ece 783c
00000120: 7855 2d3d 3db4 bebc 30fa 933c ff15 3f3b
00000130: 463d 893d a1dd f83d 4fd0 d43d df07 d43c
00000140: 184f 9ebd 2e8c d0bb 51d3 77bd 7993 8ebd
00000150: 4b82 99bd 909e 60bd d97e b6bd c128 ecbc
00000160: a5b8 91bd 5a71 78bd 9655 b1bd a300 fc3a
00000170: a32c f4ba 8f3e 413c 3dd5 e03c cd8a a2bc
00000180: c2dc 093d 946f 63bd df60 45bd b831 42bd
00000190: f76f 38bc 5318 8f3b 5967 ae3d 744e 163e
000001a0: 44f4 013e 3bd3 353d 1371 90bc f97c 14bd
000001b0: 5eb1 72bd ebf9 843c 987e 0d3e 186a 153e
000001c0: 4f4b be3d 72d4 493e e399 6b3e 4f8e ffbc
000001d0: c5ed c2bc b544 05be 6401 903d 60d2 253e
000001e0: 88e2 9b3d 911e a13e 68ac 183e d917 5b3e
000001f0: 9daa 2d3d 0c21 d4bc 6d05 02bd 42ab 813d
00000200: 9a08 073e a872 593e 897c 073f 2863 b33e
00000210: 5e22 d13d 0a83 8abc 5b8b 25bd 142c 9dbd
00000220: 3da9 963c 689f 1c3d e585 e43d b7fe 673e
00000230: 1483 093e e717 a53d 2ee1 1fbc 97c9 3fbd
00000240: 9d1b e2bd eb10 c1bd 47f8 7b3d 31c5 683d
00000250: 69d1 913c 3ae6 94bb cd83 9abd 2ef0 b4bd
00000260: 957a abbd f468 ffbd ac5f 12bd 70f8 e5bd
00000270: f804 b1bd 8a9a bfbd 8e8f bbbc 9b74 46bd
00000280: 61f5 b3bd 440b 1ebd d674 4bbb 07a6 8b3d
00000290: b250 e63c f8da 073d 9c5a 3c3d 5eaa ffba
000002a0: 03bb 283d fbda 893c a010 693d 9041 7b3d
000002b0: 740d abbc 320f 1b3d f7d2 63bd 58bd 06bd
000002c0: 655f 96bc 2645 58bd db99 a23d 8f62 b73b
000002d0: 3893 5a3d 0f11 c3bb 0295 95bd 6ec3 92bd
000002e0: da86 c9bc 4dfb 7ebc 6c9b a2bd d426 abbd
000002f0: 300c b0bc 6a39 2b3d 7ad4 88bd d587 9cbc
00000300: d38d bebd 5ce4 b9bd 0307 26bd 1edf 823d
00000310: dac5 9abc 948f 20bc 2e95 df3c 431e 0bbd
00000320: d1f5 83bd 7a39 c1bd 0ae4 943d 6b0f 3bbb
00000330: c6a3 cc3d f7a1 83bd 4dd1 b33c bfc4 bb3c
00000340: c8cf 0ebd aa38 cdbd 54a6 09be c659 303e
00000350: c8ed 673d 898a d2ba 3942 d6bd 65a4 ee3a
00000360: 3c21 cc3c 6ba7 da3b 22de 70bc 598a 53bd
00000370: 6db9 66bd c8b7 ebbd 4817 9fbd a8a3 37bd
00000380: e489 833c 27e1 733d d4ae 103d ba46 e9bc
00000390: 5e2a 2cbd 9903 ba3c 45e7 8bbd 694e 93bd
000003a0: 3323 d73b 6429 f63c a37a ad3d 50af 1e3d
000003b0: e0d1 d53c 2550 78ba a500 2cbd d8a3 983c
000003c0: 5db0 913d 0bc0 013d d11c dc3d a833 293d
000003d0: 9d5f ab3d bc58 d23c 85c0 4c3d 4397 653d
000003e0: 2a21 59bc 43e1 48bd 8bf7 3c3d 8955 943d
000003f0: 86dd 3b3d 89ab a93b 116f e6bd babe 8c3b
0.01215536 -0.02860958 0.013623458 0.04675728 0.020367581 0.051714677 0.023522902 0.014929703
-0.02266641 -0.0054509733 0.015994938 0.07301482 0.08064794 0.058718815 0.031630047 0.102251396
0.0604259 0.061153933 0.0034153047 0.07779368 0.08232392 0.009797804 -0.006740769 -0.07907847
0.027622707 0.023019534 0.0027055587 0.04121735 0.037344024 0.052056972 -0.2581169 -0.36980724
-0.20518862 -0.019016773 0.012143179 0.040383734 0.055207998 -0.004361997 -0.04618372 -0.36574346
-0.46510413 -0.35495248 -0.11211721 -0.08456188 0.12845849 0.023054034 0.020246487 -0.0616462
-0.23129389 -0.010018787 -0.17995398 -0.105794564 -0.052085217 0.05135974 0.010739392 0.030351648
0.002341464 -0.1597599 -0.17815734 -0.14166622 0.047034677 0.0678211 0.07011102 0.13174589
0.018973768 0.04817922 0.115445524 0.010102536 0.033499487 0.06809294 0.0441582 0.015185935
0.042317837 -0.023279304 0.018063635 0.0029157398 0.0670114 0.12151647 0.10391294 0.02588266
-0.0772993 -0.006364367 -0.06050426 -0.06961722 -0.074955545 -0.054838717 -0.08910913 -0.028828027
-0.07115296 -0.060654975 -0.08658902 0.0019226264 -0.0018629025 0.0117947 0.02744543 -0.019841576
0.033657797 -0.05552633 -0.048188087 -0.047410697 -0.011257163 0.0043669133 0.08515806 0.14678365
0.12690836 0.0443909 -0.017632043 -0.036251996 -0.05925118 0.016232451 0.13817823 0.14591253
0.09291708 0.19709948 0.23007922 -0.031195788 -0.023795018 -0.13014491 0.07031515 0.16193533
0.07611567 0.31468633 0.14909518 0.21395816 0.042399038 -0.025894664 -0.031743456 0.06331493
0.13186875 0.21235144 0.529244 0.35036588 0.10211633 -0.016908187 -0.040416103 -0.07674423
0.018391246 0.03823796 0.11158351 0.2265576 0.13428909 0.080612 -0.009758277 -0.04682311
-0.11040423 -0.09427055 0.061516073 0.05682868 0.01780005 -0.0045440467 -0.0754467 -0.08834873
-0.0837299 -0.1247119 -0.03573577 -0.11229026 -0.08643526 -0.09355648 -0.0228956 -0.048451047
-0.08787037 -0.038584962 -0.0031044981 0.068187766 0.02811465 0.03316781 0.04598485 -0.001950573
0.041193973 0.01682805 0.05690062 0.061341822 -0.020880438 0.03785629 -0.055621114 -0.032895416
-0.018356035 -0.05280032 0.07939502 0.005596466 0.053363055 -0.0059529613 -0.073038116 -0.071661815
-0.024600435 -0.015562844 -0.079398006 -0.08357015 -0.021490186 0.0418028 -0.06681152 -0.019107739
-0.093043946 -0.09076759 -0.04053403 0.063902125 -0.018893171 -0.009799857 0.027292814 -0.033964407
-0.0644337 -0.09434791 0.072700575 -0.0028543125 0.09992175 -0.06427377 0.021950388 0.022920964
-0.034866124 -0.100205734 -0.13442355 0.17221746 0.05662325 -0.0016063015 -0.1046185 0.0018206952
0.024918191 0.00667279 -0.014701398 -0.05164561 -0.05632918 -0.11509663 -0.077681124 -0.04483381
0.016056962 0.059540894 0.03532298 -0.028476108 -0.042032592 0.022706794 -0.068312205 -0.0719269
0.0065654754 0.030049033 0.08470657 0.03874141 0.026101053 -0.00094723917 -0.041992802 0.018632814
0.07113717 0.031677287 0.10747684 0.04130903 0.08367846 0.025677077 0.04998829 0.056052458
-0.013252536 -0.04904295 0.046134513 0.07242877 0.045865558 0.0051779193 -0.11251653 0.0042951973

in1.weight f4 [32]
00000000: 8491 cc3e 32c0 893f b595 323f 1c55 e23e
00000010: 7152 753f cc42 d73f 4be2 0b3f 6608 183f
00000020: 850e 5b3f 5998 6d3f 170e 5a3f df3e 813f
00000030: a23f 583f 7ec4 7e3f 7af5 693f 2892 c53f
00000040: 4fe2 833f 529f 8d3f 277b 2a3f d370 1d3f
00000050: 87a2 5a3f 9b98 393f b03c 493f 28cd 743f
00000060: 650a 923f 8bdf a23f 52a9 3e3f 1222 573f
00000070: 2319 5a3f 3a22 343f 1c2d 8f3f fd09 313f
0.3995477 1.0761778 0.69759685 0.44205558 0.9582892 1.681726 0.5464217 0.59387815
0.8556903 0.9281059 0.8517775 1.0097312 0.84472096 0.99518573 0.9139019 1.5435228
1.0303439 1.1064246 0.66594166 0.6150028 0.8540425 0.7249848 0.78608227 0.95625544
1.1409422 1.272447 0.7447711 0.8403636 0.85194606 0.70364726 1.1185641 0.69155866

in1.bias f4 [32]
00000000: e766 aa3f 86af 023e 5e18 babd 13a3 753f
00000010: d387 193d e5b5 7ebd 81be 603f e777 5b40
00000020: 3257 00be 997b 0f3c 48cf 153e a4fc 5dbd
00000030: 2e6d b1bd af5c db3d 89fe 6bbc b93b 1f3d
00000040: 5c66 69bc 5392 2b3d c6b1 bbbd 19e7 04be
00000050: d6ca c0bd 6d8a 24be 248c f03d 388e 87bd
00000060: 709a a13b ecc9 823c 12a9 343f 15fa 96bd
00000070: a550 8b3e 097e a03c 6019 973d 5d51 e03c
1.3312653 0.1276227 -0.09086679 0.95951957 0.037483048 -0.062185187 0.87790686 3.4291933
-0.12533262 0.008757495 0.14629853 -0.054196015 -0.086634025 0.10711037 -0.014403948 0.038875315
-0.014245596 0.041887593 -0.09164767 -0.12978782 -0.09413688 -0.1606843 0.1174548 -0.06618923
0.0049317405 0.015965424 0.7057048 -0.07371918 0.27209964 0.019591348 0.07377887 0.027382547

conv2.conv1.weight f4 [32, 32, 1, 1]
00000000: 08de 103d b821 48be 4b64 013d 5375 913c
00000010: b939 3ebe df3d a13e d5f7 d2bc f488 c13c
00000020: b356 3abc ea5d 753d 46d1 f4bd d4db 533c
00000030: a0a3 993e f2e7 c73b 7223 4cbd 42a4 a7be
00000040: 03a6 25bd 8e6f 97bc 1ad2 0c3e 8db1 b43c
00000050: 01a1 843e 2c98 363d 64fb ce3d eab5 10bc
00000060: b66d 64bd 494c 833c 5f18 a13c e3a1 b7bb
00000070: 826f 243d 5bf2 c93d dd09 c3b9 8be8 45be
00000080: f0e1 2c3c 2b2c cd3d d45c 92bd 28dd b0bc
00000090: d94e c23d f659 1e3c 9921 ce3d 6bd6 e9be
000000a0: 2d4f 453d 6f36 babd fceb 4ebd 4a5c a1bc
000000b0: ba59 613e 8e2d 84bd 33e8 9dbd dd31 a7bd
000000c0: 8390 6cbc 371a 823e 2744 c7bd fa06 06bc
000000d0: 7636 173d b543 03be e351 283d c88d db3d
000000e0: 4b95 60be 9df4 41be 2f49 923e 2142 403e
000000f0: c42f 60be 7f8f 9abd 6a33 6bbe d7ba aabd
00000100: e8c2 6bbd 2544 343d 0cdc 7fbd 419c 0cbd
00000110: 7dad bf3c 4f65 2abe 6094 2abe e611 aa3d
00000120: 6ed2 1abe da06 6bbc 0bf3 14be 73e8 2abe
00000130: 3e7e c6bd a46c 5f3e d6ee 29be a60d 313e
00000140: b40d aa3d 75db 2dbd d83f 72bd d988 9ebd
00000150: 8838 0f3e c89a 2d3d ba56 253e 124a 573c
00000160: bde4 683e 8ddb f33c 2ad9 93bd 7762 8cbe
00000170: b199 bf3e 2dc4 e23d 53a4 1f3e b51b b3bd
00000180: c044 90bd 6d8c a4bd 53e2 03bd 2af7 963d
00000190: 636d 3b3d b8ed a63e de38 943c 934b f0be
000001a0: a95b 0f3d 3659 f7bc 7ac5 483e e5b6 02bd
000001b0: fcce 383e dbca b0bd 01e5 8f3d bb34 73be
000001c0: 132b fcbc bf53 99bd 0578 0fbe 0258 19bd
000001d0: e3f3 14be 7adf 27bd 94de 443e 129a e03d
000001e0: acb7 293d a679 e93c f2af 3e3e 1671 0b3d
000001f0: 1629 3ebe b4f9 87bb 40a4 4d3d babe 833c
00000200: 68d8 a13d 8ac9 79bd 166c 1b3e b83d c63c
00000210: 7ced 7e3d 10f9 dfbe 7681 22bd f538 3a3e
00000220: ae7b 8ebd cee7 06bd 6c0b a23c a666 a53c
00000230: cfe3 4fbd fa28 843d 4d64 b8bd 0a49 fa3e
00000240: 876c 9b3d 7f98 2cbd 934d c4bc c5f8 113c
00000250: 6baa 983d 752c 5e3d a064 133e 9f88 21be
00000260: aa66 89bb c948 f9bc d7d9 273d 7ccb 8e3d
00000270: 2fc5 213d f91f bc3d 5c18 01bd 0366 98bc
00000280: 69c5 143b 3dd8 253d a7bf bf3d 6bb9 d6bc
00000290: 30a0 acbc 757a 203f a25d 313c bee8 113e
000002a0: 1367 433d 0611 56bd 9960 4e3d 8f12 33bd
000002b0: 3b4b 31bc 8720 e5bc c652 dd3b 9b26 e7be
000002c0: 163b ff3c 3920 dabc 0010 0b3c 3dd2 8a3d
000002d0: 15fe 4a3e acb0 bf3d 1c77 babc 5af1 88bd
000002e0: 88ab 9d3c e5ec a33c 5409 84bc 1ce4 a63c
000002f0: c1c0 e23c c9e2 8bbc a4c6 e53b ae35 963b
00000300: 08a0 bc3d 3f41 a1bd 4951 01b9 ecb1 56be
00000310: 986a bf3d 0f2e 22bd 8627 f53c b4d9 8abd
00000320: 54de 7e3c 12c7 74be 81b3 1bbe a5d6 783e
00000330: 4b1b 7b3d 64a2 44bd be57 6abe 1912 003c
00000340: 70d3 5b3e a84e cfbe d0ea 313d 4f17 26bc
00000350: a838 0f3e ffbb f23d 79be 5f3d 9cee 4ebe
00000360: 85be eabc be78 ff3e ca50 873b dc75 12be
00000370: 5710 d6bd dba2 f63d 59ea b53d 1338 b4bd
00000380: 5c28 15be fc91 54be 4e4b 293d f553 81bc
00000390: c8c4 303d 3ead b2be 8810 8ebe a478 a83d
000003a0: 1b1b 94bd 8075 8f3d 129e 443d e096 913d
000003b0: b2b9 473c c5d4 833d 0d25 81bd 3021 b73e
000003c0: e98a 463d 1889 acbd f0a2 84bd f035 c23c
000003d0: 4dea 643c b7af 063e f395 21bd 6d13 f0bd
000003e0: b715 0cbc a00d 673d ab30 2c3c e299 bc3d
000003f0: 3431 db3d 8010 be3d 1666 22be 6d45 3bbd
0.035367996 -0.19544113 0.031589787 0.01775614 -0.18576707 0.31492516 -0.025752941 0.023624875
-0.01137321 0.059904017 -0.11953978 0.012930829 0.30007648 0.006100648 -0.04983849 -0.32742506
-0.040441524 -0.01848581 0.13752022 0.022057319 0.25904086 0.044578716 0.10106543 -0.008832434
-0.05576869 0.016027587 0.019664941 -0.005604015 0.040145405 0.09860679 -0.00037200647 -0.1932699
0.010551915 0.1001819 -0.07146612 -0.02158983 0.09487695 0.009665003 0.10065002 -0.456714
0.04817121 -0.09092414 -0.05051802 -0.019697327 0.22006884 -0.06454001 -0.07710304 -0.081638075
-0.014438751 0.25410625 -0.09729796 -0.008180374 0.036917172 -0.12818797 0.04109372 0.10720402
-0.21931951 -0.18940969 0.2857146 0.18775226 -0.21893221 -0.07546901 -0.22968832 -0.08336418
-0.057558924 0.0440103 -0.062465712 -0.034328703 0.023398155 -0.16640209 -0.16658163 0.08304195
-0.15119335 -0.014344895 -0.14545839 -0.16690235 -0.096920475 0.21818787 -0.16595015 0.17290363
0.08303395 -0.04244562 -0.059142917 -0.07740945 0.13986409 0.04238394 0.16146365 0.013140218
0.22743507 0.029767776 -0.07219155 -0.27418873 0.37421945 0.11072574 0.15590028 -0.08745519
-0.07044363 -0.080345966 -0.03219826 0.073713616 0.045758616 0.3260324 0.018093523 -0.4693266
0.034999523 -0.030193906 0.19606581 -0.031912703 0.18047708 -0.086324416 0.07026101 -0.23750584
-0.030782258 -0.074866764 -0.14010628 -0.037437446 -0.1454616 -0.04098461 0.19225532 0.109668866
0.04143493 0.02850039 0.18621805 0.034043394 -0.1857036 -0.00414964 0.05020547 0.016082156
0.07902604 -0.06098322 0.1517795 0.024199352 0.0622382 -0.43744707 -0.039674245 0.1818579
-0.06957184 -0.03293591 0.019780837 0.020190548 -0.050754365 0.06453128 -0.09003506 0.4888385
0.07589059 -0.04213762 -0.023962772 0.008909409 0.0745438 0.054241616 0.14393854 -0.15774773
-0.0041931467 -0.030430214 0.040979233 0.06972405 0.03949469 0.09185786 -0.03151737 -0.01860333
0.0022700673 0.040489424 0.09362727 -0.026211461 -0.021072477 0.62686855 0.010825546 0.1424894
0.04770572 -0.05226233 0.05038509 -0.04371887 -0.010821159 -0.027969612 0.006754252 -0.4514664
0.031156104 -0.026626693 0.008487701 0.06778381 0.19823487 0.09359869 -0.022761874 -0.06686659
0.019246832 0.020010421 -0.01611773 0.020372443 0.027679803 -0.017075913 0.007012205 0.004584036
0.09210211 -0.07873773 -0.0001233268 -0.2096631 0.09346503 -0.039594706 0.029926073 -0.06779805
0.015555937 -0.23904064 -0.15205194 0.2430063 0.061305325 -0.04800643 -0.22885033 0.007816815
0.21467376 -0.40489697 0.043436825 -0.010137393 0.13986456 0.11852264 0.05462501 -0.2020821
-0.0286553 0.49896806 0.004129504 -0.14302772 -0.10452335 0.12042781 0.08882589 -0.08799758
-0.14566177 -0.20758814 0.04133158 -0.015787104 0.043156415 -0.34897798 -0.27746987 0.082261354
-0.072317325 0.07004833 0.04800231 0.07108855 0.012190269 0.06437067 -0.06305895 0.35767508
0.04847232 -0.08424586 -0.0647639 0.02370736 0.013971877 0.13152967 -0.039449643 -0.11722455
-0.008550099 0.05640948 0.01050965 0.09209038 0.10702744 0.09280491 -0.15859255 -0.045720506

conv2.in1.weight f4 [32]
00000000: 3153 803c 0660 833f dbc3 873d 69fe db3e
00000010: 587f 0f3f a756 d03d 63e9 9d3d 07ae 1d3c
00000020: 660b 3a3c e9c1 e73e dbc0 e93c c60c 303f
00000030: adbe 803f c221 613f 1acb 323d 7e0d 443f
00000040: 37f8 393f 6953 823f baca db3c ae82 513d
00000050: 7cba 013f f0c4 803f e9f2 133f 502b 553c
00000060: 9f2b 443d 2a48 2d3f 7c5e 3e3f 09d8 0d3f
00000070: c639 3e3f cd22 2e3f e06f f83e d3d5 803d
0.015664669 1.0263679 0.06629153 0.42967537 0.56053686 0.101727776 0.077105306 0.009624011
0.011355257 0.4526513 0.028534343 0.6876949 1.005819 0.87942135 0.043650724 0.7658309
0.7264437 1.0181705 0.026830066 0.051150016 0.5067518 1.00601 0.57792526 0.013010815
0.047893163 0.6768824 0.7436292 0.5540777 0.74306905 0.6802185 0.48522854 0.06290784

conv2.in1.bias f4 [32]
00000000: 658d 9b3e 2ebd 3a3e 46d5 e33e 2c63 fc3e
00000010: 7f9e ec3e 3570 193f 5f84 173f b1ff 053f
00000020: 5ead cb3e e4fe a83e 1ccd 253f 5e81 8ebd
00000030: d49d e1bc 4b65 5e3e 2fa6 f13e f6ed 8a3e
00000040: 2305 7a3e f7b9 91bd 4d62 db3e 1c5d 1b3f
00000050: f41a c03e b6dc d83d 1a69 a13e 7157 153f
00000060: 47de 0d3f c0c9 de3e 5d55 513e 60a7 8bbe
00000070: f484 43be ab6e a63e 7f50 c93e b13b 493f
0.30381313 0.18236229 0.44498652 0.49294412 0.46214673 0.5993684 0.5918636 0.5234328
0.39780706 0.33006966 0.647661 -0.069582686 -0.027541079 0.21718328 0.471971 0.27134675
0.24416022 -0.07115548 0.42848435 0.6068895 0.37520564 0.10588972 0.315255 0.5833655
0.55417293 0.43513298 0.2044272 -0.27276134 -0.19093686 0.32506308 0.39319226 0.78606707

conv2.conv2.weight f4 [32, 1, 3, 3]
00000000: acc8 57bd 8e54 5a3e cb3a 963e 691c aabe
00000010: 9b16 d7bd f084 a83e ec91 4ebe 185d 37be
00000020: 33b1 253d ca0f 62be fbd9 c53d 875b 1bbe
00000030: 07a8 44bd 7bf3 123e 79f2 ddbd 5ccf 9bbe
00000040: d8fa aa3b 8737 83be fdcf de3d f5a9 343e
00000050: f5f6 a53e 7233 673e 5a99 67be c3e7 80be
00000060: 38c7 043c 4ee1 58bd 42c4 7fbe 8aeb c93e
00000070: 551c 49ba 82fd 6dbe 8301 91be f5fd 873e
00000080: ad81 463d e2ad 6ebd cb60 753e 2865 6fbc
00000090: 4bf6 03bd e4b9 93bd f588 dcbd f2e1 9b3d
000000a0: ccf4 173e 5d1a 15be ee83 e33e 43f3 c13e
000000b0: fb3f b93e fadb 07bd 3c6a 083f 09a7 b2bd
000000c0: 8eb1 54bc 68f4 833e 30e5 e9bd b095 85bb
000000d0: 481a 9dbd b937 56be 0646 8cbc 15e0 93be
000000e0: b816 8eb8 535e 993d 417d e43e 5a7c f4bd
000000f0: 34ad a6bd f7b6 033f d97c 6d3e 0c13 c03c
00000100: 87f8 453d 0144 e3bd 5442 cbbe 921b d23d
00000110: 29e2 ea3d 2511 f43d 5dfc cb3e 3705 adbe
00000120: 668c bf3e a79f 28be ff33 3abe c34c fb3e
00000130: f918 8abe 6b61 24be 8751 053e c41e 7b3b
00000140: 7119 45be dad2 10be dda0 e9bd c7c1 24bd
00000150: b071 d43e 1cac 473f 31ad b03b 78ce d4bd
00000160: 0faf 113c 7824 dbbd b8f8 b9bd 1e79 e9bd
00000170: 14f1 42be b5a6 a5be d944 36be d0e6 7ebb
00000180: b973 123e 0158 b33e 434a d03e b88c 9c3d
00000190: 404c f03d becb dcbd 0ffc 303e acf7 1f3e
000001a0: 1545 eabc c56f ac3e 4ed4 8a3e 5835 c03e
000001b0: 2d7d 25bf 1d34 24be 26ac 34be 9b64 32be
000001c0: 2c45 e63d a4a5 823e 4b4b bbbe 0f16 bb3d
000001d0: b8fd 22be bdbd dcbe 9a68 07be cf83 a1be
000001e0: 6160 3dbd fb90 8d3e b0ed 31bc 0e77 81be
000001f0: 0834 18bc 2ebe 0dbe dbf5 05bd ed2d 1abd
00000200: 5927 83be 0738 0dbd 5f27 4d3d be19 9e3c
00000210: 1569 fabd edf5 3fbe abfc 52be 0c53 6fbd
00000220: 0bce aabe d9e7 b4bd 59cf ccbe 538d bebe
00000230: 6dd0 a8be 23db 7e3d 15ed 023e 7203 033d
00000240: 01e5 2f3d 9e17 1b3f 93e6 aebd 91f5 c4bd
00000250: ae37 ca3e 2249 2bbe 76c9 acbd 4b6d bdbc
00000260: 3dad 6bbe f9fc 8ebe 81b2 9bbe 2163 91be
00000270: a7ea 12be 004e 443d 11e1 cabc 6aa6 dbbe
00000280: 68ff e5bd b43d 94bd 6b2b 50bd 62cf 7ebe
00000290: 0bf7 26be 3b43 5c3e eafa 153e 0f29 36be
000002a0: cdec 273e 1fbe c53d 8838 293d abb6 a7bd
000002b0: 1955 2a3d 55e2 253e 146d f2bc 57af 073f
000002c0: 8cb2 a03e ce0e e03d f24f 8f3c ef75 773e
000002d0: 5db8 5e3e 5cbd 8e3d 7504 2e3e 3b11 67bd
000002e0: ad13 ebbd da37 4b3e 291b 843e 95a2 9b3d
000002f0: 0fa3 d73e 5c42 9fbe 6b3c b73d 5598 7bbe
00000300: 4817 98be f2e0 413e 2ce4 c6be bc90 6f3c
00000310: 5306 a3bd cc16 efbe 8a4c abbe 07bf ec3c
00000320: 3842 bbbd ed61 9e3e 0a23 113e c265 9bbd
00000330: 51b3 aabe 48e7 473e e33f 82be e18f 8b3e
00000340: b17a 49be bb2b 9b3d ffae d73e 5731 6bbe
00000350: cca7 8ebd 84e9 00bd 5c11 07be 2a1b c9bd
00000360: 4a18 34bc 21a0 93be 236d 17bc a18e 9d3d
00000370: 5f6d ef3e 860e 04be ab58 b4bd 0d27 153f
00000380: 5fb0 833e 8bc5 87be 3ac1 4a3e 9778 783e
00000390: 21ec 71be 082e 69bd e9d4 c03e 7cd4 38be
000003a0: d6c7 37be 66ba 5b3e 50cf 373e 0fbd df3d
000003b0: 0deb 3d3d 7c84 febc 0751 a3bd bd1d 8f3e
000003c0: a276 4b3e ad05 373e 5841 883e 009f 67be
000003d0: af40 873e 79c3 e6bd c88c 373e febb 193e
000003e0: 30c4 143d 35f8 51bd a438 a6be bd42 a8be
000003f0: 0af7 59bc 7a1c f43d df8d 433e 2744 86be
-0.05268161 0.21321318 0.2934173 -0.332248 -0.105023585 0.32913923 -0.20172852 -0.17906606
0.040452193 -0.22076336 0.09660717 -0.15171634 -0.048011806 0.14350693 -0.108372636 -0.3043164
0.005217891 -0.25628302 0.10879514 0.17642958 0.32414976 0.22578219 -0.22617093 -0.2517682
0.008104138 -0.052949242 -0.2497721 0.39437515 -0.00076717633 -0.23241237 -0.28321466 0.2656094
0.048463512 -0.058271296 0.23962705 -0.01461152 -0.032217305 -0.0721319 -0.1076831 0.07611455
0.14839476 -0.14560838 0.44436592 0.37880906 0.36181626 -0.03316877 0.532871 -0.08723266
-0.012981785 0.25772405 -0.11420667 -0.004076682 -0.076710284 -0.20919694 -0.017123234 -0.288819
-6.775319e-05 0.07488694 0.4462681 -0.11937781 -0.081385046 0.5145106 0.23192157 0.023446582
0.048332717 -0.11096955 -0.39699042 0.10259165 0.11468918 0.119173326 0.39840975 -0.3379304
0.37411803 -0.16467153 -0.18183897 0.49082002 -0.26972178 -0.16052787 0.13019381 0.0038317898
-0.19247986 -0.14142933 -0.11407635 -0.040223863 0.41492987 0.77996993 0.00539174 -0.10390943
0.008891835 -0.10700315 -0.090806425 -0.114000544 -0.19037277 -0.3235375 -0.17799701 -0.00388949
0.14301957 0.3502808 0.40681657 0.076440275 0.117332935 -0.10781048 0.17283653 0.15621823
-0.028597394 0.33679023 0.271151 0.37540698 -0.6464413 -0.16035505 -0.17643794 -0.1742119
0.11243662 0.25517 -0.3658088 0.09135067 -0.15917099 -0.4311351 -0.13223496 -0.31545874
-0.046234492 0.27649674 -0.010859892 -0.25286144 -0.009289749 -0.13842079 -0.03270517 -0.037641454
-0.25615957 -0.03447726 0.050086375 0.019299384 -0.12227074 -0.18746157 -0.20604198 -0.05842881
-0.33360323 -0.08833284 -0.40001944 -0.37217197 -0.32971516 0.062220704 0.12785752 0.031985708
0.042943005 0.6058291 -0.08540072 -0.096171506 0.39495605 -0.16727117 -0.08436863 -0.023123404
-0.23015304 -0.27927378 -0.30409625 -0.28395942 -0.14347325 0.04792595 -0.024765523 -0.429004
-0.112303555 -0.072383314 -0.050822657 -0.24883798 -0.16305177 0.21510021 0.14646497 -0.177891
0.16398926 0.09655403 0.041313678 -0.08189138 0.04158506 0.1619962 -0.029593028 0.5300192
0.3138622 0.10940324 0.017494176 0.24166082 0.21750017 0.06969711 0.16993888 -0.056412917
-0.11478362 0.19845524 0.25801972 0.075993694 0.4211659 -0.31105316 0.08947071 -0.24569829
-0.29705262 0.18933466 -0.38845956 0.01462191 -0.079601906 -0.4669708 -0.33456832 0.028899683
-0.091434896 0.30934086 0.14173523 -0.07587768 -0.33339933 0.1952182 -0.25439367 0.27258208
-0.1967571 0.075767 0.421257 -0.2296804 -0.069655985 -0.031472698 -0.13190216 -0.09819634
-0.010992119 -0.28833106 -0.009242329 0.0769322 0.4676313 -0.12896165 -0.088059746 0.5826271
0.25720498 -0.265179 0.19800273 0.24264751 -0.23625232 -0.056928664 0.37662438 -0.18049806
-0.17947325 0.21457824 0.17950177 0.10924732 0.04636674 -0.031069033 -0.07974439 0.27952376
0.19869474 0.17873259 0.26612353 -0.22619247 0.26416537 -0.11267752 0.17924798 0.1501312
0.03631991 -0.0512621 -0.32465088 -0.32863417 -0.013303528 0.11919494 0.19097088 -0.2622387

conv2.in2.weight f4 [32]
00000000: 7e10 363f c086 293f 4745 093f 7c88 f23e
00000010: 71fa 1e3f 2078 ec3e 5e28 533f 6e90 403f
00000020: 8a21 3a3f 1c16 f73e 6018 403f 332f 233f
00000030: 9529 4e3f 2095 1c3f 0763 393f 4c97 153f
00000040: dae5 0d3f 7fee 3e3f 8ca7 3f3f ad98 f13e
00000050: 19ac 773f 508c 363f a0f3 133f d479 3f3f
00000060: 27e8 383f 5af8 013f 4cab 693f 92bb 343f
00000070: 8756 1f3f 20d8 213f c51d 063f 1502 063f
0.71118915 0.6622124 0.53621334 0.47369754 0.62100893 0.46185398 0.8248347 0.7522038
0.72707427 0.48259056 0.75037193 0.63743895 0.805322 0.61165047 0.7241673 0.58433986
0.5542885 0.74582666 0.7486503 0.47186795 0.96746975 0.7130785 0.5779362 0.7479527
0.72229236 0.5076958 0.91277003 0.7059871 0.62241405 0.63220406 0.52389175 0.52346927

conv2.in2.bias f4 [32]
00000000: 4340 813e fd45 37bd 1213 a13f 371f 8e3e
00000010: 977b bc3e ad24 2f40 fe6b 87be a3c2 cd3d
00000020: 5195 b93e cebd a03e a302 d03e ec17 fe3e
00000030: 44c7 19be c93e 993e c711 c13d 8284 82be
00000040: 1da8 9a3e 9822 12be 7f67 953e ff01 1140
00000050: 4499 ea3e 1cf3 7bbe b65c e7bd 4824 aa3e
00000060: 6601 933e fb04 803e ec6b d33d acb2 cabd
00000070: 2d0a 26bd 4827 b1bd ad04 d53e 7135 e43f
0.2524434 -0.04474448 1.2583945 0.2775819 0.36813042 2.7366135 -0.2644958 0.1004689
0.36246732 0.3139481 0.40627012 0.49627626 -0.1501742 0.29930714 0.09427219 -0.2549172
0.30206385 -0.14271009 0.29180524 2.2657468 0.45820057 -0.24604458 -0.1129698 0.33230805
0.28712004 0.250038 0.10323319 -0.0989736 -0.040537048 -0.086500704 0.4160513 1.7828809

conv2.conv3.weight f4 [64, 32, 1, 1]
00000000: 7d55 6ebd 6098 ca3d 5b66 6fbe b77c 78bd
00000010: a9d8 48be cab1 32be a902 94bd 9571 adbd
00000020: d437 48bc 5c3c dcbe 4845 f5bc e08c e63c
00000030: a2ae d43c 7b0e 30be 871c 08be c126 983e
00000040: 95b3 383d bb18 0e3e 7eb1 d0bd ea0d 9e3d
00000050: 0992 6d3d 33e9 0f3e 4abe 623d 49bb 8bbe
00000060: 49ab 353e d928 993c 82f3 1d3d f6e2 0bbe
00000070: 102d 213d 1583 433e 3e12 6b3e a005 433e
00000080: e6df a6bd cb06 163e fcb7 8f3d 94cf 85bc
00000090: 805a 09bd 57f3 3ebe 3127 99be 5029 95be
000000a0: 666c a3be 00d0 1cbe 096f c6bd 52a7 55be
000000b0: 9dca 0d3e 940c 143e 1af5 bebd e650 30bb
000000c0: 093d c1bd 943a 863d 6ddc 0cbe b9c5 933e
000000d0: 5127 a5bd 310e 8e3d a8bc 83bd 1787 363d
000000e0: 9a70 11bc 010a b83d 7e78 393d c9af de3d
000000f0: 56bb 22be e8f3 e63d cae5 3cbd 7053 023e
00000100: 5aa9 12be e4ec f3bc 5946 17be aaff e2bc
00000110: 2d87 253e be92 1b3c eac7 69be 21b4 593d
00000120: c3d8 babd 0046 98be 0e56 9cbd 2dfe 84bd
00000130: 91ed 7f3d a11a 8b3d 3b8f edbd cffb f6bd
00000140: 109d 81be 82d2 f73d bba3 ef3d b7d1 f9bd
00000150: 225d bbbd 91c1 8abd d6e1 bfbd 4866 90be
00000160: 74c5 efbd c795 ddbd 84eb bcbd ca47 bf3d
00000170: 09c4 733c fb8a 253d 258e e83d 4afd b7be
00000180: 4789 07bf e96f f23d 8618 523e 33ce 663d
00000190: 4ba7 0c3e e055 3abe 4b6b 30be 7932 643d
000001a0: 4b23 473e b0bd 31bd a5b6 0abe 15a9 e83d
000001b0: 0104 3abe b4e1 d1bd c615 393e 7851 043e
000001c0: a259 f8bb 3616 a33d 66ba 52ba b51c 1ebe
000001d0: 3d1b 543d f141 653d fb8c 1a3d 7159 8f3c
000001e0: e7e4 dd3d 35b8 ce3d 4024 923d 904e 1a3e
000001f0: 8f19 913c 5307 87bd 7199 57be c307 90bc
00000200: 6df8 30bc c4f0 0c3d 189f 2b3e 9c9f 1c3e
00000210: 3bd0 9d3d ccef e03d 74ad ae3e 945f 043d
00000220: 6eac aebc 08f0 753d bfb1 ae3c e5cb b73d
00000230: ea85 a13c 6a31 e8bc fc36 053d b83f 54bc
00000240: 6f5e 123d 785c 1a3e a477 72bc 517f 733e
00000250: f5ef 283e cda4 73bc 9aff 543d 2414 1cbd
00000260: 4946 ebbe 155b 9ebc 9f00 64bc 2483 6e3d
00000270: 42ab 21bd b4f9 73bc 335e 4cbe 5b6f 003e
00000280: 8ea7 a5be 999d 1a3d 6323 e23d ee26 f9bd
00000290: e388 9dbc b569 c2bd a0bf 463e bdba 02bb
000002a0: a8dd 5c3e 375c 463e c715 d43d 07e0 273e
000002b0: 4aec b4bd 49b4 3e3e 9d7c 2abe f2d2 5a3c
000002c0: 9a3d 4c3e 780d 993c 58cc ca3d 3579 88bd
000002d0: 9c84 803e 7c87 51bd 0174 babc bef1 91be
000002e0: 087d e83c 5977 163c 9a10 e5bd 7abb 1bbe
000002f0: 67ec 04be ace6 cebd 2e16 aabe c376 083e
00000300: dcca 05be 32ba 0a3e 1eb2 c63d d9cc 153e
00000310: 79a3 1f3d 84cf e03d 76e5 bd3e 2d5f 3f3e
00000320: 68f0 db3d a460 cf3d d4e0 453e 0c59 b13e
00000330: 8007 93bd e42d 053e 25c2 b9bd 3c46 723d
00000340: 68a1 b2bc 19a2 f5bc ef35 d93d d71f 95bd
00000350: 6cd7 c1bc 9ab2 64bd 410a 253d 4dae c13d
00000360: f645 aebd a02f 83bd 57d8 873e f920 c1bd
00000370: 346d b33c 470d c8bb 5a14 7b3e af04 453e
00000380: f261 183e 4235 fd3d 452f acbd 4165 04bd
00000390: a674 c1bc d970 d73e c367 0e3d 414d 9f3e
000003a0: 05e6 f73d 070e 143d b64d 8e3d d636 393e
000003b0: 6e85 e8bd e798 9c3c d60d 0bbe b229 cdbd
000003c0: ced8 103e dcec babd 05d3 013d d444 e7bc
000003d0: a5d6 663c 6377 f8bc fdb7 b93c d47a 433e
000003e0: 3564 c1bc 2c60 0b3d 8c88 edbd 4264 19be
000003f0: 78be e3bd 0ae0 8bbe 4eac 983e 9858 003e
-0.058186997 0.098923445 -0.2337889 -0.060665812 -0.196139 -0.17450634 -0.0722707 -0.0846893
-0.012220342 -0.430148 -0.029940262 0.028143346 0.025962178 -0.17193024 -0.13292132 0.29717067
0.045093138 0.13876621 -0.10190104 0.07717498 0.058000598 0.14053802 0.055357255 -0.27291325
0.17741121 0.018696235 0.038562305 -0.13660797 0.039349616 0.19092973 0.22956178 0.19045115
-0.08148174 0.14651029 0.07017514 -0.016334333 -0.033533573 -0.18647514 -0.29912713 -0.2913308
-0.3191864 -0.1531372 -0.09689147 -0.20864609 0.13846822 0.14457923 -0.09324093 -0.0026903688
-0.0943547 0.06554142 -0.13755961 0.28861788 -0.0806414 0.069363005 -0.06432468 0.044562425
-0.008876944 0.08986283 0.045280926 0.10873372 -0.15891775 0.1127699 -0.04611758 0.12727141
-0.14322415 -0.029776044 -0.14772929 -0.0277098 0.16164847 0.009495435 -0.22830167 0.0531503
-0.09123375 -0.29740906 -0.07633601 -0.06493793 0.06248242 0.067921884 -0.11599585 -0.120597474
-0.25315142 0.12100698 0.11701151 -0.12198203 -0.09148623 -0.06775201 -0.09369247 -0.28203034
-0.11707583 -0.108195834 -0.092246085 0.093398646 0.014878281 0.040415745 0.11355237 -0.35935432
-0.52943844 0.118377514 0.20517167 0.05634899 0.13735692 -0.18196821 -0.17228429 0.055712197
0.19447057 -0.04339379 -0.13546236 0.11360375 -0.1816559 -0.102481276 0.18074712 0.12921703
-0.0075790444 0.07963221 -0.000803864 -0.15440638 0.05178379 0.05597109 0.037732106 0.017498704
0.10834675 0.100937285 0.071358204 0.15069032 0.017712383 -0.06593194 -0.21054627 -0.017581826
-0.010801417 0.0344093 0.16759908 0.15295261 0.077057324 0.109832376 0.3411671 0.032317713
-0.021322455 0.060043365 0.02132499 0.08974437 0.019717176 -0.028343875 0.03252314 -0.012954645
0.03573459 0.15074337 -0.014799032 0.23779036 0.16497786 -0.014870835 0.052001573 -0.038105145
-0.4595206 -0.01933054 -0.013916164 0.058230534 -0.039469965 -0.014891077 -0.19957809 0.12542479
-0.32354397 0.037747953 0.11041906 -0.121656284 -0.019230312 -0.09492818 0.19409037 -0.001994773
0.2156893 0.19371115 0.10355716 0.16394053 -0.08834131 0.18623461 -0.16649099 0.013355957
0.19945374 0.01868318 0.09902257 -0.066637434 0.25101173 -0.0511546 -0.022760393 -0.28504747
0.028379932 0.009183728 -0.11184807 -0.15208235 -0.12980805 -0.10102591 -0.33220047 0.13326554
-0.13065666 0.1354759 0.09701942 0.14628924 0.03897426 0.109770805 0.37089127 0.1868865
0.10739213 0.101258546 0.19324046 0.3463825 -0.07179165 0.13005787 -0.09070233 0.059149012
-0.02180548 -0.02998452 0.1060599 -0.072814636 -0.023662291 -0.05583439 0.040292982 0.09457073
-0.08509438 -0.06405568 0.26532242 -0.09430117 0.021902658 -0.0061050984 0.24519482 0.19240068
0.14881113 0.12363674 -0.084074534 -0.032323126 -0.023615193 0.42078283 0.034766924 0.31113628
0.121044196 0.03614619 0.06948416 0.18087325 -0.11353575 0.019115878 -0.13579497 -0.100177184
0.14145204 -0.091272086 0.031695385 -0.028231062 0.014089261 -0.030330366 0.02267074 0.19089824
-0.023607353 0.034027264 -0.1159831 -0.14979652 -0.111203134 -0.27319366 0.29818958 0.12533796

conv2.in3.weight f4 [64]
00000000: d277 4d3f 2ba2 763f 4c8b 703f 32a1 573f
00000010: 01f7 8e3f 6e8b 4f3f cca1 683f d2c7 843f
00000020: a649 8d3f bfcd 873f fbe4 763f b3a0 813f
00000030: 421c 973f 53e5 893f d478 833f fc3b 753f
00000040: 1886 833f e058 7e3f dbf3 7c3f 9cf2 903f
00000050: 156c 843f 0660 6b3f ed86 893f e5fa 803f
00000060: 2e73 6a3f 51f2 873f 49ac 643f 052d 6a3f
00000070: 2f6d 6d3f 7b67 693f d267 8f3f 451f 803f
00000080: e7ed 6f3f 3d14 7d3f 838b a23f 4b9f 493f
00000090: c9e5 8b3f 9bf6 813f 774c 793f 3b19 573f
000000a0: f364 823f 92b6 733f d7fa 733f 8328 893f
000000b0: a631 473f b387 853f b264 633f 0629 8c3f
000000c0: c7d3 803f e223 8a3f c897 733f e16c 7f3f
000000d0: a48b 813f a27b 703f 3f24 ac3f 0b00 623f
000000e0: 3498 683f 0aea 713f 1160 823f cf65 903f
000000f0: 44ec 8e3f 1767 673f cbd0 8f3f 190f 4b3f
0.80260956 0.963412 0.9396255 0.8423034 1.116913 0.8107213 0.9087188 1.037348
1.1038101 1.0609664 0.96443146 1.0127167 1.1805499 1.0773109 1.0271249 0.95794654
1.0275297 0.9935436 0.98809594 1.1324039 1.0345484 0.91943395 1.0744301 1.0076567
0.91582 1.0620824 0.89325386 0.91474944 0.92744726 0.91173524 1.1203558 1.0009543
0.93722385 0.98859006 1.2698826 0.78758687 1.09295 1.0153383 0.973823 0.84022874
1.0187057 0.95200455 0.95304626 1.0715488 0.7781013 1.0432037 0.88825524 1.0950019
1.0064629 1.07922 0.95153475 0.9977551 1.012074 0.9393865 1.3448561 0.88281316
0.90857244 0.9449774 1.0185567 1.128107 1.1165853 0.9039168 1.1235594 0.7931991

conv2.in3.bias f4 [64]
00000000: f6ef ab3c 91f0 273b 8fb4 aebd 32d5 033d
00000010: 3781 3ebd bd7a e0bd b7a7 61bd b125 c73c
00000020: 346c ad3b ddae 4e3c 9022 b4bc c2ca b23d
00000030: 5a6e a53c 99cf 08ba 7920 0e3d 07a4 073d
00000040: 5141 273d 2dc7 443a b79c 43bb 0168 3d3d
00000050: 4711 353d b3c3 023a f849 89bc 28bd aabd
00000060: 62e3 14bd bd7c ef3c cdbd 86bd 8f37 d1bc
00000070: 4ed1 cdbc 92ce 60bd b49d 593d 504e 903d
00000080: 09ff e6bd b8ab 9d3d fd95 8cbd 10d6 de3c
00000090: 972e 633d e739 b43d b467 aebc 1a04 323d
000000a0: 0f2f 243c 6547 793d fa47 463d a7b5 02bd
000000b0: 6c05 1fb9 4cab 18bd a86e 3ebc 83de 2bbc
000000c0: 9b61 35bd ba83 60bd 5ec5 bcbc 09be 08bd
000000d0: 0c41 103d 6787 66bd 3801 17bd 093d 423c
000000e0: 47b6 42bd 4274 443d 5709 893c 4339 aa3d
000000f0: 7d86 d6bc 8ea6 f73c c380 fa3b 987b d3bc
0.020988446 0.0025625566 -0.085305326 0.03218574 -0.046509948 -0.109609105 -0.055091586 0.024309965
0.00529244 0.012614933 -0.021989137 0.08730079 0.020194221 -0.0005218923 0.034698937 0.033115413
0.040833775 0.0007506486 -0.0029848048 0.046241764 0.04420593 0.0004988268 -0.016758904 -0.0833686
-0.03634966 0.029234285 -0.065791704 -0.025539188 -0.025124218 -0.0548845 0.053128913 0.07046187
-0.11279113 0.076987684 -0.068645455 0.027201682 0.055464353 0.088001065 -0.021289684 0.043460943
0.010020985 0.060859103 0.048408486 -0.03191152 -0.00015165441 -0.037272736 -0.011623062 -0.010490063
-0.044282537 -0.054813124 -0.02304333 -0.033384357 0.035218284 -0.056281473 -0.036866397 0.011855372
-0.047537114 0.047962435 0.016728086 0.08311703 -0.026187176 0.030230787 0.007644744 -0.02581577

conv3.conv1.weight f4 [64, 64, 1, 1]
00000000: 7d58 da3c 16b3 d0bd 7d80 7b3e ba34 0cbe
00000010: fa9c 903d f7fa 51be ea28 85bc d753 913d
00000020: c00b 66be e399 25be 29e7 75bd 9afb 4dbc
00000030: cc87 d6bd a426 5bbd d78d 3bbd f6a3 c8bd
00000040: c068 023d c974 1e3e 7ad5 66bd 1a6b 023d
00000050: af9a 36be b84c a83d 3204 06be 1040 09be
00000060: cd12 0ebc e630 723d fff1 18be 9999 5fbd
00000070: 8223 49be b975 193e 5aa8 c1bc 1f58 5cbe
00000080: dae9 2ebe b96f 983e 4928 cb3d 489e b73c
00000090: 4fd9 16be c01f dfbd 0616 543d afdf bebc
000000a0: 094d 7abd a86f 373d 8e27 e9bd 1ae4 a1be
000000b0: b30a 80be 0929 37bb 539b fe3d d96e 69be
000000c0: e38d b6bd 2180 593e 5ce6 1a3d 5ac1 c23d
000000d0: 7f17 d1bd c3ac e1bd a349 733e 6678 ca3d
000000e0: ad67 edbc 6c68 06be 1dd6 0d3e e6db 343e
000000f0: 3812 5f3e bd34 fdbb 8a2e 0e3d bed5 443e
00000100: 749c 33bc 3612 b2bd 9f16 983d d276 08be
00000110: 9cb5 da3e 6b5e 20bd 2de2 133e 51a4 52bb
00000120: 5558 9dbe 10c5 60be bace 293c 1fc3 30be
00000130: b615 25bd c88c 593e c2e1 cc3d 2993 77bd
00000140: e5ae 0e3e 5acd debd 4839 7f3d c143 dabe
00000150: 608a f33d 78ae 3b3c 7f52 053e 0fd1 91ba
00000160: 15c3 8ebe f96f f33d f475 05be 2b01 0fbe
00000170: 4077 8e3c 029c 433e 5028 d2bc 5991 6b3d
00000180: 039d 7ebb f022 62bc 7286 8cbd 12bc 183d
00000190: de45 a0bc 466f 873d 0e38 9e3d 1e4f 453e
000001a0: e702 b43d cd96 533d a486 c03d e478 79bb
000001b0: 84a1 b3bd 6644 64be 9e11 3c3e 7df8 d6ba
000001c0: 8e93 73bd 3cdd 04be 08b9 6d3e 6524 173e
000001d0: 906c 9e3d a28c 943d 5902 b73c ed23 eb3d
000001e0: ef0e acbd 76e5 26bd 2b4a 23bd 96ef 053e
000001f0: 32d6 d3bc 637c dd3d 1f74 adbd 9ae4 bebc
00000200: ba23 4f3d 47a5 df3d 1408 51bd 3be8 c6bd
00000210: 00e2 133e 8eb6 debd d0bd 28bc e979 fc3d
00000220: e480 b2bd f434 663d d468 9bbc 8f27 f63c
00000230: cf54 afbc 5257 573c 27c5 5c3c f868 203e
00000240: 436b 043e 2212 b63e afbc 35be 4861 a0be
00000250: f940 76be 8aa6 1e3d 914f f4bc 13a4 12bd
00000260: f007 cabd 51d4 c93c ecdf 90bd f750 9cbe
00000270: 6645 42bd ddd4 c33c 7e03 2d3e 5e8a 933d
00000280: ef7d 933d e3f4 953d 57fc 213e 70cd 5b3e
00000290: a667 26be 3d2c b4bd 4065 27bc 4438 6e3e
000002a0: 2d8f 193e 3409 30bd 03c9 483e 9f0d 8e3e
000002b0: b99a 25b9 d344 16bd 8ce8 e23d 9bc9 763d
000002c0: b40c 5bbd ada5 b3bd c4bc 48bd 96af 26bd
000002d0: 068c 4e3d 8a2f 80be 868c af3d 095d 1b3e
000002e0: 83d8 1d3e 5593 04be 44ed 403c dc2a 5dbd
000002f0: b7d7 1b3d 2bbb 7e3d b56a 633e 682a 54bd
00000300: fbb8 f43d ac6d e43a dc6d a4bd b961 843d
00000310: ac08 bcbe bbd3 293e 5cf3 ab3d b7be 0abd
00000320: f716 c13e d9de 083e 662c 73bd 4251 3a3c
00000330: e3b2 173e eee0 febd c036 ad3b ebc4 c83b
00000340: efe2 733d 019c 923c 9afa 37be fc01 c33d
00000350: b287 e33c 25f8 8dbc 5eb2 783d 6690 1d3d
00000360: e2b8 193e 8250 4dbe 9bb6 173e c20b e33d
00000370: 0f21 43be fcf4 67bd bf75 95bc db59 67bc
00000380: 07d8 83bd b6f1 6f3d d586 b9bd 5d12 5a3d
00000390: d86f afbd 0e33 5abd 23ba 8cba b2c9 16be
000003a0: 41f9 38bd c144 59be 701a 973d 1e54 543d
000003b0: 8529 ffbd 0104 713d 3ac4 25be a505 d8bb
000003c0: 9620 383d a08c 3f3e 3b95 7abd d6a6 c6bc
000003d0: b621 86bd 6caf b2bd 5505 25be 1f95 8abe
000003e0: c755 febd 7ee0 373e bc21 15bd fe61 60be
000003f0: 33f7 a43d 11b1 ad3d 6574 2ebd 6149 15be
0.026653523 -0.10190408 0.24560733 -0.13691989 0.07061191 -0.20505892 -0.01625486 0.07096069
-0.2246542 -0.16171984 -0.060034905 -0.0125721935 -0.1047512 -0.053503647 -0.045789566 -0.09796898
0.03183818 0.15474238 -0.05635593 0.03184042 -0.17832445 0.08217758 -0.13087538 -0.13403344
-0.008671475 0.059128664 -0.14936064 -0.05458984 -0.19642451 0.14986314 -0.023639847 -0.2151799
-0.17081395 0.29772738 0.09919793 0.022414342 -0.14731334 -0.10894728 0.051778816 -0.02330002
-0.061108623 0.044784218 -0.113844976 -0.3161934 -0.25008163 -0.0027948043 0.124319695 -0.22796191
-0.089137815 0.21240284 0.037817344 0.09509535 -0.1020956 -0.1101928 0.23758559 0.098862454
-0.0289801 -0.13125771 0.13851209 0.1766201 0.21784294 -0.007727234 0.03471235 0.19222161
-0.010962594 -0.0869488 0.0742619 -0.13326576 0.42716682 -0.039152544 0.14441748 -0.0032141397
-0.30731454 -0.21950173 0.010364229 -0.17261933 -0.04030391 0.2124511 0.100039974 -0.060443077
0.13933904 -0.108790115 0.062310487 -0.42629817 0.11891627 0.011455171 0.13019751 -0.0011124926
-0.2788321 0.118865915 -0.13033277 -0.1396529 0.017390847 0.19102481 -0.025653988 0.05751166
-0.003885091 -0.013802275 -0.06861581 0.037288733 -0.019564565 0.066130206 0.07725535 0.19268462
0.08789616 0.051657487 0.09400681 -0.0038066441 -0.08771041 -0.22291717 0.18366095 -0.001640096
-0.05946689 -0.12975019 0.23215115 0.14759977 0.077355504 0.07253386 0.022339987 0.11481462
-0.08401286 -0.040746175 -0.039865654 0.13079676 -0.025858972 0.108147405 -0.08469414 -0.023302365
0.05057118 0.10920196 -0.051033095 -0.09712263 0.14441681 -0.10874663 -0.010299161 0.1232794
-0.0871599 0.056202844 -0.018970884 0.03004816 -0.021402745 0.013143377 0.013474739 0.15665042
0.12931542 0.3556071 -0.17747758 -0.3132422 -0.24048223 0.038733043 -0.029823096 -0.035801005
-0.09864795 0.024637373 -0.0707396 -0.3053052 -0.047429465 0.023905212 0.16895863 0.07204126
0.07201754 0.07322099 0.15818916 0.21465087 -0.16250476 -0.087975 -0.010217011 0.23263651
0.14996023 -0.042977527 0.1960793 0.27744767 -0.00015793265 -0.03668673 0.11079511 0.06025086
-0.05347891 -0.087718345 -0.049008146 -0.040694796 0.050426506 -0.2503627 0.085717246 0.15172209
0.15414624 -0.12946828 0.0117753185 -0.053995952 0.03804752 0.062190216 0.22208674 -0.051798254
0.11949345 0.0017427704 -0.080287665 0.064639516 -0.36725366 0.16584675 0.083960265 -0.033873286
0.37712833 0.1336626 -0.059368514 0.011371912 0.14814334 -0.12445246 0.0052860677 0.00612699
0.059542593 0.017896654 -0.1796669 0.09521863 0.027774666 -0.017330239 0.06071698 0.038467787
0.15011933 -0.20050243 0.14815752 0.11086227 -0.1905558 -0.05663012 -0.018244622 -0.014120544
-0.06437688 0.058580123 -0.0905892 0.05324017 -0.085662544 -0.053271346 -0.0010736625 -0.14725378
-0.045159582 -0.21217634 0.073780894 0.051838033 -0.12459091 0.05884171 -0.16188136 -0.0065924698
0.04495295 0.18705988 -0.061177474 -0.024249475 -0.065493986 -0.08724865 -0.16115315 -0.27066895
-0.124187045 0.1795673 -0.036409125 -0.21912381 0.08054962 0.08481038 -0.04259147 -0.14578773

conv3.in1.weight f4 [64]
00000000: f78d 2b3f fa3e 4b3c 506e 983c ab81 ad3c
00000010: 0c5e 993e 5a58 d93e ddc5 ed3e 2ce2 c03c
00000020: 84f5 af3c c248 9a3e f3a6 513d cc67 623e
00000030: 06dd a03d 64b5 0a3d e12c c93e 7263 4f3c
00000040: fbfc d73e f49b 023d d21d 343d 8720 413f
00000050: 8754 483d 1d09 363f f817 ad3d 3159 ae3e
00000060: cf60 6f3d fe35 013d 8f68 533f bbba 833e
00000070: 4a71 313d a3f3 583e 7388 9c3c acd2 0c3f
00000080: e0f3 9e3e 4768 103e 2d55 913c 03a5 8e3d
00000090: 98be 893c a180 0a3f a3d6 333c 1daa 713d
000000a0: 0933 843c d4ff 843c 89f2 353c 511a 933d
000000b0: 8d4a 5f3f 3926 653c d552 1d3d 68bb 193e
000000c0: 4071 3c3c 25ea 523f d5b4 373e 10e0 f83d
000000d0: 90cb 403c 3bd6 d93c 4f59 2a3d 792d 4b3d
000000e0: bd69 283f 29ae c43e 8549 a33e 68eb 8c3c
000000f0: 3c55 403f f4ed d93e 38f1 d03e ea4a 2f3f
0.67013496 0.0124051515 0.018607289 0.021179995 0.29954565 0.4245022 0.4644002 0.023545347
0.021479376 0.30133635 0.051184606 0.22109908 0.07854657 0.033864394 0.39292052 0.012657987
0.42185196 0.03188701 0.04397375 0.7544026 0.048908737 0.71107656 0.08451837 0.34052423
0.058441933 0.03154563 0.8258142 0.25728402 0.04332093 0.2118669 0.019108033 0.5500896
0.31045437 0.14102279 0.01774081 0.06965067 0.016814515 0.5410252 0.010976466 0.059000123
0.016137617 0.01623527 0.011105188 0.07182754 0.8722313 0.013986164 0.038409073 0.15012896
0.01150161 0.82388526 0.17940076 0.121521115 0.011767283 0.02659141 0.041589078 0.049603913
0.65786344 0.38414124 0.31892028 0.017202094 0.7513006 0.42564356 0.40809035 0.68473685

conv3.in1.bias f4 [64]
00000000: 4797 ae3e c210 e93e 0de2 0b3f 7a51 863e
00000010: a0c6 fd3e b5a4 c53e 5b6b 673e b79f e23e
00000020: 48dc 0d3f 02fa fc3e 664f 473e 8349 0d3f
00000030: 1c70 093f 88dd 463f 1888 b23e a7ea 933e
00000040: 4831 ce3e 1de7 123f 44c1 eb3e 50da 6fbe
00000050: df25 023f e4d3 363e 70ef 613f bc7d 1a3f
00000060: 3f48 883e 36bc 063f b606 53bc 1594 5a3f
00000070: 4896 053f 9b1f e43e d9dd 4a3f 2997 6a3e
00000080: 1bc3 d53e 2d7d 483f fafe 583f 6b8a eb3e
00000090: 4298 023f fa7e 873e d413 b03e 73e7 003f
000000a0: 77fc b53e f9e1 0f3f 4f88 9f3e 0e92 f23e
000000b0: 7fcf 6c3e c9a7 dd3e 43d5 2f3f 8391 323f
000000c0: adf8 e73e 3ccb 9a3e bd3b 233f a3e8 0e3f
000000d0: 8b77 e63e 5a5f 213f 3285 303f f2d6 283f
000000e0: 3486 bb3d a770 683e d1ef 053f 9b06 df3e
000000f0: 248e 343e 4e68 f33e 3859 0f3f 9acc a73e
0.3409979 0.45520598 0.546418 0.26234037 0.495656 0.38602224 0.22599547 0.44262478
0.5541425 0.4940949 0.19463882 0.55190295 0.5368669 0.7768178 0.34869456 0.28889963
0.40271974 0.573839 0.46045887 -0.23423123 0.50839037 0.17854267 0.8825598 0.60348105
0.2661762 0.5263094 -0.012880018 0.85382205 0.52182436 0.44555363 0.7924476 0.22909226
0.41750416 0.78316003 0.84764063 0.46004042 0.51013577 0.26464063 0.34390128 0.50353163
0.35544178 0.5620418 0.31158683 0.47377056 0.23126028 0.43292072 0.68684787 0.69753283
0.45306912 0.3023318 0.6376303 0.55823725 0.4501308 0.6303612 0.6895324 0.6595298
0.091564566 0.22699223 0.52319056 0.43559727 0.17632347 0.47540516 0.5599551 0.32773286

conv3.conv2.weight f4 [64, 1, 3, 3]
00000000: 2d75 ecbd 77b4 2dbe 1404 b8be a45b f6bd
00000010: 0057 2abe 8e54 69be cca6 53be 217f 30be
00000020: 0054 fcbd 20aa 86bd c710 ff3c 3ac4 ebbc
00000030: f9b4 d3bc 80ff b93e fd82 d7bd b12f 97bd
00000040: 2cec 813c b23b a7bd 7af5 433d bb40 82bd
00000050: 0c54 d4bc 1f8b c13e e220 b2be 6284 3bbd
00000060: cf80 8b3e ec7a 6abe 597c eebc 7c0f fabd
00000070: 6c13 ae3e ce12 203f 31a7 d1bc d663 9dbd
00000080: e378 18be c88a 593d 4043 1abd c6ba 54bc
00000090: 8403 8c3e 98cc 4f3f 148c 553e a4ba 093e
000000a0: bc56 4b3d bb2c 4fbd e58b 85bb 8ab6 493d
000000b0: 30ec 99bc ff7d c63c a5ad 003f be58 6e3e
000000c0: c89c cfbd 609c 43be 156c 0cbe 842b 71bd
000000d0: 5f7f b8bd 3d4d 56bd 654e dabc a941 a6bc
000000e0: 8a3c 853d a1d1 e8bd 405d 3a3d 6a45 013e
000000f0: dc7c 793e 6ef7 423f ef0f 7a3d c31e 883a
00000100: 4659 563c b2d5 fa3b c432 4cbe 8e34 b6be
00000110: 1015 3ebd 3507 733e 092d ab3e 0666 d83d
00000120: 82eb 023c a0cc ac3b b1a0 90bb b7ba 8abd
00000130: 8179 2dbe fb3e 113f aa21 d73c 6432 31be
00000140: 249f 8a3d 39a5 a63e 4577 1b3e e238 863e
00000150: 56ad 033e 2b79 8bbe 3ca3 c2bd a405 153e
00000160: 3019 79be e9c5 91bd 6ff7 81bc 8bac 833e
00000170: d6bc 8a3d bbd5 05be 7f8d 343d c227 0d3f
00000180: 1f26 94bd 4bae 24be 50c1 563d 0447 d83e
00000190: ab1c de3d fe4c ac3d 0d50 da3e 063b d53d
000001a0: e353 16be da10 3abd 2eb3 aabd 5baa 02be
000001b0: 18d1 183c 80e6 2dbd 5330 17bd aeca 133d
000001c0: 9192 2bbc 002b 04be 762b 9bbd 3b62 2ebd
000001d0: 55e0 1d3f 18be 9abd d0d9 c33d 6407 62bc
000001e0: 491e 813e 7cc9 a3be b04d 2c3d 3907 37be
000001f0: 76bb d53e 0c61 23bc a9db 2b3e 27f5 3fbe
00000200: 27d0 b3bd 96e9 153e 6280 ea3d bde6 0abe
00000210: 0171 bf3e f2a0 ec3e 6c8e 4f3e 4cd8 f23b
00000220: f7e1 acbc d7c9 f4bc cbbc 053e 8f17 e2bc
00000230: cad0 303e be12 03be 73a0 dcbe 51bb 643e
00000240: ac5c c0bd 2510 833e ccbb 13be c14d 253e
00000250: 6ccf 4cbd 6bc9 97be 50a8 0ebe 671e bbbe
00000260: ba53 34bf 25a9 2f3c 87a1 a6bc cade aabc
00000270: eb2b f53d 374f 42be 55bd 373e 216a c9bd
00000280: 3560 133f b618 5bbe 6fa6 933c ea4b 66bd
00000290: 8f8a 57bd b6a6 003e 8a90 92bc 7c90 72be
000002a0: 9da8 4b3e 0e68 d33e b047 f33d cc13 a5bc
000002b0: 0853 1bbe 0f2a babc 9bb1 54be 54d9 b2be
000002c0: 1081 78be 5448 56be c32a b5be 6b34 a3be
000002d0: 9001 643c d454 5a3d 5529 c7bd 5eba 7fbd
000002e0: 1d33 11be 5504 7c3f ada6 0e3b 5d41 c1bc
000002f0: 9c42 3abc 1962 7dbe 597d 3abe 455d b23c
00000300: 9643 8fbe d455 05bf 3349 8cbe f5e2 cbbb
00000310: ba07 80be b948 8bbe 54d3 823c 2a97 58bd
00000320: eafb 57bc 06f6 47bd cdef 683d 7798 ab3e
00000330: fb3a 09be 066c 0d3f a84f a23e a139 d3bc
00000340: d9b0 b0bb 651b 67bd 4adf ecbd c50b de3e
00000350: 86ef e53e e178 e1bb 73d2 773e 95ff a43e
00000360: 6da6 673e f4be 243f 0198 e5bd e508 e03d
00000370: 81c3 0d3e 4bb5 8bbd 1bd6 10bd 06be b8bd
00000380: 3017 70bd 2d4e 4dbd c342 a1bd bf28 923d
00000390: 4049 c63d b8c8 f6be 8624 633e 2336 eb3e
000003a0: 30c8 0dbe 3897 a7be c0d3 6abe 1e3d dfbd
000003b0: da35 dabe 90cd 26be b9e4 82be 8782 0ebf
000003c0: e010 cf3d 8893 753d a743 6fbd a4e3 5f3e
000003d0: 3f8c 6d3e b1e2 1fbb dc89 893e 8e0c dd3e
000003e0: a58a 783d c0c8 0c3e 8d52 9fbd 0549 083e
000003f0: cba4 22bd 8012 0ebd 2876 6bbd fb32 0fbe
-0.11545787 -0.16963373 -0.3594061 -0.12029198 -0.1663475 -0.22786161 -0.20669097 -0.17235996
-0.12320709 -0.065754175 0.03113593 -0.028780092 -0.02584313 0.36327744 -0.10523031 -0.07382143
0.015859686 -0.08165683 0.047841527 -0.063600026 -0.025918983 0.37801453 -0.34790713 -0.045780547
0.2724671 -0.22898453 -0.029112028 -0.12209985 0.33999193 0.62528694 -0.025592418 -0.07685058
-0.14889865 0.053110868 -0.03766179 -0.012983983 0.27346432 0.8117156 0.20854217 0.13450104
0.049643263 -0.050579768 -0.0040755146 0.04924635 -0.01878938 0.024230001 0.5026496 0.2327604
-0.101373255 -0.19102621 -0.13713105 -0.05887939 -0.09008669 -0.052319754 -0.02664871 -0.020294981
0.065056875 -0.113681085 0.045499086 0.12624136 0.24364036 0.761588 0.06105035 0.0010385144
0.013082808 0.007654869 -0.1994124 -0.3558697 -0.046406806 0.23733218 0.33432797 0.105663344
0.00799072 0.0052734166 -0.004413687 -0.06773894 -0.16940881 0.56736726 0.02626117 -0.17304379
0.06768635 0.3254793 0.15182216 0.26215273 0.12859091 -0.2724088 -0.09503791 0.14552933
-0.24326015 -0.071178265 -0.015865056 0.25717577 0.06774299 -0.13069813 0.044080254 0.5513879
-0.072338335 -0.16082112 0.05243045 0.4224168 0.10845312 0.084131226 0.426392 0.104116485
-0.14680438 -0.045426227 -0.08334957 -0.12760298 0.009327196 -0.04245615 -0.03691132 0.036081962
-0.010471956 -0.12907028 -0.07576649 -0.04257415 0.6167043 -0.07555789 0.09563029 -0.013795707
0.25218418 -0.31989658 0.042066276 -0.17873849 0.41744584 -0.009971868 0.16783012 -0.18745862
-0.08779936 0.14639887 0.11450268 -0.13564582 0.37390903 0.46216542 0.20269173 0.0074110385
-0.021103842 -0.029881401 0.130603 -0.027599124 0.17267147 -0.12800118 -0.43091163 0.2233708
-0.09392676 0.25598255 -0.14427108 0.16142942 -0.0500025 -0.29645857 -0.13931394 -0.36546633
-0.70440257 0.01072148 -0.020340694 -0.020858187 0.11971267 -0.1897553 0.17943318 -0.098346956
0.57568675 -0.21396145 0.018023698 -0.05622474 -0.052622374 0.12563595 -0.017891187 -0.23687929
0.1988854 0.41290325 0.11878908 -0.020151041 -0.15168393 -0.022725133 -0.20770876 -0.34931433
-0.24267983 -0.20926028 -0.35384187 -0.3187593 0.013916388 0.053303555 -0.0972468 -0.062433593
-0.14179654 0.9844411 0.0021766827 -0.023590738 -0.01136842 -0.24744453 -0.18211879 0.02177299
-0.2798125 -0.5208409 -0.27399597 -0.0062221237 -0.25005895 -0.2720392 0.01596991 -0.052878536
-0.01318262 -0.04881861 0.056869317 0.3351476 -0.13401406 0.55242956 0.31701398 -0.025784316
-0.0053921756 -0.05642261 -0.115660265 0.43368354 0.44909304 -0.006880865 0.24201374 0.32226244
0.2262208 0.6435387 -0.11210633 0.109391965 0.1384411 -0.06821688 -0.035360437 -0.09020619
-0.058615863 -0.050123382 -0.07874062 0.07136678 0.0968194 -0.4820001 0.22181901 0.4593974
-0.13845897 -0.32732558 -0.22932339 -0.10900329 -0.4261921 -0.16289353 -0.25565127 -0.5566792
0.101106405 0.05995515 -0.058414128 0.21864182 0.23198031 -0.0024396593 0.2686299 0.4317364
0.060679097 0.13748455 -0.07779417 0.13309105 -0.03970794 -0.03468561 -0.05748573 -0.13984291

conv3.in2.weight f4 [64]
00000000: d1e1 0f3f e59c 0c3f c3a2 163f 1271 e93e
00000010: ac6c 003f 2f5a 093f b4cd e43e ac32 403f
00000020: 6d03 f43e f23e 383f 0dbd f73e 4291 c83e
00000030: 5470 e43e 1915 ab3e fd58 103f 0974 f03e
00000040: 993c ed3e b681 de3e 64d2 ed3e 1cf0 2c3f
00000050: cd4d f23e b688 ef3e 6a61 f53e 62b6 633f
00000060: 7828 ea3e 7830 d13e 75e4 173f 363b 113f
00000070: bdd9 5d3f 5dee ca3e eac3 333f 72c1 053f
00000080: 61c5 233f e35a f93e 8fa4 343f 507e fb3e
00000090: a498 ea3e 5163 d83e 697f 393f 6752 f13e
000000a0: 52e3 063f 9c1a 363f 79eb 393f 938e 123f
000000b0: 1c31 133f 7152 183f 9cd4 b13e f3aa da3e
000000c0: 61cb ed3e 20d6 013f ddd5 f83e cf35 223f
000000d0: b101 3d3f 307b e43e 2a9c d03e 24a3 cb3e
000000e0: 9bb9 093f 871f f43e 19ce 093f 574b 2c3f
000000f0: 63aa 033f 6890 123f 9f2a c53e 82c5 c53e
0.56203943 0.549269 0.58842105 0.45594078 0.5016582 0.53653234 0.4468819 0.7507732
0.47658864 0.71971047 0.48386422 0.39173323 0.4461695 0.33414534 0.56385785 0.46963528
0.46335295 0.43458337 0.46449578 0.6755388 0.47324982 0.4678399 0.47925884 0.8895017
0.45734 0.4085729 0.5933297 0.56730974 0.8666037 0.39634982 0.70220816 0.522483
0.6397305 0.48702154 0.70563596 0.49119806 0.4581958 0.42263272 0.7246004 0.4713318
0.52690613 0.7113435 0.7262493 0.572488 0.5749681 0.59500796 0.3473252 0.4270855
0.46444228 0.50717354 0.48600665 0.63363355 0.73830706 0.44625235 0.40744144 0.39772904
0.53798836 0.47680303 0.53830105 0.6730246 0.51431865 0.57251596 0.3850908 0.3862725
