mobilenet_weights/the_scream.pth (torch, 985894 bytes, 85 tensors)

conv1.weight f4 [32, 3, 9, 9]
00000000: 594e 20bc 3c13 513d 9564 153d 598d 503d
00000010: 3890 2a3d 2d14 253c 061e 0dbc ae7c ec3c
00000020: 4280 433d a02b 3e3d 7968 4cbc a422 4f3d
00000030: c8f6 4bbc f880 bb3d a0b9 8c3d 7b96 7a3d
00000040: 945e 28bd 1a1d 4fbc 8766 7b3d fb35 66bd
00000050: 57ed 53bc 7cb5 c83c dc67 543d 72f2 883d
00000060: 919f 56bc 1fed d83b bd3e 2b3c e6a7 ef3c
00000070: 060c e9bc 2d85 1fbb 342e c23d 331a 1b3e
00000080: 017b d83d d84a c33d e2c4 ccbc d6f9 643d
00000090: b9b3 853d d399 1d3b f12a 1c3c 88a6 1e3e
000000a0: 5bde 333e 5ce1 8c3e c88a ff3d 3b2d 833d
000000b0: d899 1bbd 51d7 19bc a4dd bb3d 60e5 873b
000000c0: 59ce 34bd feed 83bd 01e9 e13c 3d00 f23c
000000d0: a61d 6cbd 3846 0dba a066 083b b1d3 5b3d
000000e0: 4adf 88bb f5f3 06bd ecb2 96bd fed7 f4bd
000000f0: 9f6c ea3b 1d9c 863d 0924 abbc 4ab8 473c
00000100: a200 2c3d 7ee6 903c 4626 04bd 6ca4 eebb
00000110: 1332 18bd 5f64 5f3d 5690 90bc 50b8 8a3c
00000120: 8e7e b63d dd8c 213d 0d2e c33c 5654 0e3d
00000130: 3454 a53d 36ac 26bc 6883 083d e385 b33d
00000140: d172 2a3d 5605 1bbd a9d1 c5bc 31a2 7ebd
00000150: 9413 8dbc 04fa acbd 4292 5e3c 721e 8fbd
00000160: 3677 a5bc 87e8 5b3d b443 df3b 4d5a 87bd
00000170: 85b1 cabc 12b8 86bd b282 29bd 2163 2fbd
00000180: 9671 aabd 188e b23c 197d 56bd 39c2 8f3b
00000190: 67c0 08bd c5b5 2abd 345e aabd 623a f9bc
000001a0: 1518 dcbb f592 bebd 1d7b c7bd 8840 1dbd
000001b0: a4cd 5dbd a3ea 1fbc 5e0b c63b 383e 98b9
000001c0: 0dae cc3d 25dd 293d 6717 c73c 2451 09be
000001d0: 41ed 5e3c 4a1c 323b 1483 683d 27bd 883c
000001e0: 735d 453d 5b8e 4f3e 503c 573e 5e56 f63c
000001f0: 7736 393d e465 843b 98b6 76bd b15a 79bc
00000200: 96b0 45bc 1af8 b7bd 0670 2ebe 87db 74bd
00000210: b9d1 25bc 5733 3bbd e276 bc3d 753c 9ebd
00000220: 6a71 87bd a1f3 293c 5558 42be cb52 bebe
00000230: 8c76 81be 9a8b f4bd 0882 49bd d6e3 d73b
00000240: 351f 053c 4eb4 54bd 3667 0dbd c397 6cbd
00000250: 58d5 efbc f650 38bd 4665 813d f681 913d
00000260: 17a5 9cbd 8c0f a9bd d3a7 58bc 8d52 203c
00000270: 9c64 903b 68db 64bc b25e 82bd df61 11bd
00000280: 0563 4abd ba70 38bd d6a3 e13c b1fe 6a3d
00000290: fc87 b23d 4a59 4b3d 7f77 b03d a7de 423c
000002a0: fbd7 ad3d 063e 263d 745f 5d3d 51d8 1b3d
000002b0: e5c5 4a3c e27c 0b3d 26ac 7c3d e716 2a3c
000002c0: 4799 c83c cd36 423d a20d d63c 0a51 533d
000002d0: ca99 993c ed2e a63d e963 b23d fc8c 353d
000002e0: e66f ff3c ca0f a73c a679 f9bc a800 c53d
000002f0: e2e0 a83d b4c1 083d 88c9 2b3d d14b 663d
00000300: 1ebc fc3c d1de 89bb de7f fa3b 9c4d debd
00000310: 0083 4c3c c37a 143d 977c 443a 07eb b23d
00000320: 5985 023d 0e90 123d b7d1 b3bc a6eb 24bd
00000330: d753 1fbd 5d67 88bd 487a 663d 89d2 d03d
00000340: 2ff2 723d 687a 063d a31c 8cbd 335b b0bd
00000350: de7d c5bd 3268 adbd 9091 7a3a ea2a 963d
00000360: ddd0 823d 712a 983d a931 a63d e6c2 a1bd
00000370: f1f4 27be e3f6 81bd fc4b 3fbd 5c77 c03c
00000380: 5c16 ae3d 71cf 883c e539 d53d b7a1 1b3d
00000390: d94b 8d3d a671 0d3c 2e74 08bc 2aac a33c
000003a0: f9da 993d e614 bc3c 4867 553d f400 983a
000003b0: 84d6 243d d798 3d3d a24c 133d abc7 c63d
000003c0: a0c7 b13d 1ed5 c6ba 8816 de3c 7565 ef3c
000003d0: 0bf2 f43b aec6 c43b 58d7 8cbb 1e93 873a
000003e0: a64a 813d 77ef 8f3d d3f4 493d d6c1 9e3d
000003f0: dad1 463d 5a1d ffbc 57a0 80ba 8c07 6f3c
-0.009784305 0.051043734 0.036472876 0.05091605 0.041641444 0.010075611 -0.008613115 0.028868046
0.047729738 0.046428323 -0.01247608 0.050570145 -0.012448974 0.09155458 0.06871343 0.061178666
-0.04110582 -0.012641216 0.061377075 -0.056203824 -0.012935004 0.024500601 0.05185686 0.06686868
-0.013099567 0.006620064 0.01045197 0.029254865 -0.028448116 -0.0024340854 0.09481469 0.15146713
0.10570336 0.0953576 -0.024996225 0.055902325 0.0652842 0.0024047985 0.009531722 0.15493214
0.1756529 0.27515686 0.12477642 0.064051114 -0.037988514 -0.009389714 0.09173134 0.0041472167
-0.0441421 -0.06441878 0.027576925 0.02954113 -0.057645462 -0.00053891866 0.0020813122 0.05366868
-0.0041770088 -0.0329475 -0.073583454 -0.1195526 0.007154062 0.06572745 -0.020891206 0.012189934
0.04199279 0.017688032 -0.032263063 -0.007282784 -0.03715713 0.05453908 -0.01764695 0.01693359
0.08910857 0.03944098 0.02382567 0.034748398 0.08072701 -0.010172894 0.033328444 0.08765771
0.041613404 -0.037846886 -0.024147825 -0.062166397 -0.01722125 -0.08446124 0.013584675 -0.06988229
-0.020198446 0.053688552 0.0068134908 -0.066090204 -0.024742851 -0.065780774 -0.041384406 -0.042819146
-0.08322446 0.021796271 -0.052365396 0.004387167 -0.033386614 -0.041677255 -0.08318749 -0.030423347
-0.006716738 -0.093053736 -0.09740279 -0.03839162 -0.054151192 -0.009760532 0.0060438355 -0.00029038056
0.09994135 0.041470665 0.024303151 -0.13409859 0.01360637 0.0027177506 0.05676563 0.016691757
0.048184823 0.20269148 0.21019101 0.03007048 0.045217957 0.0040404666 -0.06023273 -0.015219376
-0.012066027 -0.089828685 -0.17034921 -0.05977967 -0.010120803 -0.04570326 0.092023626 -0.07726375
-0.06613429 0.010373027 -0.18979008 -0.3717254 -0.25285757 -0.119406894 -0.049196273 0.0065884395
0.008125116 -0.051929764 -0.034522258 -0.05776192 -0.029276535 -0.044999085 0.063181445 0.07104866
-0.07648676 -0.082549185 -0.013223606 0.009785307 0.004406525 -0.013968326 -0.06365718 -0.035493728
-0.04941084 -0.04502938 0.027543943 0.0573718 0.08717343 0.0496457 0.08616542 0.011893905
0.08488461 0.040586494 0.05404611 0.038048092 0.012376283 0.034054644 0.06168761 0.010381437
0.02448715 0.047415543 0.026129548 0.051590957 0.01875009 0.08114419 0.087104626 0.044323906
0.031181287 0.020393271 -0.030453514 0.09619266 0.08246018 0.033387855 0.041940242 0.056224648
0.03085142 -0.00420747 0.0076446375 -0.108546466 0.012482405 0.036249887 0.0007495372 0.08736234
0.03186545 0.035781913 -0.021950586 -0.040263794 -0.038898315 -0.0666034 0.05626896 0.101964064
0.059312996 0.03283158 -0.068413995 -0.08611145 -0.09643148 -0.08467139 0.00095584337 0.07332404
0.06387494 0.0742997 0.08114941 -0.07898502 -0.16402031 -0.06345918 -0.046703324 0.023494415
0.085003585 0.016700478 0.10411433 0.03799602 0.068992324 0.008633053 -0.008328481 0.019979555
0.07512469 0.022959184 0.05210045 0.0011596964 0.04024364 0.046288338 0.035961755 0.097060524
0.086806536 -0.0015169715 0.027110353 0.029223183 0.007475143 0.00600513 -0.004298132 0.0010343527
0.06313066 0.07028096 0.04930575 0.07751815 0.048539974 -0.031141926 -0.000981341 0.014589202

in1.weight f4 [32]
00000000: 8c8f 203f 5d55 a53f 93d0 4b3f bb71 7a3f
00000010: 0844 073f 6dac 8f3f aa99 7f3f b6c0 803f
00000020: d90c 5a3f 4b24 893f 40c7 653f 04d2 563f
00000030: 3fe3 533f 67d6 603f ae0c 793f 2027 353f
00000040: 7bee 873f 6fe8 453f bdfc 433f 8ef6 943f
00000050: cd7d 7f3f ee3b 513f c8e5 943f 43a0 3f3f
00000060: dae2 753f c41b 813f 31b9 833f f70d 703f
00000070: 9bea 883f 6200 973f 1c7e 693f d27e 483f
0.62719035 1.2916676 0.79615134 0.9782979 0.5283818 1.1224495 0.9984385 1.0058811
0.85175854 1.0714201 0.89757156 0.8391421 0.82768625 0.8782715 0.9728497 0.70762825
1.0619653 0.7730779 0.76557523 1.1637743 0.9980133 0.8173207 1.1632624 0.74853915
0.96049273 1.0086598 1.0290891 0.9377131 1.0696596 1.1796992 0.9120805 0.7831851

in1.bias f4 [32]
00000000: f2f9 b43e 30e4 ffbd 972e 57bd 0c1f 3f3d
00000010: f9d2 0040 26df 143e 6fe1 763e 5c09 203f
00000020: b5c0 4b3d 1a3c 543e b4c0 1f3f 4de1 f1bc
00000030: d962 143f 2de4 1b3f 5221 5a3e 18de 08bc
00000040: 0498 373c 8def a53e 077a 333b 2443 b2bd
00000050: a007 c6be 3e74 94be cd31 de3d a494 883e
00000060: 143a 983e 6de2 143e 797a 78be 7895 04bd
00000070: 971c a23c 0e81 ec3d d446 b53e 9b9c 093d
0.35346943 -0.12494695 -0.052534666 0.046660468 2.0128767 0.1453825 0.24109434 0.6251428
0.049744327 0.20726052 0.62403417 -0.029526377 0.5796333 0.60895044 0.21301773 -0.0083537325
0.011205677 0.32409325 0.0027385966 -0.08704212 -0.38677692 -0.28994936 0.108493425 0.26675904
0.2973181 0.145395 -0.2426547 -0.032369107 0.019789023 0.11548053 0.354056 0.033596616

conv2.conv1.weight f4 [32, 32, 1, 1]
00000000: 276f 3cbe d2c9 f9bc 03c6 8fbd e10b 6bbd
00000010: d0a2 d23d 1547 d33d 3178 833d e048 493c
00000020: 7f11 753e 554c e3bd bd71 d23c 6874 1dbe
00000030: 7e7c a2bd 3b35 383e eb5f 7d3e 8106 1dbe
00000040: 966b 15be 1ac3 823e 8476 ffbd 5c53 eb3d
00000050: 1f79 e63d 9f99 02be ddec 64bd 8d37 343e
00000060: ab18 59be 4902 b1bd e04f e53d fd21 8e3e
00000070: 712e e93d d83e 3cbd 714a 193e e8f6 033e
00000080: 283f a63d 358d 9abe 0afa 063e 48bb 94bc
00000090: 5d12 1e3d 0c95 d53d 8592 d03b 7f2b bf3d
000000a0: add9 8d3c 1de0 1bbd be7a 2f3e 8fd5 38bd
000000b0: 1c91 6bbc 7330 60be b357 bc3c 4b89 b6bd
000000c0: 6af2 f3bb 76bb cd3b 103d 0c3c 0154 c6be
000000d0: 3a40 263e 367d cdbd 40b5 cf3e 267f 7c3d
000000e0: c882 a43d 9359 993b b8f0 94bd 9e1d 9ebd
000000f0: 91b8 113e 34c1 663e a9c2 42be 87c9 313b
00000100: d454 cbbd 04fb 5f3e d4fe 3cbe 6028 47bd
00000110: 9414 bdbd fc33 e6bc b758 7c3d 6c63 3d3d
00000120: fcaf 9b3d a4fb 33be 0961 99bc 2358 c73d
00000130: 6271 d2bd 6826 063e 2d28 223e c9d9 99bd
00000140: 2076 35be c516 2fbe ba1b efbd 42d1 32be
00000150: a872 a93e eed6 823d 843c 313d 8ddd 293e
00000160: a1b0 22be 1d81 203e 77f8 a1bd 7f77 cf3d
00000170: cecf e33b 04a3 26bd cb32 1d3e 4651 2d3e
00000180: 42b6 5dbd 2c33 a8be ed2f 393e 5f72 5d3e
00000190: 2640 c1bd 674a 7a3e 993d 5abe 2b0a 0a3e
000001a0: 3001 fdbc e467 943c 5905 05be f911 efbd
000001b0: 736c 8f3d 49f3 b13d d332 85bd b30e 0a3d
000001c0: a627 1e3e 9067 db3d c2da 23bd 8889 11bd
000001d0: 841f 9cbe ecb1 b5be 773b afbd be46 913d
000001e0: dd36 6c3d 88b5 98bc ec5b bbbb bff7 6c3d
000001f0: de8d 69be 5906 43bd ba88 843d 1ec5 24be
00000200: b923 d53d 7ad1 ed3d 2be6 683d 6fa0 103e
00000210: ef9e 5bbd 3783 b73d 51db 1b3d c8c7 5b3d
00000220: b02e 063e 183f cc3e cf84 223c 3ecf 883c
00000230: d719 b93d 03a5 d63d e884 d43e 83bf 973d
00000240: 1807 0dbe ef8a a8bd 5e3c ff3d 4c40 593e
00000250: e79f 783d bb9b c13c ba08 13bc d1dd 473e
00000260: c6e2 0d3e 1540 87bb d0f1 343e b82e c5bd
00000270: 30b2 c23d 3052 8c3e e20d 0a3e 35a7 a73a
00000280: e59d 77bd 4d06 0dbe 7496 7d3d cda8 d1be
00000290: 48a3 963e c001 443c 9989 aa3b 1ccf 963e
000002a0: 5652 613d 2073 0fba fde8 e6bd 9bde 17bd
000002b0: 5028 bbbd d79d b4bd 4626 50bd b7f5 42be
000002c0: 4ed8 a2bc 96f8 83bc 2333 d73b 5f73 063e
000002d0: 10ab af3d c0cc e6bd f679 fbbd ac1a b93d
000002e0: 1807 a5bd d5c6 14bc 28df eabd 7bd2 143e
000002f0: ee9d 723e 4ff0 a7bd 1747 d5bd ae3f 4a3e
00000300: cc85 3cbd e4fc 88be 2763 c63d 11ae 5e3d
00000310: 133a f3bc ee96 d7bd f282 85bd a3f0 aebd
00000320: ef34 fd3d 2f2c c0ba 8ccf e1bd 4bfd cf3d
00000330: 3e54 4e3d bc57 a23d 09c6 24be dcb4 7d3e
00000340: 8525 453e b5f4 f83c 3fb1 11bd ea71 92be
00000350: 3f9f 7d3e 764b 983b 1780 bd3e e600 6dbc
00000360: 8512 adbd a43f 483e 7fb9 203e a5e4 1b3d
00000370: 0b33 4fbe 5288 833e 12d5 18be af18 e5bd
00000380: 4e28 9e3b a4cd d33e cc3c 24bd 7541 8cbd
00000390: dbb2 83bd bfd0 833e d981 923d e270 a93e
000003a0: 4756 4bbe bb71 c7bc 8dad bb3d fc23 8b3d
000003b0: 5ba9 0ebe b1d2 35be 54fc 8a3c b4dc 053c
000003c0: 2102 0dbd 04a2 d6ba 97ac 4b3d f8ee 79bc
000003d0: 7910 29be b1df 5abd 9693 153c 0161 093c
000003e0: 0286 033d f94d 89bd fd37 0fbe 13cc 56bb
000003f0: 48a6 263d da89 95be cc38 d73d d9d1 64bb
-0.18401776 -0.030491743 -0.070201896 -0.057384375 0.1028496 0.10316292 0.06419409 0.012285441
0.23932455 -0.110985436 0.025689 -0.15376437 -0.07933901 0.17989056 0.24743621 -0.15334512
-0.14591822 0.25539476 -0.12473777 0.11490509 0.11253571 -0.12753914 -0.055889953 0.17599316
-0.21200816 -0.08643014 0.111968756 0.27760306 0.11385811 -0.04595837 0.14969803 0.12887156
0.08117515 -0.30185857 0.1318132 -0.018155709 0.03859173 0.10428819 0.0063651227 0.09334468
0.01731571 -0.038055528 0.17136666 -0.04512554 -0.0143778585 -0.21893482 0.022991037 -0.08912905
-0.0074446695 0.0062784506 0.00855948 -0.38735965 0.16235438 -0.10033648 0.4056797 0.061644696
0.08032757 0.0046798675 -0.07272476 -0.07720493 0.14230563 0.22534639 -0.1901957 0.0027128176
-0.09928289 0.21873099 -0.18456584 -0.04862249 -0.092324406 -0.02810096 0.061608043 0.046237394
0.07601926 -0.17576462 -0.018723028 0.097336076 -0.10275532 0.13100588 0.15835638 -0.07512242
-0.17720842 -0.1709853 -0.1167521 -0.17462638 0.33095288 0.06388651 0.043270603 0.16588421
-0.15887691 0.15674253 -0.07908719 0.10130214 0.0069522625 -0.040682808 0.15351407 0.16925535
-0.054128893 -0.3285154 0.18084688 0.2162566 -0.094360635 0.24442445 -0.2131256 0.13480441
-0.030884355 0.018115945 -0.12990321 -0.1167335 0.07003107 0.08688981 -0.065038346 0.033705425
0.15444812 0.10713112 -0.040003546 -0.03553155 -0.30492795 -0.35487306 -0.08556264 0.07093571
0.05766951 -0.018641248 -0.005717745 0.057853457 -0.22808024 -0.047613475 0.06471391 -0.16090819
0.10407204 0.1161222 0.05686013 0.141237 -0.053618368 0.08960574 0.038050953 0.053657323
0.13103747 0.39891887 0.009919359 0.016700383 0.09038132 0.10480692 0.4150765 0.07409575
-0.13772237 -0.082296245 0.12462686 0.21215934 0.06069937 0.023633828 -0.008974249 0.1951821
0.13856038 -0.004127512 0.17670369 -0.096280515 0.09506643 0.27406454 0.13481858 0.001279092
-0.060453314 -0.13771935 0.06191106 -0.40949097 0.2942145 0.011963308 0.005204391 0.29454887
0.055010162 -0.0005472172 -0.11274908 -0.037077527 -0.091385484 -0.08819168 -0.05081775 -0.19039045
-0.019878533 -0.016109746 0.0065673753 0.13129948 0.085775495 -0.11269522 -0.122791216 0.090382904
-0.08057994 -0.009080608 -0.11468345 0.14533417 0.23693058 -0.08200132 -0.1041395 0.19750854
-0.046026036 -0.2675544 0.096868806 0.05436522 -0.029690778 -0.105268344 -0.065191165 -0.085419916
0.12363612 -0.0014661605 -0.110259145 0.10155734 0.05037331 0.0792689 -0.1609117 0.24776024
0.19252594 0.030390123 -0.035569426 -0.28602535 0.24767779 0.0046476675 0.37011787 -0.014465546
-0.08450798 0.19555527 0.15695761 0.03805985 -0.20234315 0.25689942 -0.1492503 -0.11186349
0.004826582 0.4136783 -0.040097043 -0.068484224 -0.06430598 0.25745198 0.07153673 0.33093935
-0.19857131 -0.024346223 0.091639616 0.06793973 -0.13931791 -0.17756154 0.016966023 0.0081702955
-0.03442586 -0.0016375189 0.04972514 -0.0152547285 -0.1651019 -0.053435985 0.0091294255 0.008384944
0.03211022 -0.06704325 -0.13986202 -0.0032775446 0.040685922 -0.29206735 0.1050888 -0.0034915118

conv2.in1.weight f4 [32]
00000000: 51e3 f93e 72fa 1e3d ec63 6e3f 3e87 ff3e
00000010: 9575 253f 0e29 2b3d 3988 1a3d 7462 b73d
00000020: 9cab f83e 853c 153f 2024 7d3d 658a 1f3f
00000030: 2227 023f 0be2 c63e 8afc 6c3f 4b31 303d
00000040: db75 753f cb0f 8f3c d940 553f c94d 883f
00000050: e936 9b3d cbef 143f 51a8 123f c467 343d
00000060: 2587 433f debc f63d 60ca 773f 58fa 883e
00000070: 7cef a93d dc8b 6e3f d5dc 4e3e 7d9f ef3c
0.4880624 0.038813062 0.9312122 0.4990787 0.6463254 0.0417872 0.03772757 0.08954325
0.48568428 0.5829547 0.06180203 0.6232055 0.5084096 0.38844332 0.92572844 0.04301576
0.9588296 0.017463585 0.83302075 1.0648738 0.07578833 0.58178395 0.5728808 0.04404427
0.7637809 0.12047742 0.96793175 0.26753497 0.08297631 0.9318216 0.20201428 0.029250855

conv2.in1.bias f4 [32]
00000000: 44b8 ed3e 7fdc 023f 5ce9 d23d 9a6a 833e
00000010: c5d7 d1be 773d 173f a32e 1f3f 5da5 073f
00000020: 372f e63e 6804 bb3e 8a89 573f a87a b83e
00000030: 3b63 f13e 52c8 f23e 9309 753d 536a cc3e
00000040: 5805 013e d140 cd3e edc5 783e da07 37bd
00000050: 25a9 223f a6b1 943e f5b6 7e3e 4bec d63e
00000060: 536b 923e 2872 133f 2beb 083e 9e1c 263f
00000070: b1e8 1b3f f235 883c bbcd f73e 0cd2 093f
0.46429646 0.511177 0.10298416 0.25667268 -0.40984932 0.5907816 0.62180537 0.529867
0.44957897 0.365268 0.8419424 0.3603108 0.4714602 0.47418457 0.059823584 0.3992487
0.12599695 0.40088513 0.24294253 -0.044685222 0.63539344 0.29041785 0.2487448 0.41977152
0.28597507 0.57596064 0.1337096 0.64887416 0.60901934 0.016627286 0.48399147 0.5383613

conv2.conv2.weight f4 [32, 1, 3, 3]
00000000: dad4 2f3e 38d3 a63e bf7a 0dbe da57 43be
00000010: ba30 973e 86f1 6bbe 8d7a 85be a736 0abe
00000020: da55 7cbe bb24 f7bc 5cc3 c3bd 9ad0 c6bd
00000030: 5e6c ea3c ce13 773e e4a8 a03e 7b97 853d
00000040: 8022 1b3e 4d13 1c3f 13a0 153e d522 08be
00000050: c519 e6bd 6b8c d5bd 2b35 ecbe 8089 f2bd
00000060: 8b5e b73c b1c6 1bbf e4bf 393e ee74 1c3c
00000070: c4e7 a63d fb75 3e3e 76fe 143d 4534 69be
00000080: b978 8fbe 964c 6a3e c052 f5be 0a3f f1be
00000090: 17a0 423e 3548 3b3e 8394 a7be e0bb 7f3e
000000a0: f3e0 cd3c a871 d1be 8fda 95be f329 85be
000000b0: b6c1 f4bd 3113 a13e fa04 e03c 1dd9 63bd
000000c0: f9c2 5dbc cb42 babe 82c5 2dbe 0183 7dbe
000000d0: c895 6bbe 56fc 853e ec62 403d f6ba 09be
000000e0: 66af aabb 0c0f 75be e27b a43c 317c f23d
000000f0: d5cf 05be 94bd 283f 8ef1 ebbc 6728 2abe
00000100: 35a6 fcbd 917d b6bc 9410 583e d654 d73e
00000110: 7437 a3bd c12a aa3b 7e7c bf3e 5a25 cbbc
00000120: 1181 263e 61e7 603e c0b8 e33d 3499 ddbd
00000130: f5e5 7b3e d2d8 ae3d 9fe2 e7bc 040b 313e
00000140: 1f55 b13e 0d2b 283e e346 ae3c 7205 00bd
00000150: 3bb5 6fbe 3cc7 7cbe 79d9 a23d 260b cfbd
00000160: f39a a2be 3eac d73d 6365 433d 9bd7 fdbd
00000170: 84da 4fbe 47f9 94bd 9b42 663e 4cbd 793e
00000180: 0144 64be 29c2 dd3e 7fd8 153f 79c0 03be
00000190: 74d1 0abe ce54 9dbd 8c06 6c3d f75f e23e
000001a0: 9a38 113f fd0d 183e 1849 be3d abfa ba3d
000001b0: f3d4 2c3d 76c7 9c3e 56a5 6e3e c48c 363d
000001c0: 8757 353e ddf1 4c3e eb90 e53d 4c9b d9be
000001d0: 0cbc f13d 0594 aebd 5d88 cf3d 676a 7b3e
000001e0: 51a3 94be 9eb4 9fbd 5e58 dd3e 87f7 94bd
000001f0: a710 89be 9cc2 7b3e ea1e b43c 4c15 043e
00000200: ba3f fcbd 0d7a b6bc b515 febe aa47 e8bd
00000210: 0142 253e fb28 95be 4d17 5d3e 431c 6c3d
00000220: 2d2c 4abe c560 9d3c e44a 763e e7b1 83be
00000230: 5832 4ebe 3e68 0f3e 3f53 853e f78f 5abe
00000240: 2646 5e3e 2f79 35be 6d45 083e a6c5 32bd
00000250: 33e8 d7be 4221 11be 0482 4f3b 8642 f6be
00000260: 0635 67be ef37 a1bd d337 03be f35e 873d
00000270: 1b31 c13e 4b60 d13e 418f b4bd 5362 9bbe
00000280: 2173 a7be 22d6 113e 622b e83d 5089 e23c
00000290: ec34 173d 93aa 09be a96c c4be 90a4 973c
000002a0: 86f1 51bd bf02 86be a312 0d3e 7da7 e3be
000002b0: f83d d2bd 4a97 ecbc 09ca 45be f5d6 843d
000002c0: 41b1 49bd f441 a1be 326b 3d3b 844a 8cbe
000002d0: 18ee e6bd e04c 68bc 4201 a3bb e43c 433c
000002e0: af3f 063f c9c0 ea3d 73db 9ebd 3afc 213d
000002f0: 3a70 b9bd 30b6 c03d f8e2 283e 6cd2 b23d
00000300: d4bf f1bd 1bbe c53c cd6d 9e3d eadc 0bbf
00000310: da53 f1be 51ac 9ebd f15b 89bd 004e b2bc
00000320: 34fa c4bd fffa 23be ff0c 00bf 039c 0fbf
00000330: 80e3 1dbc e545 9a3d 6019 7cbc 787b 633e
00000340: 5854 98bc 6403 4abd 130b 2c3e 47b5 20bf
00000350: 4502 4dbc 6dfa 8b3d bc7d 09bf 6c39 463e
00000360: a478 da3d 5e60 34bd cc63 1e3e 12b3 2dbe
00000370: e6e4 a9be 9f77 2bbe 6bac ce3d d6e3 abbe
00000380: cd48 e2be 247d 9d3e 4be2 8ebe eb6a edbc
00000390: 5578 08ba 97b9 a7bd 04f1 d3bd 4849 96be
000003a0: 5041 933e 6dc4 833e d596 64bd ed43 88bd
000003b0: b83a 0e3d 26d0 86be 401b 58bd 065a aebe
000003c0: 70bd 74be 28bd 2fbe e3b9 e53b 8fc5 a5be
000003d0: ad8f 6fbd 1e0c b8be 1eae 0f3e 6864 953e
000003e0: 615c 9c3d 6102 b5be fcf2 933d d246 89be
000003f0: 17f6 5c3e 4174 123e 60b8 f63c 336c e23d
0.1717104 0.32583022 -0.13816355 -0.19076481 0.29529363 -0.23041353 -0.2607006 -0.1349741
-0.24642125 -0.030168882 -0.09558746 -0.09707756 0.028616127 0.24128649 0.31378853 0.06523033
0.1514988 0.6096695 0.14611845 -0.13294537 -0.11235384 -0.10427173 -0.46134314 -0.11842632
0.022383949 -0.60850054 0.18139607 0.009549363 0.081496745 0.18599693 0.036375485 -0.22773845
-0.28021792 0.22880778 -0.47914696 -0.47118407 0.19006382 0.18289264 -0.32730493 0.24974012
0.025131678 -0.40907025 -0.2926831 -0.26008567 -0.1195101 0.31459954 0.027346123 -0.055626977
-0.013535255 -0.36379084 -0.16969875 -0.24757005 -0.23006356 0.2616908 0.04696934 -0.13450226
-0.0052088974 -0.23931521 0.020078603 0.11840094 -0.13067563 0.65914273 -0.028801706 -0.16616975
-0.12336389 -0.022276672 0.21100074 0.42056912 -0.07969561 0.005193085 0.37399668 -0.024798084
0.16260172 0.21963264 0.11119223 -0.10820237 0.2459944 0.08537449 -0.028306304 0.17289358
0.34635255 0.16422673 0.021274036 -0.031255193 -0.23408978 -0.24685377 0.07951636 -0.10109548
-0.31758842 0.105308995 0.04770411 -0.12394639 -0.20298201 -0.072741084 0.22486345 0.24388617
-0.22291566 0.43312195 0.5853347 -0.12866391 -0.13556463 -0.07682191 0.05762343 0.4421384
0.5672699 0.14849086 0.09291285 0.09129842 0.04219527 0.30620927 0.23305258 0.04456784
0.1770917 0.20014139 0.112092815 -0.42501295 0.11803445 -0.08524326 0.10133431 0.24552308
-0.2903085 -0.07798122 0.4323148 -0.072737746 -0.26770517 0.24585956 0.021987397 0.12898749
-0.123168424 -0.022274995 -0.49625936 -0.11341794 0.1613846 -0.29132828 0.2159092 0.05764414
-0.19743414 0.019211182 0.24052006 -0.25721666 -0.20136392 0.14004609 0.26040074 -0.2134398
0.21706447 -0.17722009 0.13307734 -0.043645523 -0.4216934 -0.14172843 0.0031663189 -0.48097628
-0.2257882 -0.078719966 -0.12814264 0.06609907 0.37732777 0.40893778 -0.08816386 -0.30348453
-0.32705024 0.14241841 0.113363996 0.027653366 0.036915705 -0.13443975 -0.3836415 0.018511087
-0.051255725 -0.2617397 0.1377664 -0.4446372 -0.10265726 -0.028880734 -0.19315352 0.06486312
-0.049241308 -0.3149563 0.0028903005 -0.274006 -0.112758815 -0.014178485 -0.004974515 0.011916373
0.52440923 0.11462552 -0.077567 0.039547183 -0.09054609 0.094097495 0.16492832 0.08731541
-0.118041664 0.0241385 0.077357866 -0.54633963 -0.47134286 -0.077477105 -0.067069896 -0.021765709
-0.09618035 -0.16013716 -0.5001983 -0.5609743 -0.00963676 0.075328626 -0.015386909 0.22215068
-0.018594906 -0.04931964 0.168011 -0.6277661 -0.012512748 0.06834874 -0.5370748 0.19357842
0.106675416 -0.044037215 0.15467757 -0.16962841 -0.33182448 -0.1674485 0.1009148 -0.33572263
-0.44196168 0.30759537 -0.27907023 -0.028981647 -0.0005205919 -0.08189695 -0.103487045 -0.29352784
0.28760767 0.25735798 -0.055807907 -0.06653581 0.034723967 -0.2633068 -0.052760363 -0.34053057
-0.2390039 -0.17162001 0.007010685 -0.32377288 -0.05848663 -0.35946745 0.14031264 0.29178166
0.076348074 -0.35353377 0.0722408 -0.26811844 0.21578251 0.1430216 0.030117214 0.110557936

conv2.in2.weight f4 [32]
00000000: db40 cd3e 819a fc3e 5364 f53e 6eb2 053f
00000010: 87a1 303f 70bd 213f d1b8 f43e 3938 183f
00000020: 6288 4f3f 40d6 073f 1ba6 133f 7981 033f
00000030: a507 433f 2e54 133f 19a1 d63e 2fb8 0f3f
00000040: a494 2b3f 852c 123f 076b 2c3f 3257 3a3f
00000050: 8a96 0d3f 7c14 403f ea08 3d3f c75b 1b3f
00000060: 685b 303f 8232 0f3f a73c 2d3f 842a 563f
00000070: 0769 533f e109 263f 6fce 1b3f 7692 223f
0.40088543 0.49336627 0.47928104 0.5222539 0.6899647 0.63179684 0.47797254 0.5946079
0.8106748 0.53061295 0.5767533 0.51369435 0.7618354 0.57550323 0.41919783 0.56140417
0.6702368 0.5709918 0.6735081 0.727893 0.5530783 0.75031257 0.73841727 0.60686916
0.68889475 0.55936444 0.67670673 0.83658624 0.82582134 0.64858824 0.6086187 0.6350473

conv2.in2.bias f4 [32]
00000000: 4ee9 fb3e a8dc 2540 e9e1 20bd 6f6c 2d3f
00000010: 6057 f13d 9a2f 2d3f 041b d03f 1815 2340
00000020: 4ec0 1d3f e505 1c3f 5b76 3440 5822 d73e
00000030: 420a be3d cf4f d13e 8499 9b3d fc43 0940
00000040: 119d 593e f1b7 d93f 79a1 203e a285 7fbd
00000050: 5c3e c53f 747e 083f 99de ae3e d936 0f3f
00000060: 1845 093e 4214 9f3c 54c7 5d3c 502f 743f
00000070: 6e03 9b3e eec0 563e 4ea9 863f abee e23e
0.49201435 2.5915928 -0.039277945 0.6774358 0.117842436 0.6765076 1.6258245 2.5481625
0.6162156 0.60946494 2.8197238 0.4201839 0.092793 0.40881202 0.0759764 2.1447744
0.21251322 1.700926 0.15686597 -0.0623833 1.5409656 0.5331795 0.34154204 0.55943066
0.13405263 0.01941884 0.013536293 0.95384693 0.30276054 0.20972034 1.0520418 0.44322714

conv2.conv3.weight f4 [64, 32, 1, 1]
00000000: 44ba 0c3e f34b 033e a959 203b d5ea ef3d
00000010: c03a fabd d152 c13d 57f8 003e 30be 0bbe
00000020: 0bc9 393d 1ab4 cd3d 7609 b7be 62db 0f3d
00000030: 4cca 7ebd 2289 0abe 4cb6 1fbc 677a 673d
00000040: 6b3b 003e 1453 ac3e 3526 603c 2954 383e
00000050: b705 06be 1418 acbe a012 513d a714 daba
00000060: c676 06bd 3afe 953a 2916 c0bd fe42 383d
00000070: 7d8b 53bd c38e 8a3d 0893 efbd 0d4e 633e
00000080: 2346 bfbd e10e 373e 52bf 0f3c 5c4d 87bd
00000090: d44c 47be 2784 55be cd52 1bbe 56bc c13e
000000a0: 5677 39be ddad febc 97e2 8b3d 3f79 9f3d
000000b0: 75fe 8f3c 3b42 423e e12e 9cbc f064 a0bd
000000c0: a51a 16be 52d2 4cbe 74d6 2c3d 17ce 31be
000000d0: 742a 02bd 5507 ec3d b8ed a33d 0cb4 493d
000000e0: c464 fe3d 07b7 4f3c f59a 99bd 553d 4d3e
000000f0: dcc3 dfbd 845f c93d b967 8abd c466 433d
00000100: bcbe 2abd d2bf cc3c fc15 bbbd aaf7 08bc
00000110: 7948 cfbd f8d4 a13e 910c 993e de0e a3be
00000120: f82c 543d 7364 f23c 5201 debd 8689 eebd
00000130: c9c9 ae3d 2aeb 16bd 161e 9dbc 7297 46bd
00000140: b202 003e 911f d73b 5fcc 7b3c 4e1d cd3c
00000150: 6a1c 2f3e 8dd2 303e 9ed2 2abe 8a7f 40be
00000160: 309f a5bc dbbd de3d f6ea f83d 36eb 453d
00000170: 2e89 67be e06c 853c 98e8 263e a4a3 793e
00000180: 4536 153d 4973 23be 867c 9bbb 09c5 a6bd
00000190: 1c59 953d b9fd d23d 7002 e33b 5354 7abe
000001a0: a16a ad3d e311 423d 805a 6a3e c3df a9bc
000001b0: 870f 413e 7a6a 4b3d c2a1 debd 74f4 87be
000001c0: 5783 573d af93 abbe edda 83bc 93fa 4c3d
000001d0: 2504 d3bd c771 e83d 77fa 0d3e ccc8 f3bd
000001e0: a69f 4abe 8010 02bd f470 123e 1b30 00be
000001f0: deb7 043d 10c9 b83c c2f8 b3bd 9bd9 263e
00000200: 2420 e5bd 1874 a0be 568e c1bd a19b bf3d
00000210: f090 a5bd 0f26 803c 19a5 2abd 6d9c 0d3e
00000220: cc83 933d 7358 3fbd 85fa 533e cd8b 67bd
00000230: 6530 8b3e 6777 713e e31f e9bc 5fc3 97be
00000240: 967c 773c 075a c13d 308a 14be d715 d53a
00000250: f438 e13c 1e0e 38bd 4a3d fabd e4e4 0d3e
00000260: 2c62 e0bd f2e7 b93c 3ba3 083e 5b49 853e
00000270: 6d2e dc3b 77a7 19bd 34da 043e 4b0a 2cbc
00000280: c113 3b3e 7f93 d13d 9b89 ec3d 3911 e5bd
00000290: 140a 173e e901 4abe 42dc bebd edbc 3f3e
000002a0: d55a 403e abf4 dd3c fbb9 9a3e f3d9 32bb
000002b0: 3463 c8bd 0a68 4a3e ebb5 b9bc 7461 bfbe
000002c0: b3e5 42be 7c00 a13c 187d bdbc 3621 81bc
000002d0: c5a1 873a 3efe 98bd 3a81 3d3d 121d 2f3e
000002e0: 87a9 f0bd 8dda d43d cde4 e23d 573d 24bd
000002f0: 4451 77bd a8f8 84bc e2ef 903d f0b6 c0bd
00000300: 1b80 be3d dd28 dd3e 88fa fd3c 5db1 123e
00000310: 9147 a0bd 9fb2 b03e 55f7 d9bc 68e5 b93d
00000320: d053 9f3d bf7e f0bd dc6a a1bd f150 a7bd
00000330: 6c6e 19be 9f62 913d 91e2 dbbd 0ff4 80be
00000340: ae71 c5bd 2ce8 a5bd a97b cc3c ad52 603d
00000350: 0ac6 4b3e 4d2d 9c3d 353f b53d 3ee2 b93a
00000360: cb1c 1c3e 02e3 d63c ced7 f8bd 1397 13be
00000370: 6213 2bbe 9623 fdbd 80d9 173e 46bf 80bc
00000380: a74f a0bd cc0e 0ebe afbe 59bd b06f b53c
00000390: f33c 0f3e e9d6 323d 868e 8cbe 3a72 5a3d
000003a0: 3ae7 cfbd 55af 9e3d a631 0d3e 4b75 813d
000003b0: 9dcf b9be cb4a 7d3e 3f4f bebc ed97 71be
000003c0: 462c 9b3d 4458 933e 20a1 81bd 9d25 033e
000003d0: 5c37 8e3e e116 e6bd 6b6b 833c 7d60 0abd
000003e0: b383 bc3b 8de5 c9bd 2dbc df3d bf88 c7bd
000003f0: 5394 5abc 1d4e 313d 0d28 2abd fd5d 1a3d
0.1374293 0.12821941 0.0024467504 0.117147125 -0.12218237 0.09439624 0.12594734 -0.1364677
0.045357745 0.10044117 -0.35749406 0.03512133 -0.062204644 -0.13528875 -0.009748053 0.056513216
0.12522666 0.33657134 0.013680984 0.18000855 -0.13088118 -0.3361212 0.051043153 -0.0016638235
-0.032828115 0.0011443563 -0.09379227 0.044985764 -0.0516467 0.06765511 -0.11697966 0.22197743
-0.093395494 0.1787677 0.008773642 -0.06606552 -0.19462901 -0.20851193 -0.15168305 0.37839
-0.1811193 -0.031088764 0.06830328 0.07786798 0.01757739 0.18970577 -0.019065322 -0.07831752
-0.14658602 -0.20002106 0.042196706 -0.17363773 -0.031778768 0.11524836 0.08004326 0.04924397
0.12421563 0.012677914 -0.07500259 0.20042928 -0.10926029 0.09832671 -0.06758065 0.047705427
-0.041685805 0.02499381 -0.091350526 -0.008359829 -0.10121245 0.31607795 0.298924 -0.3184728
0.051800698 0.029588914 -0.108400956 -0.11647324 0.08534581 -0.036845364 -0.019179385 -0.048484273
0.12501028 0.0065650423 0.01536855 0.025038388 0.17100683 0.17267819 -0.16681907 -0.18798652
-0.020217508 0.10876056 0.1215419 0.048320018 -0.22610924 0.016287267 0.16299665 0.2437883
0.03642871 -0.15961947 -0.004745069 -0.0814305 0.07292387 0.103023 0.006927781 -0.2444623
0.084676035 0.04738034 0.22886086 -0.02073658 0.1885358 0.04966209 -0.108706966 -0.2655369
0.05261549 -0.3351111 -0.016095603 0.050043654 -0.10303525 0.11349826 0.13865076 -0.11903533
-0.19787464 -0.031754017 0.143009 -0.12518351 0.032401912 0.022556812 -0.08787681 0.16293947
-0.11187771 -0.31338573 -0.094509766 0.09355856 -0.08084285 0.015643148 -0.041661356 0.13829203
0.07202873 -0.04671521 0.20701034 -0.05652981 0.2718536 0.23580705 -0.028457588 -0.29641244
0.015105387 0.094409995 -0.1450584 0.0016257119 0.027492978 -0.04493534 -0.12218721 0.13856846
-0.10956225 0.022693608 0.13343517 0.26032528 0.0067194016 -0.037513223 0.12973863 -0.010500501
0.18269254 0.10233211 0.11549684 -0.111849256 0.14749938 -0.19727291 -0.093193546 0.18724413
0.1878465 0.027094206 0.30220017 -0.0027290552 -0.097845465 0.1976625 -0.022669753 -0.37379038
-0.19032936 0.019653551 -0.023130938 -0.015762907 0.0010347894 -0.07470368 0.04626582 0.17100933
-0.11751085 0.10393248 0.110787965 -0.04009756 -0.060380235 -0.01623185 0.07077004 -0.094098926
0.09301778 0.4319524 0.031003252 0.14325471 -0.0782615 0.34511277 -0.026607195 0.09076959
0.07779658 -0.11742925 -0.0788171 -0.08169735 -0.14983529 0.070988886 -0.107365735 -0.25186202
-0.09640823 -0.08100924 0.02496131 0.054766346 0.19899765 0.07625828 0.088499464 0.0014181805
0.15245359 0.026231293 -0.121505365 -0.14413099 -0.16706613 -0.12360303 0.14829063 -0.015716206
-0.078276925 -0.13872832 -0.053160366 0.022147983 0.13988094 0.043661986 -0.27452487 0.05333159
-0.10151525 0.07748286 0.1378847 0.063212 -0.3629121 0.24735563 -0.023231147 -0.23593111
0.07576804 0.2877828 -0.0632956 0.12807317 0.2777661 -0.112348326 0.016042432 -0.033783425
0.0057530045 -0.098582365 0.109245636 -0.09742879 -0.013341027 0.043287385 -0.0415421 0.03768729

conv2.in3.weight f4 [64]
00000000: 9610 633f b2c5 8a3f 67ca 813f 45ab 7d3f
00000010: e74f 5e3f 1ae9 703f 31c9 963f ba04 673f
00000020: 1670 7a3f 6258 6e3f 2722 7e3f d552 883f
00000030: 2b22 833f 769d 893f c00e 883f cc64 7e3f
00000040: 97bf 813f 079f 593f 638c 8f3f a921 783f
00000050: 5b85 833f 56b3 6e3f 79fc 793f e1a8 713f
00000060: 6229 843f 35c6 7e3f 8da7 7c3f 42d0 803f
00000070: 5437 973f f13d 963f e0a6 7b3f 1168 833f
00000080: 39f6 873f 4989 883f f8e1 6e3f 5ed7 813f
00000090: 1853 6a3f 1f27 973f ad12 873f db8c 863f
000000a0: 2148 7f3f 3247 4e3f 654a 853f 52be 5a3f
000000b0: b942 853f e27f 753f e8cc 7d3f ace8 863f
000000c0: af9b 6f3f 8ce3 723f 67e0 6b3f 9cb9 633f
000000d0: 4f7d 843f 9f3a 793f 3c59 8c3f 9baf 6c3f
000000e0: a33a 883f 49d6 743f b3f6 873f e2e0 8c3f
000000f0: 063e 883f a10e 8d3f 1057 773f db94 773f
0.88697183 1.0841582 1.0139893 0.9908946 0.8684067 0.94105685 1.1780149 0.9024159
0.9782728 0.9310361 0.9927086 1.0650278 1.0244802 1.0751178 1.0629501 0.99372554
1.0136594 0.8500828 1.1214718 0.9692636 1.0275072 0.93242395 0.9765087 0.94398314
1.0325129 0.9952119 0.9869316 1.0063555 1.181376 1.1737653 0.98301506 1.0266134
1.0622016 1.0666896 0.9331355 1.014385 0.9153304 1.1808814 1.0552574 1.0511736
0.99719435 0.80577385 1.0413328 0.85446656 1.0410987 0.9589826 0.9914079 1.0539756
0.9359693 0.9487846 0.92139286 0.8895509 1.0350741 0.97355074 1.0964732 0.9245545
1.0642895 0.95639473 1.0622162 1.1006129 1.0643928 1.1020089 0.9661722 0.9671151

conv2.in3.bias f4 [64]
00000000: 379e 693d ae62 a03b 430d 6abc ef35 05bd
00000010: 0e63 75bc 0751 e2bc e226 f3bd 4f52 1bbd
00000020: ec26 21bd 4620 25bd 2b33 20bd ab88 49bd
00000030: 4cff 44bd 7afc 8dbd 9afe dabc a3ed 08bd
00000040: b17f af3d de2a 9b3c 7490 173d b08d 69bd
00000050: a0f6 323d bdcd 97bd 052e 2d3d 509c 073c
00000060: 0384 b5ba 32cd 17be 4576 aabc 54d9 9fbd
00000070: a419 0abe bbc9 cdbc e922 8cba 4189 f6bb
00000080: dc1b d5bd 57ac 683d 1468 70bd 0d22 e63d
00000090: 006d e1bc 0da6 26bd 48bb c2bd eb39 083d
000000a0: 093e 803d 12d7 bbbc f5c6 dc3b f449 80bd
000000b0: 53f8 a3bd 045b babd bd79 963d 511f a5bd
000000c0: 99b9 ffba 3199 ff3b e1c5 6cbd acb5 abbc
000000d0: 6007 363e b5c8 8a3d a446 8abd 2875 983d
000000e0: d98b 9ebd 7e6a 6cbd f039 e9bc f560 093e
000000f0: 0177 063e 612a 1e3c 4e2e aabc 893d b53c
0.05703565 0.004894576 -0.014285388 -0.03252214 -0.01497723 -0.027626527 -0.11872651 -0.037920292
-0.03934376 -0.04031398 -0.039111298 -0.049202602 -0.048095033 -0.06932922 -0.026732732 -0.033429753
0.08569277 0.01894134 0.037002996 -0.05701989 0.04369223 -0.07412288 0.042280216 0.008277014
-0.0013848547 -0.1482437 -0.020808348 -0.07805124 -0.13486344 -0.025120607 -0.0010691556 -0.007523686
-0.104057044 0.05680498 -0.058693007 0.112369634 -0.027517796 -0.040685702 -0.09508377 0.03325836
0.06261832 -0.022929702 0.0067375847 -0.062641054 -0.080063485 -0.09099391 0.073474385 -0.08062614
-0.0019510268 0.0078002443 -0.0578059 -0.020960651 0.17776251 0.06776563 -0.06751755 0.07444221
-0.077415176 -0.057718746 -0.02847001 0.13415892 0.13131334 0.009653659 -0.020774033 0.022124069

conv3.conv1.weight f4 [64, 64, 1, 1]
00000000: 367f 2dbd 6714 383d 2ad3 003e 33fd d9bd
00000010: 7a86 96bd e851 cabb 5258 97bd 106a 87bd
00000020: 99e5 b538 08a3 693e aea7 2cbe e944 183d
00000030: e34e a6bd c625 58b9 6ce3 333e 3b58 2cbe
00000040: 98fe 3dbe f4ad 04bd e096 0c3d e21c 973c
00000050: 45b7 0f3d 0be3 46bd 92fe 943c 7420 80bc
00000060: 163a cdbc ad1d d7bd 3cf7 00be 1f11 483d
00000070: 5703 d5be 7a03 8b3a d1af c9bc 6d8d ec3d
00000080: ddb5 013c c243 48be a840 6bbd 7fcc 93bd
00000090: 52c8 29bd 23ba 61be 89fb 53be 48e0 ae3d
000000a0: 391d 013d a5bd b13d 6c1e 653e 050b 623c
000000b0: 95af f13d a5c9 8cbe 035d 84bd 8da0 23be
000000c0: e9a6 0b3d 6ee5 4cbd 9370 a1bd a60f abbd
000000d0: 135b 093e 71c6 e8bd 2e7e 503c 9aba 9bbd
000000e0: 009e 263e 8f0a 293e 4f3e ca3d 1437 53bd
000000f0: e734 fa3d 9bec f7bd 850d 21be 0549 31bc
00000100: b7b0 ab3d 25db 5abb 60dd 02be 5be2 013e
00000110: b3e9 383e a080 a23d e7fe adbd 4fda d83d
00000120: 8f57 d0bc 3c82 3bbe 0545 533e 1701 553b
00000130: cb78 563c 5eaf a13d 798f e5bd 5dbd 213e
00000140: e3e0 03be b27a dbbd a538 5d3e 4514 44be
00000150: 0689 de3d 61fd 0c3d c542 c53c ca22 60be
00000160: 6ff5 29be e45e 0cbe c92c cc3c a61e 633e
00000170: 5d7f 043d fdec 67bd d757 00be 1c09 4b3c
00000180: 55c7 e63d 2d7e 79be 94d1 d4bd 1cf1 f3bd
00000190: 56e1 943c bd8d ab3c 658b 4abe c661 2ebe
000001a0: c79b c9bd 19db 653d 615f 693e bad9 193e
000001b0: bcba 1939 b912 69bc 1620 113c 1202 153c
000001c0: 8bb0 38be 3127 483e c127 b4bd 4dc2 ac3d
000001d0: aa1a 99bd cb4a 72bd daf1 883e d727 863c
000001e0: 005c a2bc 1cc0 c63d 02e1 6abe 6b4f 13be
000001f0: 36e0 31bd 1fcc 0a3e 274e 383e 5590 ad3d
00000200: 883c 15be f5b2 293e ed37 63be d875 2ebe
00000210: 7a9f 55bd c449 043e 8129 753d 72db 4c3d
00000220: efa7 f13d d7b5 16be a21d 91be 4bf8 b3bd
00000230: aec7 a93d 1c68 63bc 8557 193e 4f0d bf3d
00000240: ea47 49be 8548 e1bd 2dc3 f23c 0565 a1bd
00000250: ad0d 8b3e 041d 1d3d f3d7 be3b b380 f63c
00000260: 418d 133e 0f7c af3d cb76 f8bd 84db 0e3d
00000270: 4f7b c1bc be70 9c3d 4469 71be ebf6 65bd
00000280: c1a9 2fbe e7cb 3b3d 6294 96bd 7021 b03d
00000290: dc9c 543e 9d5b 82be 82d5 a7bd ef86 08be
000002a0: 39e1 133e c091 31be 884b 97bd bdb6 823d
000002b0: bdec e33d 853c 61bd 9804 39bd 7481 403d
000002c0: c6b2 af3b 6e56 003e f860 dc3d 561b 763c
000002d0: ad37 0f3e a3e2 2cbd 8ba2 143e f653 37bc
000002e0: 5d24 db3d bdcc 32be ca5b 883d ea56 8abe
000002f0: d102 48be 4154 27be 83e6 a0bc 1c0f 803d
00000300: 55b8 2c3d 42c5 b8bd 1095 d3bc 7599 70bd
00000310: b1f6 89bd 38fc 6f3e 25cd c13d 382e 173d
00000320: 91d6 c83d 810b e93d 56dc 15bd 7149 123e
00000330: 21b5 ff3d 6371 c43e 18e1 ff3d e252 89bd
00000340: 9a7a 26bd 4672 553d f7ab cfbd d4ec ff3d
00000350: 4048 96bd 89d0 4e3e ceb7 51bd d000 ce3c
00000360: 3add 4e3e 4867 a93d 42e6 573d 999b 453e
00000370: 7817 72bd 4722 233d f035 8a3d 0b84 4fbe
00000380: dfc9 05bc 2086 23be c11a e8bd 267b ffbd
00000390: 07bd 1e3e cfc6 9bbd 2fe0 8c3d 930d 613d
000003a0: 517f bf3d 6f16 60bd bdcd 9a3c 77a6 9abe
000003b0: a28c 723c 0ad1 8abc b7ec a93b 6eb0 eb3d
000003c0: 4f62 ecbc 04e9 e83d b1c6 273d 98d5 debc
000003d0: 5b39 b13d 8a89 7ebd 5740 363e a7ae ad3e
000003e0: 4e95 b13c 192f 67bd a37f 393d 8277 d2bc
000003f0: 8233 95bb 131e 69be 83a6 fe3d 8865 02bc
-0.042357646 0.044941332 0.12580553 -0.10643997 -0.07349868 -0.0061743148 -0.07389893 -0.06612027
8.6735185e-05 0.22816098 -0.1686084 0.037175093 -0.08120515 -0.00020613437 0.17567223 -0.16830532
-0.18554151 -0.032392457 0.034323573 0.01844639 0.03508689 -0.04855637 0.018187795 -0.015640475
-0.025052112 -0.10503707 -0.12594312 0.048844453 -0.4160411 0.0010605894 -0.024619969 0.11550412
0.007916895 -0.19557098 -0.057434708 -0.07216739 -0.041450806 -0.22043662 -0.20701422 0.08538872
0.03152201 0.0867875 0.22374886 0.013796573 0.11801068 -0.27497593 -0.06463053 -0.15979214
0.034094725 -0.05002349 -0.078828 -0.08352594 0.13413648 -0.11365975 0.012725396 -0.07603951
0.1627121 0.16507934 0.09875166 -0.0515662 0.122171216 -0.12105676 -0.15727814 -0.010820632
0.08383315 -0.003339478 -0.1277976 0.12684004 0.18057899 0.079346895 -0.084958844 0.10588514
-0.025432376 -0.18311399 0.20631798 0.003250187 0.013090323 0.07894777 -0.11209006 0.15794893
-0.12878756 -0.10716762 0.2160364 -0.19148357 0.10865979 0.03442133 0.02407969 -0.21888271
-0.16597532 -0.13708073 0.024923699 0.2217966 0.032348026 -0.056622494 -0.12533508 0.012392309
0.11268488 -0.24364538 -0.10391536 -0.11911222 0.018173855 0.02094161 -0.19779737 -0.17029485
-0.09844165 0.05611715 0.2279029 0.15024462 0.00014660781 -0.014225655 0.008857748 0.009094732
-0.18036096 0.195462 -0.08796645 0.084354974 -0.07475789 -0.05915336 0.26747018 0.016376419
-0.01981926 0.09704611 -0.22937396 -0.14385764 -0.043426715 0.13554429 0.17998563 0.08474795
-0.14573872 0.16572173 -0.22189303 -0.17037141 -0.05215404 0.12918764 0.059854034 0.050013967
0.11799609 -0.14717804 -0.2834292 -0.087875925 0.08290039 -0.013879802 0.14974792 0.0932871
-0.1965634 -0.1100016 0.029634083 -0.07880596 0.2715887 0.03835775 0.005824083 0.030090665
0.14409353 0.08568584 -0.12132033 0.034877315 -0.023618368 0.07638691 -0.23575312 -0.056143682
-0.171546 0.045848753 -0.073525205 0.08600128 0.20762962 -0.2546052 -0.0819502 -0.13332723
0.14441384 -0.17340755 -0.07387453 0.06382511 0.111291386 -0.054989357 -0.045170397 0.046998456
0.0053618876 0.1253297 0.10760683 0.015021166 0.13986082 -0.042208325 0.1451513 -0.011189451
0.10700295 -0.17460914 0.066581324 -0.27019435 -0.19532324 -0.16340734 -0.019641167 0.06252882
0.04216798 -0.09021999 -0.025827914 -0.058740098 -0.06736506 0.23436058 0.09462956 0.036909312
0.0980655 0.11379147 -0.03658708 0.14285828 0.124857195 0.38367757 0.12494105 -0.06705262
-0.040644266 0.052110933 -0.101402216 0.12496343 -0.07337999 0.20196737 -0.05120068 0.025146872
0.20201579 0.082716525 0.052709825 0.19297637 -0.059104413 0.03982761 0.06748569 -0.20265214
-0.008165806 -0.15969133 -0.11333228 -0.124746606 0.15501796 -0.07606279 0.06878697 0.054944586
0.093504556 -0.054708894 0.018896932 -0.30205128 0.014804037 -0.01694538 0.0051856893 0.11508261
-0.028855471 0.11372569 0.04096097 -0.027201459 0.08653518 -0.062142886 0.17797981 0.33922312
0.02167764 -0.0564414 0.04528774 -0.025691751 -0.0045532594 -0.22765379 0.12434103 -0.007958777

conv3.in1.weight f4 [64]
00000000: ee3e 013f 7aa0 4b3f a5eb 8a3e aa85 533f
00000010: 962c 993d b57c cc3d a3df 053e c4b8 043d
00000020: 9f17 453f e985 563f 35b4 de3d 290f a53e
00000030: aa63 0d3e 680d 403f 702a c23c d459 bf3d
00000040: d0ff 593f e4fd 143f d107 3b3d 4591 623f
00000050: 9059 003d 8f6a 9d3d a26d a43e afd4 e03c
00000060: 301a 333d 67bd 2f3f 8295 f93c b12c 963e
00000070: 7ec3 313e 266e ea3c 5c81 bd3e 5a8f 3a3e
00000080: 0e20 313f b4c6 ed3e 773a 033d abdc 1a3f
00000090: 0758 0a3d da05 7d3e 12c3 0a3f c47f c83e
000000a0: 1dc0 e63e 1c54 083e e5b6 133d 2eb1 473f
000000b0: 9403 803f f043 993d 8ef3 223e ae42 1d3e
000000c0: 3108 dd3c 3c60 603f ff05 2f3f 37b5 ef3c
000000d0: 53ed 723f 9c54 583d c269 223f 1bba a73c
000000e0: ee18 0b3f 4b01 273e 1318 9d3c 6625 b93c
000000f0: 9607 c53e a091 113f 9ef7 e33d 2705 9d3d
0.5048665 0.7954174 0.27132908 0.8262583 0.07479207 0.099847235 0.13073592 0.03240277
0.7698917 0.8379808 0.108742155 0.3223813 0.1380755 0.75020456 0.023701876 0.09343305
0.85155964 0.58199906 0.04566175 0.88502914 0.031335413 0.0768634 0.32114893 0.027445165
0.043726146 0.6864838 0.030466799 0.29330972 0.1735973 0.028616976 0.37012756 0.18218747
0.69189537 0.4644066 0.03203818 0.6049296 0.033775356 0.24709263 0.54203904 0.39159977
0.45068446 0.13313335 0.036063094 0.7800473 1.0001092 0.07483661 0.15913221 0.15357468
0.026981445 0.8764684 0.68368524 0.029261215 0.9489338 0.052815065 0.63442624 0.020474484
0.54334915 0.16309087 0.019176519 0.02260084 0.3848235 0.5686283 0.111312136 0.07666998

conv3.in1.bias f4 [64]
00000000: 84c0 ef3e 0f4e 393e 05e7 043f 69ab 2b3e
00000010: dffe 353f fb69 5b3f 253d 4a3f cd66 313f
00000020: 4e90 913e 7997 303e e194 453f b1d0 1c3f
00000030: 4656 353f 55dc c33e 2581 ec3e 101c 453f
00000040: 7f63 0d3e 0c97 983e decf 0a3f 4124 193e
00000050: 0ea3 133f 6390 303f 492c f93e 4f0d 0a3f
00000060: 3f69 ff3e ef9f ac3e ef36 c43e 0301 1c3f
00000070: 8485 1c3f 4f4d 143f 1f12 df3d d2b8 393f
00000080: 1bc6 553e 8a3d 543e d3d3 483f 1eff bcbd
00000090: 1ad1 2b3f 2ef3 503f 64f7 233e 843c 083f
000000a0: c7ef bf3e 85bd 423f b651 473f 4eea 6d3e
000000b0: 4b5b 083e 334a 393f 3a0f f83e 8d0a de3e
000000c0: e996 f83e 568d 653e 61f0 973e 699e cf3e
000000d0: edfb 0fbd e041 1e3f 2cd2 b83e 12cf 203f
000000e0: e1d4 283e 55e6 113f 6a04 eb3e 659e 563f
000000f0: 27e2 c93e 803a f23e ceae 403f 51f4 133f
0.46826565 0.18096183 0.5191501 0.16764607 0.7109203 0.8570859 0.7899955 0.69297487
0.28430408 0.17245282 0.77180296 0.6125594 0.7083477 0.38254037 0.4619228 0.76995945
0.13807486 0.2980274 0.5422343 0.14955236 0.57670677 0.68970317 0.486666 0.5392656
0.49884984 0.3371577 0.3832316 0.60939044 0.6114123 0.57930464 0.10892128 0.7254764
0.20876352 0.207266 0.7844822 -0.09228347 0.6711594 0.8162106 0.16012341 0.5321734
0.37487623 0.76070434 0.77859056 0.23233911 0.13316076 0.72378844 0.48449117 0.43367425
0.48552635 0.22417197 0.29675582 0.40550545 -0.035152365 0.6181927 0.36097848 0.62815964
0.16487457 0.56992084 0.45901805 0.8383544 0.39430353 0.47310257 0.7526673 0.5779467

conv3.conv2.weight f4 [64, 1, 3, 3]
00000000: c782 223e 8958 ef3e 9387 3a3e 474f 0abe
00000010: e1a1 c03d 3533 793e 57dc acbd 0509 af3c
00000020: ba1d 3dbd 8051 5cbd 05cb 0d3e d959 583e
00000030: dc70 093e a993 b63e 9b50 4b3e 6481 913e
00000040: 2857 e63d 279e fcbd b02d 3f3c 7de9 95bd
00000050: b1c5 3cbb 2383 593d aff7 c9bd 4835 b23e
00000060: 05ef 723e 8dff 89be 652a 803e 9499 b63c
00000070: 877c 2ebe f48a 8bbe c690 7a3a b747 82be
00000080: 46fe c8be f996 6fbd 1871 31bd aa5c 22be
00000090: 6a25 51bc 09c0 16be adc7 e13d 918f 2fbe
000000a0: 52a3 58be a552 be3e 0619 84be 6b06 fb3d
000000b0: 64ee 043e 2a1f 70bc 8bc7 343e 48b2 f5bd
000000c0: f465 0d3d 84ae 663f 9e17 a93d fd1a 94bd
000000d0: 34b7 1e3e 9f49 403e 65d1 923d 471f cabd
000000e0: 850d b3bd 25a5 72bd bf73 61be 4182 313e
000000f0: b27f 48bd 88e6 1a3f 3e28 a03e 59f1 be3d
00000100: 521b 74bc d6fa 47be abbc 4b3e 5881 673e
00000110: b69b c4be 284b e53b d5af 833e 5bf4 3cbe
00000120: c460 b8be 9c30 f7bd c685 4bbe c900 50be
00000130: dfaa b23d 15ab 173e 16ff 60be 68c5 05be
00000140: 3c4d 55be a410 ebbd 16e1 bebd 3a5d 4f3e
00000150: 808b 4b3d ebe8 123f 8941 a73e f7f6 923e
00000160: e2fa e03d 8873 d9bb 1216 babd 2ce1 bbbd
00000170: 0c56 a0bd 837d 603c c86d 043f c4dc 823d
00000180: 5ac5 cdbc a86b c03e f4f4 64be 7c7f 1b3d
00000190: 9cb7 c63c e16f d3bd 3c7c a0bc b266 92be
000001a0: d07c cb3e 4346 9e3b 5a20 9f3e 3b91 45be
000001b0: ea4b 60bc 463e a03c a762 293e f1c5 953d
000001c0: 0772 a23e 474c d1be 166d 29bd a90c b9be
000001d0: 6f87 3b3e 64f7 f1bc d53f ecbd 2cb6 20be
000001e0: 684f 0ebe 57e8 2ebe 7d84 d2bd cf01 f13d
000001f0: 00c4 153f dd91 6f3e 2f41 063c 17b0 2f3d
00000200: 999a 35bd 459e 39be 8139 04bc 3883 da3e
00000210: 38f2 48be 58de 76be 6fdf 953e 59c5 9fbc
00000220: 1c7f 2e3d af8d 9abd a5e3 753d 3ba6 f0bc
00000230: 59e2 3abd 7a6d 22bd 7edd d8bd ad1b 253f
00000240: 2098 643d fe32 4b3e 2b86 2f3e 1250 843c
00000250: 5cbf 81be 87a7 033c fb68 89bd 24c2 633e
00000260: 6029 123f 3a4d 18bd 9d79 193e f273 db3d
00000270: d161 2abc 3edc 34be 993b 3fbe 3619 ebbd
00000280: f47d 933e d1e9 1b3f d62a 473d 78d8 ea3c
00000290: d0cd a83e 1ae7 e3bd 97a7 18be 56a8 903e
000002a0: ff5c 40be 65bd 36be 9c32 fabd 7bb4 143c
000002b0: 6255 8fbd a4fe 44bd ff72 12bd 507e 09be
000002c0: da5a 1ebe 21b2 b93e eede a6be 33f1 21be
000002d0: 967b 483b 9a99 1dbe 99ee 5dbe 0353 f43c
000002e0: 4fe8 d03e 0b50 d43e 0ef0 00bd 4ad7 f7bd
000002f0: 7ccc 68bd fb4d bb3c 4fc3 933c 0581 9abc
00000300: a81e 67bc f9a9 e33c be05 a1be 21b8 b2bd
00000310: 0966 ce3e cd4f 493e cc1e 2a3c 8fe1 eb3c
00000320: 620e 1fbd 9ff3 55bd 3779 033f 0bdb 40be
00000330: d12b ee3c 78fb 94be 39f9 aa3e 7ebd 57bd
00000340: 8780 6fbc 8d56 9a3d 3878 1f3e 3eb9 ca3e
00000350: 2e8b 47be 61ac 22be 1d7b dfbe ff58 82bc
00000360: 3e3d efbc f601 48be 8c47 1cbe 86f5 de3d
00000370: ca6a 743d 6177 a2be 49e3 db3c 652c 933e
00000380: 92be e63d bac0 07bc d663 d6bd ed9e 43bc
00000390: 48ec c0bd dea3 febd b92e 1e3e 2881 853b
000003a0: 996a 7b3e ca54 193f eee5 883c b2f6 0b3e
000003b0: 686e 1f3e 5c82 d1bc 2aae a6be 27c1 c5be
000003c0: ff99 d03c c16c f43d 728d 303d aa62 953c
000003d0: 472d bc3c 25fa 0fbd 35c3 e7bc 776f f13e
000003e0: ce94 32be 2a4c 0f3c d640 36be 6d43 4a3e
000003f0: f53f 1dbc 25db 66bc a4ca 54bc 2f2f 033f
0.158702 0.46747234 0.1821578 -0.13506804 0.09405876 0.2433594 -0.08440464 0.021366606
-0.046170928 -0.053788662 0.13846977 0.21128024 0.13421959 0.3565953 0.19854967 0.2841903
0.112470925 -0.12334853 0.011668608 -0.07319925 -0.0028804357 0.053103577 -0.09861695 0.34806275
0.23723991 -0.26952782 0.25032344 0.022290029 -0.17039691 -0.2725445 0.0009558316 -0.2544534
-0.39256495 -0.058493588 -0.043320745 -0.15855661 -0.012765268 -0.14721693 0.11024413 -0.1714461
-0.21156052 0.37172428 -0.2580034 0.122570835 0.12981564 -0.014655868 0.17654245 -0.11996895
0.03452106 0.9011004 0.08256458 -0.0723171 0.15499574 0.18778084 0.07168845 -0.09869247
-0.08742813 -0.059239525 -0.2201681 0.17334844 -0.048949905 0.6050801 0.31280702 0.09323377
-0.014899092 -0.1952928 0.1989619 0.22607934 -0.38400048 0.0069974847 0.25720087 -0.18452589
-0.36011326 -0.120698184 -0.1987525 -0.203128 0.08723997 0.14811356 -0.21972308 -0.13063586
-0.20830244 -0.11477783 -0.093202755 0.20250407 0.049693584 0.57386655 0.32667187 0.28704044
0.10985352 -0.006636087 -0.09086241 -0.091738075 -0.07828912 0.013701799 0.5173001 0.06389764
-0.025118519 0.37582135 -0.22359067 0.037963375 0.024257474 -0.103240736 -0.01959049 -0.28593975
0.39743662 0.004830153 0.3107937 -0.19293682 -0.013689974 0.019560944 0.16541539 0.07313145
0.3172762 -0.40878507 -0.041363798 -0.3614247 0.18313383 -0.02953691 -0.115356125 -0.15694493
-0.13897479 -0.17080818 -0.102791764 0.11767923 0.585022 0.23395486 0.008194252 0.04289254
-0.04433689 -0.18126781 -0.008070351 0.42678237 -0.19623649 -0.24108255 0.2927203 -0.019503282
0.04260169 -0.07546555 0.060031552 -0.02937614 -0.04562602 -0.039655186 -0.10589121 0.64495355
0.05580914 0.1984367 0.17141025 0.016151462 -0.25341308 0.008035547 -0.067094766 0.22242028
0.57094383 -0.037183024 0.14987798 0.10715474 -0.010399298 -0.1766214 -0.18675078 -0.11479418
0.28807032 0.6090365 0.048624836 0.028667673 0.32969522 -0.111280635 -0.1490768 0.2825343
-0.18785475 -0.17845686 -0.12216684 0.009076233 -0.06998707 -0.048094407 -0.0357542 -0.1342709
-0.15464345 0.36268714 -0.32591957 -0.15814666 0.003059124 -0.15390626 -0.21673049 0.02982474
0.40802237 0.41467318 -0.031478934 -0.1210161 -0.056835636 0.022864332 0.018037466 -0.01886035
-0.01410643 0.02779101 -0.31449693 -0.08726526 0.40312222 0.19659348 0.010383319 0.028794078
-0.038832076 -0.05223429 0.51356834 -0.18833558 0.029073628 -0.29098105 0.33393267 -0.05267095
-0.014618046 0.075360395 0.15573204 0.39594454 -0.19486687 -0.1588607 -0.43648615 -0.015911577
-0.029204007 -0.19531998 -0.15261668 0.10886674 0.059672154 -0.31731704 0.026841776 0.28744808
0.11266817 -0.008285696 -0.10468261 -0.011939746 -0.09420067 -0.12433599 0.15447511 0.0040742345
0.24552383 0.59895 0.016711202 0.13668326 0.1556946 -0.025574856 -0.32554752 -0.38623926
0.025464056 0.11934806 0.043103643 0.018235523 0.022970809 -0.035150666 -0.028291324 0.47155353
-0.17439577 0.008746186 -0.1779817 0.19752283 -0.009597768 -0.014090334 -0.012987766 0.5124387

conv3.in2.weight f4 [64]
00000000: 860c 143f 20c5 0e3f 73ba 043f 58fc 0e3f
00000010: b279 4b3f b8e6 093f 54eb 0b3f 6847 2d3f
00000020: cb56 2e3f 6759 163f 6023 0f3f f628 2e3f
00000030: 7c7a 3b3f dcee 423f 2964 013f 0c11 0b3f
00000040: 05ba 1c3f 547d 053f bf3a fe3e 2ae4 133f
00000050: 54eb 643f b466 f93e 4798 1a3f b57c 013f
00000060: fc41 0c3f 9a11 373f ae35 663f 1aef 1e3f
00000070: a869 183f a8fb 043f 02f4 243f 6c65 da3e
00000080: b691 093f 6b15 0e3f 2377 1e3f 60aa ef3e
00000090: 2b55 253f abf7 dc3e efe4 fd3e 9ac7 503f
000000a0: ae59 fc3e 9d52 443f 66cb ef3e 6d0b 393f
000000b0: bffc 6d3f c77f 063f 675b 083f 6b26 233f
000000c0: 21f6 483f 068e 363f f054 0f3f 2860 2d3f
000000d0: b380 623f 3e6d d43e 84f3 e53e f088 fc3e
000000e0: 7bae 0d3f 5e76 1d3f 2554 5f3f 883f f23e
000000f0: 1363 093f 6df2 163f e241 f43e d310 f33e
0.5783161 0.5576954 0.51847 0.55853796 0.7948257 0.53867674 0.5465596 0.6768708
0.68101186 0.5873017 0.5591335 0.6803125 0.7323377 0.7614572 0.5054346 0.54322886
0.61221343 0.5214436 0.49654195 0.57770026 0.8942158 0.4871117 0.60388607 0.5058091
0.54788184 0.7151123 0.8992566 0.6208359 0.5953622 0.51946497 0.64434826 0.42655504
0.5373796 0.5550143 0.6190054 0.46809673 0.6458308 0.43157706 0.49588725 0.8155457
0.4928717 0.7668856 0.46834868 0.7228306 0.92963785 0.5253872 0.5326447 0.63730496
0.7850056 0.7131046 0.5598898 0.6772485 0.8847763 0.41489595 0.4491235 0.49323225
0.5534436 0.6150874 0.8723777 0.47314095 0.536668 0.5896366 0.47706515 0.47473773
